mappo/actor_agent0.pt (torch, 48789 bytes, 22 tensors)

base.feature_norm.weight f4 [47]
0	0x3f800293	1.0000786
1	0x3f7ff699	0.99985653
2	0x3f7ff68b	0.9998557
3	0x3f7ff936	0.9998964
4	0x3f80007d	1.0000149
5	0x3f7ff8e1	0.99989134
6	0x3f7ffc70	0.99994564
7	0x3f7ffa83	0.99991626
8	0x3f80044f	1.0001315
9	0x3f800420	1.0001259
10	0x3f7ff859	0.99988323
11	0x3f7ff85a	0.9998833
12	0x3f7fffc4	0.9999964
13	0x3f80031a	1.0000947
14	0x3f7ff901	0.99989325
15	0x3f7ff73c	0.99986625
16	0x3f80042d	1.0001274
17	0x3f7ff6be	0.99985874
18	0x3f800309	1.0000926
19	0x3f800332	1.0000975
20	0x3f7ff713	0.9998638
21	0x3f800361	1.0001031
22	0x3f800245	1.0000693
23	0x3f800234	1.0000672
24	0x3f8004b2	1.0001433
25	0x3f7ffae4	0.99992204
26	0x3f8001b4	1.000052
27	0x3f800480	1.0001373
28	0x3f80041e	1.0001256
29	0x3f7ffe56	0.9999746
30	0x3f8002c0	1.0000839
31	0x3f7ff713	0.9998638
32	0x3f7ff79a	0.99987185
33	0x3f800456	1.0001323
34	0x3f7ff769	0.9998689
35	0x3f800205	1.0000616
36	0x3f7ff7b0	0.99987316
37	0x3f7ff742	0.9998666
38	0x3f7ffd54	0.99995923
39	0x3f7ff7e2	0.99987614
40	0x3f8002df	1.0000876
41	0x3f8002f5	1.0000902
42	0x3f80043b	1.0001291
43	0x3f80043e	1.0001295
44	0x3f8002c5	1.0000845
45	0x3f8002df	1.0000876
46	0x3f8003fe	1.0001218

base.feature_norm.bias f4 [47]
0	0xb7898eca	-1.6398164e-05
1	0xb911f273	-0.00013918597
2	0x38e7cc27	0.00011052965
3	0x39018299	0.0001235105
4	0xb85553e2	-5.086128e-05
5	0xb8e5acbc	-0.00010951745
6	0xb8a692fa	-7.942873e-05
7	0x3913e877	0.00014105612
8	0xb9147a22	-0.00014159878
9	0xb912f2a9	-0.00014014043
10	0x38f8833d	0.000118500066
11	0x39092e54	0.00013082597
12	0x38faffdd	0.00011968587
13	0x38bfe489	9.150158e-05
14	0x390ccb9e	0.00013427294
15	0x38fc9cd1	0.00012045506
16	0xb913fa6a	-0.00014112299
17	0xb8f1fb4a	-0.00011538582
18	0x3910aeee	0.00013798077
19	0xb8e4ac7e	-0.000109040164
20	0x39130735	0.00014021697
21	0xb901d150	-0.00012380374
22	0xb86e9067	-5.6878107e-05
23	0xb8ed8042	-0.000113249305
24	0x390f96fb	0.00013693787
25	0x38d11ac7	9.970884e-05
26	0xb681ddb0	-3.8703074e-06
27	0x390654fe	0.00012810898
28	0xb90e2c4e	-0.0001355868
29	0x3839e1aa	4.4317603e-05
30	0x36b2fe92	5.3344493e-06
31	0x391560e2	0.00014245839
32	0x390b54e4	0.00013287697
33	0xb9135504	-0.00014050683
34	0x39125cde	0.00013958241
35	0xb86fdf66	-5.7190096e-05
36	0x39120b90	0.00013927952
37	0x39110cd3	0.00013833055
38	0x38f03118	0.00011453236
39	0x3906845e	0.00012828546
40	0xb8b47fb6	-8.606857e-05
41	0xb8ee63d2	-0.00011367317
42	0xb8c0b5c5	-9.189131e-05
43	0xb90e37fa	-0.00013563028
44	0xb8dbec29	-0.00010486722
45	0xb8881545	-6.488947e-05
46	0xb90e47f5	-0.00013568981

base.mlp.fc1.0.weight f4 [32, 47]
0	0xbe518373	-0.204603
1	0xbe2c4ef2	-0.1682699
2	0xbd4ace81	-0.049513344
3	0xbe405f5e	-0.1878638
4	0x3e2979ea	0.16550413
5	0x3e40f517	0.18843494
6	0xbe88d112	-0.26722008
7	0xbf3f5692	-0.7474147
8	0xbe740720	-0.23830843
9	0xbe1448bd	-0.14480872
10	0xbe3028e7	-0.17203103
11	0xbde621df	-0.11236929
12	0x3e07c01a	0.13256875
13	0x3f23979a	0.639032
14	0x3e827261	0.2547789
15	0xbd1030d5	-0.03520282
16	0xbe5b8800	-0.21438599
17	0x3d3f88f2	0.04676146
18	0x3ef27875	0.47357526
19	0xbe365461	-0.17805625
20	0xbe55705f	-0.20843647
21	0xbd96c72d	-0.073622085
22	0xbe03f451	-0.12886168
23	0xbdaff831	-0.08592261
24	0xbe98d6b3	-0.29851303
25	0xbebba981	-0.3665276
26	0xbe48f07d	-0.19622989
27	0x3e8c30f8	0.2738111
28	0x3d589549	0.052876744
29	0x3dcbf4f5	0.09958831
30	0x3ab062ed	0.0013457217
31	0xbe0bad8b	-0.1364042
32	0xbd279fd0	-0.040923893
33	0xbd94fb81	-0.07274533
34	0xbe9e7e79	-0.30955866
35	0xbea84954	-0.32868445
36	0xbc34881e	-0.011018781
37	0xbe176cae	-0.14787552
38	0x3e9850c6	0.29749125
39	0xbe489063	-0.19586329
40	0x3e8d3317	0.2757804
41	0xbe912d8d	-0.28355065
42	0xbc12d5e1	-0.0089621255
43	0x3e25ac71	0.16179062
44	0x3e63de61	0.222528
45	0x3d8516e4	0.06498507
46	0x3e1b0099	0.15136947
47	0xbe1d43c7	-0.15357886
48	0xbe47d4f1	-0.19514824
49	0x3e6dbdbc	0.23216909
50	0xbdf67ccb	-0.12035521
51	0x3d9e247c	0.077218026
52	0xbe5ee27a	-0.21766081
53	0xbbf00cf6	-0.007325764
54	0x3e437fcd	0.19091721
55	0x3ec25fc3	0.37963685
56	0xbe4370d3	-0.19086008
57	0x3ed26393	0.41091594
58	0xbe860a8b	-0.2617992
59	0x3e9051cd	0.2818741
60	0x3e65e330	0.22449946
61	0x3ef8d91d	0.48603144
62	0x3e2d97d8	0.16952455
63	0xbe81aca7	-0.25327036
64	0xbda0935d	-0.07840607
65	0x3d75d54b	0.060017865
66	0xbd700411	-0.058597628
67	0xbda38233	-0.07983818
68	0x3ddbaa98	0.107258976
69	0x3e989bf1	0.29806474
70	0x3e5df9bd	0.21677299
71	0x3e8afb6d	0.27144948
72	0x3b4fadd2	0.0031689298
73	0xbec215b2	-0.37907177
74	0xbd3cf508	-0.046132118
75	0xbe829920	-0.2550745
76	0x3e8f6f50	0.28014612
77	0x3ece6e41	0.40318492
78	0xbd6e7a90	-0.058222353
79	0x3e8d3827	0.27581903
80	0x3e6c0f88	0.230528
81	0xbe38d9db	-0.18051855
82	0xbcfc4e01	-0.030798914
83	0x3e7cde8a	0.24694267
84	0xbcde40cb	-0.027130505
85	0xbd852039	-0.065002866
86	0x3e5533b6	0.20820507
87	0x3d6a1b7e	0.057155125
88	0xbdd023e2	-0.10163094
89	0x3e2699c4	0.16269594
90	0xbf449b83	-0.7679979
91	0x3ca77f83	0.020446545
92	0xbe00e69c	-0.1258797
93	0xbe8401eb	-0.25782713
94	0xbecf829c	-0.40529335
95	0x3f01d75e	0.5071925
96	0xbeb54727	-0.35405847
97	0xbe1f24c1	-0.15541364
98	0x3d33ed51	0.043927494
99	0xbd6d81f8	-0.057985276
100	0xbd3525b0	-0.044225395
101	0xbda51624	-0.080608636
102	0x3ebc307f	0.3675575
103	0x3ec0121d	0.3751382
104	0xbe409c50	-0.18809628
105	0xbe932845	-0.2874166
106	0x3d873931	0.06602705
107	0xbdd521ec	-0.10406861
108	0xbdde6acc	-0.10860214
109	0x3e9eae7c	0.30992496
110	0xbe1abb1d	-0.1511044
111	0x3e992ec9	0.29918507
112	0x3de304f5	0.1108493
113	0x3db81a13	0.08989348
114	0x3d73a382	0.059482105
115	0xbdc1745c	-0.09446022
116	0xbf097f78	-0.53710127
117	0xbe7c5fd6	-0.24645934
118	0x3e207b93	0.1567214
119	0xbd9c3fda	-0.07629366
120	0xbe81450a	-0.25247985
121	0x3dc0a738	0.094068944
122	0xbe83efbf	-0.2576885
123	0x3e15202c	0.14563054
124	0xbdffce3a	-0.124905065
125	0x3e048b06	0.12943658
126	0xbf1487fa	-0.58019984
127	0xbe40bb47	-0.1882144
128	0x3daa7b14	0.083242565
129	0xbcdb2dfb	-0.026755324
130	0xbd5d373b	-0.05400775
131	0x3e5ee0b8	0.21765411
132	0xbe778cdd	-0.24174829
133	0x3e47cfc4	0.1951285
134	0x3e042a54	0.12906772
135	0xbe6467a5	-0.22305162
136	0x3d4151ea	0.04719726
137	0xbe00a75d	-0.12563844
138	0xbe31674f	-0.17324565
139	0xbf06ac6c	-0.52606845
140	0xbe4fb4ab	-0.20283763
141	0x3e004ce6	0.12529334
142	0xbe26268d	-0.16225643
143	0x3e9f2020	0.31079197
144	0x3e6dde64	0.23229367
145	0xbe0b8188	-0.13623631
146	0x3ea8d5be	0.32975572
147	0xbe664f17	-0.22491108
148	0x3e2ff796	0.1718429
149	0x3eb26287	0.34840795
150	0x3c1a0ed5	0.00940295
151	0x3cef3100	0.02919817
152	0x3df10c8d	0.11769972
153	0xbe852f8a	-0.26012832
154	0x3ec69d65	0.38791957
155	0x3edff520	0.43741703
156	0xbe97b11e	-0.29627317
157	0xbcfd8bbb	-0.030950418
158	0x3d4c4f1c	0.049880132
159	0x3e90c39e	0.28274244
160	0xbd027a28	-0.03185478
161	0xbc6c3644	-0.014417235
162	0x3e549df3	0.20763378
163	0xbe511223	-0.20417075
164	0xbe1d54ca	-0.15364376
165	0x3e6bc27b	0.23023407
166	0x3e9b27bf	0.3030376
167	0x3e6e6b54	0.2328313
168	0xbea21802	-0.31658942
169	0xbeb1e5c4	-0.3474561
170	0xbe366bdf	-0.17814587
171	0x3d6b5025	0.05744948
172	0xbca7f73c	-0.020503633
173	0xbe8d3304	-0.27577984
174	0xbf31e00e	-0.69482505
175	0xbb478326	-0.003044316
176	0xbe692bae	-0.22770569
177	0x3dcf8a35	0.10133783
178	0x3ee7c3fe	0.45266718
179	0x3e1ca790	0.15298295
180	0xbc8db4b0	-0.017298073
181	0x3dc66c13	0.09688582
182	0x3e816efc	0.25279987
183	0x3dbe7ed5	0.09301535
184	0x3c832ca0	0.01601249
185	0xbeb530e1	-0.35388854
186	0x3e2c76e0	0.16842222
187	0x3dd1e50d	0.10248766
188	0x3e8d4a87	0.27595922
189	0xbe0ed85a	-0.13949719
190	0xbeb1bfc0	-0.34716606
191	0x3e116c60	0.14201498
192	0xbe5c4c3b	-0.21513455
193	0xbddf30fd	-0.10898016
194	0x3da385ae	0.07984482
195	0x3e9bfe82	0.30467612
196	0xbe8d0d02	-0.27548987
197	0xbca22c31	-0.019796463
198	0xbdb08ce5	-0.086206235
199	0xbcae82ed	-0.021302665
200	0xbe3cf61d	-0.1845326
201	0x3d3f4589	0.046697173
202	0x3de6c30b	0.1126767
203	0xbec53881	-0.38519672
204	0xbdfd355f	-0.12363695
205	0xbe3c1595	-0.18367608
206	0x3e45bcab	0.19310252
207	0xbe8194e4	-0.25308907
208	0xbd985f7b	-0.074400865
209	0x3eb36f9a	0.35046083
210	0xbded347a	-0.11582275
211	0xbf17c324	-0.59282136
212	0x3e833fb2	0.25634533
213	0x3d2788a1	0.040901784
214	0x3e804840	0.25055122
215	0x3f15f47a	0.58576167
216	0x3ec85d1e	0.39133543
217	0xbdde914c	-0.10867557
218	0xbe8adaae	-0.27119964
219	0x3e76195c	0.24033111
220	0xbdd070c9	-0.10177762
221	0x3e9da8b6	0.3079278
222	0xbeecde5a	-0.4626339
223	0x3ccf0f8a	0.025275964
224	0x3c9ad44d	0.018900061
225	0x3d054ec3	0.032545816
226	0xbd5edffd	-0.05441283
227	0x3de213ef	0.11038958
228	0x3cbe23aa	0.023210365
229	0xbe31136a	-0.17292562
230	0x3e979616	0.29606694
231	0xbedb5cc0	-0.428442
232	0xbe0b244f	-0.1358807
233	0xbe32e4bc	-0.17470068
234	0xbd50219b	-0.0508133
235	0x3e9ff0f1	0.3123851
236	0x3df5fe44	0.12011388
237	0xbe16e2f5	-0.14735015
238	0xbcbcf15e	-0.023064312
239	0xbe1c4eb6	-0.15264401
240	0xbe762f5d	-0.24041505
241	0xbe4eff24	-0.20214516
242	0xbe0d8781	-0.13821222
243	0xbd0a7c49	-0.033809934
244	0x3f387141	0.7204781
245	0x3db90b9c	0.090354174
246	0xbd91ec29	-0.07125122
247	0x3e86c073	0.26318702
248	0xbd4fe4d4	-0.050755337
249	0x3ca30ec5	0.019904504
250	0xbe98a909	-0.29816464
251	0xbe0d7adf	-0.13816403
252	0x3e26bf0f	0.1628382
253	0x3e991272	0.29896885
254	0xbbcd27be	-0.006260841
255	0x3db87ba9	0.09007961

base.mlp.fc1.0.bias f4 [32]
0	0xb905209a	-0.00012696013
1	0x390e8d4d	0.00013594814
2	0xb802525e	-3.1071126e-05
3	0x3909f9bb	0.0001315837
4	0x38f51ef7	0.00011688278
5	0xb9082835	-0.00012984949
6	0x37d893c2	2.5818012e-05
7	0xb7b1ab2f	-2.1179758e-05
8	0xb887b4c7	-6.470974e-05
9	0x39107a09	0.00013778372
10	0xb9120365	-0.0001392491
11	0x38eee697	0.00011391675
12	0xb82fc168	-4.1903375e-05
13	0x38d235b7	0.000100235855
14	0xb6c23b79	-5.788574e-06
15	0x38e44753	0.000108851724
16	0xb807d4e8	-3.2384793e-05
17	0xb8ea15a9	-0.00011162024
18	0x383b144b	4.4603174e-05
19	0xb798523c	-1.8158105e-05
20	0x390f3dbb	0.00013660539
21	0xb912d3fa	-0.00014002612
22	0x390a01d0	0.00013161381
23	0xb90bb042	-0.00013321734
24	0xb846a37e	-4.7359143e-05
25	0x38876ce0	6.457581e-05
26	0xb8a0d7ea	-7.669612e-05
27	0x38e7a272	0.00011045196
28	0xb913014d	-0.00014019497
29	0x37e9b94f	2.7862056e-05
30	0xb916d4ab	-0.0001438434
31	0xb8db5412	-0.00010458393

base.mlp.fc1.2.weight f4 [32]
0	0x3f800005	1.0000006
1	0x3f7ffb8e	0.99993217
2	0x3f7ff8df	0.9998912
3	0x3f800472	1.0001357
4	0x3f8003fb	1.0001215
5	0x3f7ff814	0.9998791
6	0x3f8001af	1.0000514
7	0x3f7ff98f	0.9999017
8	0x3f7ffdc8	0.99996614
9	0x3f80021b	1.0000643
10	0x3f7ffd68	0.9999604
11	0x3f7ff7c4	0.99987435
12	0x3f8002e3	1.0000881
13	0x3f800396	1.0001094
14	0x3f800412	1.0001242
15	0x3f7ff702	0.9998628
16	0x3f80043c	1.0001292
17	0x3f80040b	1.0001234
18	0x3f7ffda9	0.9999643
19	0x3f7ff9c1	0.9999047
20	0x3f80044c	1.0001311
21	0x3f8003c4	1.0001149
22	0x3f7ff78b	0.99987096
23	0x3f7fff99	0.99999386
24	0x3f7ff743	0.99986666
25	0x3f7ff811	0.99987894
26	0x3f80012d	1.0000359
27	0x3f800238	1.0000677
28	0x3f7ff7a1	0.99987227
29	0x3f7ff7ec	0.99987674
30	0x3f8000e6	1.0000274
31	0x3f8003e6	1.000119

base.mlp.fc1.2.bias f4 [32]
0	0xb653e75c	-3.157612e-06
1	0x3909f551	0.00013156726
2	0xb8b43877	-8.593586e-05
3	0x390d7024	0.00013488583
4	0x3901cd9e	0.00012378997
5	0xb90acec7	-0.00013237736
6	0x37cb3ff2	2.4229263e-05
7	0x372a1fe8	1.0140218e-05
8	0x3842336e	4.6301102e-05
9	0x3870bb29	5.7394765e-05
10	0xb9118b79	-0.00013880235
11	0x390afc42	0.00013254679
12	0xb8e6551b	-0.00010983107
13	0x38ea596e	0.00011174647
14	0x38dd0faa	0.00010541019
15	0x39085049	0.00012999879
16	0xb900b218	-0.00012273376
17	0xb9094a24	-0.00013092958
18	0xb5aca2a8	-1.2862338e-06
19	0x368884b1	4.068563e-06
20	0x39102879	0.00013747987
21	0xb90cf20d	-0.00013441611
22	0x39153953	0.00014231102
23	0x37a079bc	1.9130173e-05
24	0xb90b1731	-0.00013264712
25	0x38b843b3	8.786414e-05
26	0xb87c5d98	-6.0168648e-05
27	0x38ddd209	0.00010577223
28	0xb91245f4	-0.00013949705
29	0x38724755	5.776373e-05
30	0xb915eb93	-0.00014297506
31	0x388216b8	6.203115e-05

base.mlp.fc_h.0.weight f4 [32, 32]
0	0xbe27e345	-0.1639529
1	0x3f1f25e7	0.6216721
2	0x3eeda4d2	0.4641481
3	0x3ec75278	0.38930106
4	0xbe6d5c57	-0.23179756
5	0xbe031088	-0.12799275
6	0x3e49ab9f	0.19694375
7	0x3eddc34a	0.43313056
8	0xbce202d2	-0.027589235
9	0x3d4eb7c7	0.050468232
10	0x3eeab4e3	0.4584113
11	0x3e07b33e	0.13251969
12	0xbe886e19	-0.26646498
13	0x3ee19057	0.44055435
14	0xbd4ab199	-0.049485777
15	0x3e45c156	0.19312033
16	0x3dbf749e	0.09348415
17	0xbecd58fd	-0.40106955
18	0xbdda1051	-0.10647643
19	0xbeb61d2d	-0.35569134
20	0xbe6e43af	-0.23268007
21	0x3ed7fcf4	0.42185175
22	0xbe8ec73c	-0.2788638
23	0x3dd72166	0.10504417
24	0xbe9a637e	-0.30154032
25	0xbe225aae	-0.15854904
26	0x3d0cc7c2	0.03437019
27	0xbbf01848	-0.0073271133
28	0xbe2fb21f	-0.17157792
29	0xbe0b9a38	-0.13633049
30	0xbf1bccd9	-0.6085945
31	0x3d032a41	0.03202272
32	0x3e0b64db	0.13612692
33	0xbe8b67aa	-0.27227527
34	0xbe4e1929	-0.20126785
35	0x3e73c878	0.23806942
36	0xbd7e35a3	-0.06206287
37	0x3f2817fb	0.6566159
38	0x3e495ebf	0.19665049
39	0x3c784148	0.015152283
40	0x3ec69e82	0.38792807
41	0xbd275012	-0.040847845
42	0xbe9456c1	-0.28972438
43	0x3eb172ea	0.34657985
44	0xbe825563	-0.2545577
45	0xbd5e023d	-0.054201353
46	0xbe40cbc4	-0.1882773
47	0xbe37fe11	-0.17968012
48	0x3d096bd7	0.03355011
49	0xbec8912b	-0.39173254
50	0xbf4fed93	-0.81221884
51	0xbea1ba17	-0.31587288
52	0xbe9401ea	-0.2890771
53	0xbd800779	-0.06251425
54	0xbe6bf033	-0.23040847
55	0x3e914d50	0.28379297
56	0x3e44c85a	0.19217053
57	0x3ce2750f	0.027643709
58	0x3a49fd29	0.00077052653
59	0x3ec20b74	0.37899363
60	0xbd51deb8	-0.05123779
61	0x3f018fe0	0.5061016
62	0x3e00f640	0.12593937
63	0x3e34f9ac	0.17673367
64	0x3f2822bb	0.65677994
65	0x3e5c68fc	0.21524423
66	0xbe96d601	-0.29460147
67	0x3d8b60dd	0.068055846
68	0x3ecc1dc6	0.39866465
69	0x3dbc0f2b	0.091825806
70	0x3e78e786	0.24307069
71	0x3d7139bb	0.058892947
72	0xbe0b1d90	-0.13585496
73	0xbe4237b8	-0.18966568
74	0x3e3887ef	0.18020605
75	0x3e97890c	0.29596746
76	0x3df77eac	0.120847076
77	0x3f50c70c	0.8155372
78	0x3f0b309e	0.5437106
79	0xbd94775c	-0.072493285
80	0x3cedb521	0.029017033
81	0x3dfd98e7	0.123826794
82	0xbd08a463	-0.033359896
83	0x3d731004	0.059341446
84	0xbe803c80	-0.25046158
85	0xba319df7	-0.0006775553
86	0x3e16756d	0.14693232
87	0xbec77b35	-0.38961187
88	0x3e55b4d2	0.20869759
89	0xbe713e1c	-0.23558849
90	0x3e2aebda	0.16691533
91	0xbead9379	-0.33901575
92	0x3debe020	0.11517358
93	0x3edc4ccf	0.4302735
94	0x3e1c27fb	0.15249626
95	0xbea481e3	-0.32130346
96	0xbd537bd7	-0.051631775
97	0xbec5298e	-0.38508266
98	0xbe8ba7d7	-0.2727649
99	0x3ee358f8	0.44403815
100	0xbe5ccc33	-0.21562271
101	0xbed96247	-0.42457792
102	0x3da175f6	0.078838274
103	0xbde368dc	-0.11103985
104	0x3ee42154	0.44556677
105	0xbe9bc4df	-0.30423638
106	0x3dc99380	0.098425865
107	0x3f2335f7	0.6375422
108	0x3ee3be6d	0.4448122
109	0xbeb624fb	-0.3557509
110	0x3e57511e	0.21027038
111	0x3da08ba7	0.078391366
112	0xbc283488	-0.010266431
113	0x3deb7df0	0.1149863
114	0xbd992cd8	-0.074792564
115	0xbe5d7a19	-0.21628608
116	0x3efea6e9	0.49736717
117	0x3eac189e	0.3361253
118	0xbe20e287	-0.15711413
119	0xbe476fa9	-0.19476189
120	0x3e681b4f	0.22666667
121	0x3d4e404e	0.050354294
122	0xbe7c50f8	-0.24640262
123	0xbe501116	-0.20319018
124	0xbe56f2eb	-0.20991103
125	0x3c8e1125	0.01734216
126	0xbed7fed3	-0.42186603
127	0xbecd72ac	-0.4012655
128	0xbd027eeb	-0.03185932
129	0xbe09007f	-0.13379095
130	0xbeee3f81	-0.46532825
131	0x3d847912	0.06468405
132	0xbeb0ba3c	-0.34517086
133	0xbd4e80a2	-0.050415643
134	0x3ee54f9b	0.44787297
135	0x3e23837d	0.15968128
136	0xbeb2f28d	-0.34950677
137	0xbdebd17c	-0.11514565
138	0x3ca91a16	0.020642322
139	0xbe5c0fa3	-0.2149034
140	0x3e90eb10	0.28304338
141	0x3cbd6c63	0.023122972
142	0xbe2d8cc8	-0.16948235
143	0x3da80319	0.08203716
144	0x3f44c2d7	0.768598
145	0x3e5aa963	0.21353678
146	0x3ed04b59	0.40682486
147	0xbea718cc	-0.32636106
148	0xbed39c77	-0.4133031
149	0x3be689cc	0.0070354696
150	0xbf375a8f	-0.71622556
151	0x3d260fda	0.04054246
152	0x3c977f83	0.01849342
153	0x3dc58895	0.096451916
154	0xbe886d47	-0.26645872
155	0x3e1377b7	0.14401136
156	0x3e6b5ce9	0.22984661
157	0xbd9b29e7	-0.075763516
158	0x3eb6f67e	0.35734934
159	0xbdd44e65	-0.10366515
160	0xbe238f0a	-0.15972534
161	0x3e89dba2	0.2692538
162	0x3e85d01b	0.26135334
163	0xbf5f80b4	-0.8730576
164	0x3e726791	0.2367232
165	0x3de49d42	0.11162807
166	0x3ec26ded	0.37974492
167	0xbd9470c5	-0.072480716
168	0x3ec1a51d	0.37821284
169	0xbeefb19d	-0.46815196
170	0xba949344	-0.0011335392
171	0x3b322355	0.0027181704
172	0x3cc94ba6	0.024572205
173	0xbe1a414d	-0.15063973
174	0x3dd31b9b	0.10308
175	0xbe6d9c4d	-0.23204155
176	0x3e3d3e41	0.18480779
177	0x3ea10a52	0.31453186
178	0x3d333ebc	0.043761
179	0xbe74be89	-0.23900808
180	0x3e540ff3	0.20709209
181	0xbd377a5a	-0.044794418
182	0xbe725058	-0.23663461
183	0x3eed6fc6	0.4637434
184	0xbe846faa	-0.25866443
185	0x3db8e535	0.09028093
186	0x3ed30d17	0.41220924
187	0xbbfc7aea	-0.007705082
188	0x3e565b49	0.2093326
189	0x3e9ebea7	0.3100483
190	0xbeaa5839	-0.33270434
191	0xbed7bc1e	-0.4213571
192	0xbedee482	-0.43533713
193	0x3c81f8ad	0.015865648
194	0x3e474641	0.19460393
195	0xbda82953	-0.08211007
196	0x3e8a6f25	0.27037922
197	0xbeaf3b2b	-0.3422483
198	0xbeb0cd7d	-0.34531775
199	0xbea006a4	-0.31255066
200	0xbd926259	-0.071476646
201	0xbe4f7ff3	-0.20263653
202	0x3e416280	0.18885231
203	0x3f0e6d3a	0.55635417
204	0xbe831027	-0.2559826
205	0xbbcf7a37	-0.006331708
206	0xbda36a07	-0.079792075
207	0xbb18b50f	-0.0023301279
208	0x3b99702b	0.004682561
209	0xbd92f368	-0.07175332
210	0x3e163283	0.14667706
211	0xbeef2266	-0.4670593
212	0x3cfce479	0.030870663
213	0xbf03c507	-0.51472515
214	0xbe91adca	-0.28452903
215	0xbe6abb04	-0.22922903
216	0xbbe8b9e4	-0.007102238
217	0xbf20d72e	-0.6282834
218	0xbe8d07a4	-0.27544892
219	0xbe075946	-0.13217649
220	0x3ee7798b	0.45209917
221	0x3e8c98c4	0.274603
222	0x3e6e8f84	0.23296934
223	0x3ee8a7cc	0.4544052
224	0xbe92ae38	-0.28648543
225	0x3ed91d61	0.42405227
226	0xbea05bcb	-0.31320032
227	0x3ec87b6b	0.3915666
228	0xbe65ca4b	-0.2244045
229	0x3f10d13f	0.56569284
230	0xbeb79ffd	-0.3586425
231	0x3de6adca	0.112636164
232	0xbe8c2adb	-0.27376446
233	0xbc6e1964	-0.014532421
234	0xbf2a6cb9	-0.6657215
235	0x3e1769a1	0.14786388
236	0x3d6a8c57	0.057262745
237	0xbe32b11c	-0.17450374
238	0xbd9b163d	-0.07572601
239	0x3e1066ea	0.14101759
240	0x3e0f8a32	0.14017561
241	0xbc9bfe8c	-0.019042276
242	0x3ebf6701	0.37383273
243	0x3e289ba3	0.1646562
244	0x3e65e249	0.22449602
245	0x3dc227cc	0.09480247
246	0x3d72063c	0.059087977
247	0xbdf07211	-0.117405064
248	0x3daf9b29	0.08574516
249	0xbeb98c65	-0.36239925
250	0x3ee6d2ab	0.45082602
251	0x3d09e99f	0.033670064
252	0x3f04ff35	0.51951915
253	0x3e6b1730	0.22958064
254	0xbedd373c	-0.43206203
255	0xbe45e346	-0.19324979

base.mlp.fc_h.0.bias f4 [32]
0	0x00000000	0.0
1	0x00000000	0.0
2	0x00000000	0.0
3	0x00000000	0.0
4	0x00000000	0.0
5	0x00000000	0.0
6	0x00000000	0.0
7	0x00000000	0.0
8	0x00000000	0.0
9	0x00000000	0.0
10	0x00000000	0.0
11	0x00000000	0.0
12	0x00000000	0.0
13	0x00000000	0.0
14	0x00000000	0.0
15	0x00000000	0.0
16	0x00000000	0.0
17	0x00000000	0.0
18	0x00000000	0.0
19	0x00000000	0.0
20	0x00000000	0.0
21	0x00000000	0.0
22	0x00000000	0.0
23	0x00000000	0.0
24	0x00000000	0.0
25	0x00000000	0.0
26	0x00000000	0.0
27	0x00000000	0.0
28	0x00000000	0.0
29	0x00000000	0.0
30	0x00000000	0.0
31	0x00000000	0.0

base.mlp.fc_h.2.weight f4 [32]
0	0x3f800000	1.0
1	0x3f800000	1.0
2	0x3f800000	1.0
3	0x3f800000	1.0
4	0x3f800000	1.0
5	0x3f800000	1.0
6	0x3f800000	1.0
7	0x3f800000	1.0
8	0x3f800000	1.0
9	0x3f800000	1.0
10	0x3f800000	1.0
11	0x3f800000	1.0
12	0x3f800000	1.0
13	0x3f800000	1.0
14	0x3f800000	1.0
15	0x3f800000	1.0
16	0x3f800000	1.0
17	0x3f800000	1.0
18	0x3f800000	1.0
19	0x3f800000	1.0
20	0x3f800000	1.0
21	0x3f800000	1.0
22	0x3f800000	1.0
23	0x3f800000	1.0
24	0x3f800000	1.0
25	0x3f800000	1.0
26	0x3f800000	1.0
27	0x3f800000	1.0
28	0x3f800000	1.0
29	0x3f800000	1.0
30	0x3f800000	1.0
31	0x3f800000	1.0

base.mlp.fc_h.2.bias f4 [32]
0	0x00000000	0.0
1	0x00000000	0.0
2	0x00000000	0.0
3	0x00000000	0.0
4	0x00000000	0.0
5	0x00000000	0.0
6	0x00000000	0.0
7	0x00000000	0.0
8	0x00000000	0.0
9	0x00000000	0.0
10	0x00000000	0.0
11	0x00000000	0.0
12	0x00000000	0.0
13	0x00000000	0.0
14	0x00000000	0.0
15	0x00000000	0.0
16	0x00000000	0.0
17	0x00000000	0.0
18	0x00000000	0.0
19	0x00000000	0.0
20	0x00000000	0.0
21	0x00000000	0.0
22	0x00000000	0.0
23	0x00000000	0.0
24	0x00000000	0.0
25	0x00000000	0.0
26	0x00000000	0.0
27	0x00000000	0.0
28	0x00000000	0.0
29	0x00000000	0.0
30	0x00000000	0.0
31	0x00000000	0.0

base.mlp.fc2.0.0.weight f4 [32, 32]
0	0xbe280655	-0.16408665
1	0x3f1f2737	0.6216921
2	0x3eedb678	0.46428275
3	0x3ec75cec	0.3893808
4	0xbe6d3980	-0.23166466
5	0xbe02f5ac	-0.12789029
6	0x3e49cb48	0.19706452
7	0x3eddb1a4	0.43299592
8	0xbce320c5	-0.027725587
9	0x3d4e2965	0.050332446
10	0x3eeaa4bb	0.45828804
11	0x3e0796e8	0.1324116
12	0xbe887fdf	-0.26660058
13	0x3ee1a22b	0.44069037
14	0xbd4a273e	-0.04935383
15	0x3e45cc26	0.19316158
16	0x3dbf2dff	0.09334945
17	0xbecd475a	-0.400935
18	0xbdd9c7c1	-0.10633803
19	0xbeb60e8c	-0.35557973
20	0xbe6e5716	-0.23275408
21	0x3ed807a8	0.4219334
22	0xbe8ed79b	-0.2789887
23	0x3dd6da9a	0.10490914
24	0xbe9a5283	-0.30141076
25	0xbe226607	-0.15859233
26	0x3d0c3ef2	0.034239717
27	0xbbf3dfb7	-0.0074424404
28	0xbe2fa62f	-0.17153238
29	0xbe0b9b65	-0.13633497
30	0xbf1bc857	-0.6085257
31	0x3d03b8f8	0.03215882
32	0x3e0b4c9a	0.1360344
33	0xbe8b55be	-0.27213854
34	0xbe4e3711	-0.20138194
35	0x3e73e885	0.23819168
36	0xbd7e3d27	-0.06207004
37	0x3f281028	0.6564965
38	0x3e493d9c	0.19652408
39	0x3c797ddb	0.01522776
40	0x3ec6a6ed	0.3879923
41	0xbd26f470	-0.040760458
42	0xbe944d53	-0.28965244
43	0x3eb16544	0.34647572
44	0xbe824739	-0.25444964
45	0xbd5e7359	-0.054309223
46	0xbe40a8df	-0.18814419
47	0xbe37dafe	-0.17954633
48	0x3d09df8f	0.033660468
49	0xbec87fbe	-0.3915996
50	0xbf4ff589	-0.8123403
51	0xbea1c539	-0.3159578
52	0xbe9413c4	-0.2892133
53	0xbd7f845a	-0.06238208
54	0xbe6c1378	-0.23054302
55	0x3e91513a	0.28382283
56	0x3e44a75c	0.19204468
57	0x3ce177ec	0.027523004
58	0x3a644682	0.0008708016
59	0x3ec1fcaf	0.37888095
60	0xbd51b282	-0.05119563
61	0x3f0198be	0.5062369
62	0x3e00d2de	0.1258044
63	0x3e34e887	0.17666827
64	0x3f28251a	0.6568161
65	0x3e5c56be	0.21517465
66	0xbe96dd93	-0.29465923
67	0x3d8ba15a	0.06817885
68	0x3ecc1035	0.39856115
69	0x3dbbcd2e	0.09169994
70	0x3e78d38a	0.24299446
71	0x3d71a554	0.05899556
72	0xbe0b0583	-0.13576321
73	0xbe421fb5	-0.18957408
74	0x3e3873be	0.18012902
75	0x3e9791ca	0.29603416
76	0x3df7b512	0.12095083
77	0x3f50c2bc	0.8154714
78	0x3f0b2a7f	0.5436172
79	0xbd946e83	-0.07247641
80	0x3cee9e61	0.029128255
81	0x3dfdd11f	0.12393402
82	0xbd083296	-0.033251368
83	0x3d73919d	0.05946504
84	0xbe804a18	-0.2505653
85	0xba48b233	-0.0007655948
86	0x3e1661e8	0.14685786
87	0xbec78a9f	-0.38972947
88	0x3e55bac7	0.20872031
89	0xbe712768	-0.23550189
90	0x3e2b06e5	0.16701849
91	0xbeada324	-0.3391353
92	0x3debe4c0	0.1151824
93	0x3edc57b3	0.4303566
94	0x3e1c0864	0.15237576
95	0xbea48746	-0.32134455
96	0xbd53f7b9	-0.05174992
97	0xbec522e0	-0.3850317
98	0xbe8b9850	-0.27264643
99	0x3ee361d6	0.4441058
100	0xbe5ccc51	-0.21562316
101	0xbed964e2	-0.4245978
102	0x3da1ac57	0.07894199
103	0xbde39d59	-0.11113996
104	0x3ee41452	0.44546753
105	0xbe9bd42b	-0.3043531
106	0x3dc9aef8	0.09847826
107	0x3f2332c0	0.63749313
108	0x3ee3ae28	0.44468808
109	0xbeb61663	-0.35563955
110	0x3e5754a7	0.21028386
111	0x3da0af74	0.07845965
112	0xbc29e560	-0.010369629
113	0x3deb960f	0.11503231
114	0xbd98f7c4	-0.074691325
115	0xbe5d5a44	-0.21616465
116	0x3efea9e1	0.49738982
117	0x3eac1cef	0.33615825
118	0xbe20fe63	-0.15722041
119	0xbe478415	-0.19483979
120	0x3e683bac	0.22679013
121	0x3d4ebee1	0.050475005
122	0xbe7c64e6	-0.24647865
123	0xbe503244	-0.20331675
124	0xbe56d3cd	-0.20979233
125	0x3c8d2997	0.017231746
126	0xbed80776	-0.42193192
127	0xbecd65b1	-0.40116647
128	0xbd01ed55	-0.031720478
129	0xbe09244f	-0.13392757
130	0xbeee51ee	-0.46546882
131	0x3d84351a	0.06455441
132	0xbeb0cc96	-0.34531087
133	0xbd4efded	-0.05053513
134	0x3ee53f7d	0.44775
135	0x3e23a83e	0.15982148
136	0xbeb2dfa5	-0.34936252
137	0xbdeb9492	-0.11502947
138	0x3ca995e6	0.02070136
139	0xbe5bea33	-0.21476059
140	0x3e90fdec	0.28318727
141	0x3cbc3ebf	0.022979138
142	0xbe2db1ae	-0.1696231
143	0x3da7c84c	0.081925005
144	0x3f44c9a9	0.7687021
145	0x3e5a89cb	0.21341626
146	0x3ed03e67	0.4067261
147	0xbea708f1	-0.3262401
148	0xbed39a97	-0.4132888
149	0x3be21858	0.0068998747
150	0xbf375141	-0.7160836
151	0x3d2680e7	0.040650275
152	0x3c966939	0.018360721
153	0x3dc57247	0.09640937
154	0xbe885a45	-0.2663137
155	0x3e136ef6	0.14397797
156	0x3e6b4054	0.22973758
157	0xbd9ae25d	-0.075627066
158	0x3eb708a6	0.35748786
159	0xbdd49a8e	-0.103810415
160	0xbe23757b	-0.15962784
161	0x3e89dd3c	0.269266
162	0x3e85c01a	0.26123124
163	0xbf5f7a97	-0.8729643
164	0x3e72478d	0.23660107
165	0x3de469fa	0.11153026
166	0x3ec25f96	0.3796355
167	0xbd942f7f	-0.07235622
168	0x3ec1b4eb	0.37833342
169	0xbeefa254	-0.46803534
170	0xba84970a	-0.0010115814
171	0x3b2cd50c	0.0026372103
172	0x3cca4972	0.024693225
173	0xbe1a5cc7	-0.15074454
174	0x3dd2ecba	0.10299058
175	0xbe6d7a7d	-0.23191257
176	0x3e3d60f4	0.18494016
177	0x3ea0fd88	0.3144343
178	0x3d32c042	0.043640383
179	0xbe74da94	-0.23911506
180	0x3e53f74d	0.20699807
181	0xbd37c74f	-0.04486781
182	0xbe7267c6	-0.23672399
183	0x3eed7fac	0.46386468
184	0xbe84802a	-0.2587903
185	0x3db8c676	0.090222284
186	0x3ed31d5b	0.41233334
187	0xbbff61d4	-0.0077936444
188	0x3e5673c1	0.20942594
189	0x3e9ec11f	0.31006715
190	0xbeaa68fd	-0.33283225
191	0xbed7ca97	-0.4214675
192	0xbeded68f	-0.4352307
193	0x3c823583	0.015894657
194	0x3e472cf0	0.19450736
195	0xbda8557b	-0.08219429
196	0x3e8a7529	0.2704251
197	0xbeaf47f2	-0.34234577
198	0xbeb0dbc3	-0.34542665
199	0xbe9ffe26	-0.31248587
200	0xbd9235bc	-0.07139155
201	0xbe4f6e41	-0.20256902
202	0x3e414a9b	0.18876116
203	0x3f0e7303	0.55644244
204	0xbe83014e	-0.25586933
205	0xbbd26112	-0.006420263
206	0xbda36ffe	-0.07980345
207	0xbb1e7c72	-0.0024183062
208	0x3b9a4a99	0.0047085998
209	0xbd92d2ce	-0.07169114
210	0x3e163899	0.14670028
211	0xbeef1e29	-0.46702698
212	0x3cfcb0ac	0.030845962
213	0xbf03c8bd	-0.5147818
214	0xbe91a89b	-0.28448948
215	0xbe6aa7bc	-0.22915548
216	0xbbebbad7	-0.007193904
217	0xbf20db55	-0.62834674
218	0xbe8cfef3	-0.2753826
219	0xbe074867	-0.13211213
220	0x3ee76f99	0.4520233
221	0x3e8ca7c8	0.27471757
222	0x3e6e9416	0.23298678
223	0x3ee89aa5	0.45430484
224	0xbe92bebb	-0.2866114
225	0x3ed90de3	0.42393407
226	0xbea04ad5	-0.31307092
227	0x3ec88b5c	0.39168823
228	0xbe65ab28	-0.22428572
229	0x3f10cae8	0.5655961
230	0xbeb7952f	-0.35856006
231	0x3de66d49	0.11251313
232	0xbe8c3afc	-0.27388752
233	0xbc702e26	-0.01465944
234	0xbf2a6944	-0.6656687
235	0x3e175540	0.14778614
236	0x3d6a0937	0.057137694
237	0xbe328fa5	-0.17437609
238	0xbd9ad605	-0.07560352
239	0x3e10783c	0.14108366
240	0x3e0f68e3	0.14004855
241	0xbc9af2fa	-0.018914688
242	0x3ebf776f	0.37395808
243	0x3e28bb57	0.16477714
244	0x3e65daee	0.22446796
245	0x3dc25e7c	0.09490678
246	0x3d717e2a	0.05895821
247	0xbdf0b4d6	-0.11753242
248	0x3dafde31	0.085873015
249	0xbeb992c2	-0.3624478
250	0x3ee6c330	0.4507079
251	0x3d096300	0.03354168
252	0x3f05072f	0.51964086
253	0x3e6b154a	0.2295734
254	0xbedd4099	-0.43213347
255	0xbe45c2ec	-0.19312638

base.mlp.fc2.0.0.bias f4 [32]
0	0x390abf2a	0.0001323192
1	0xb884df42	-6.3358355e-05
2	0xb89c97af	-7.466913e-05
3	0x38e437be	0.0001088227
4	0xb91561f9	-0.00014246245
5	0xb8efd1ba	-0.00011435473
6	0xb8b1ad52	-8.472301e-05
7	0x38ff6ee1	0.0001218
8	0x3803e603	3.144705e-05
9	0x389c50b3	7.453691e-05
10	0x385213fc	5.0086514e-05
11	0xb89675b1	-7.174479e-05
12	0xb89af6e4	-7.389279e-05
13	0xb8f5cb1c	-0.000117203424
14	0x39129df3	0.00013982486
15	0xb7984320	-1.815107e-05
16	0x38fa0585	0.00011921957
17	0xb8f3bc04	-0.000116221636
18	0xb8edb3f2	-0.00011334558
19	0x38215c22	3.8471197e-05
20	0xb90b8b15	-0.00013307885
21	0xb8e3422a	-0.000108365275
22	0x38cba6f2	9.71089e-05
23	0xb8fa163e	-0.00011925072
24	0xb86767fa	-5.5171527e-05
25	0x38c746dd	9.502259e-05
26	0xb8dfc5b9	-0.00010670297
27	0xb825e97f	-3.9556526e-05
28	0x390f4463	0.00013663019
29	0x390f8ee1	0.00013690769
30	0x3774ddb9	1.4595157e-05
31	0x3902c857	0.00012472399

base.mlp.fc2.0.2.weight f4 [32]
0	0x3f7ff797	0.9998717
1	0x3f80034e	1.0001009
2	0x3f8002e9	1.0000888
3	0x3f7ff7ba	0.99987376
4	0x3f7ff716	0.999864
5	0x3f800437	1.0001286
6	0x3f7ffbeb	0.9999377
7	0x3f7ff767	0.9998688
8	0x3f8002d6	1.0000865
9	0x3f7ffa52	0.99991333
10	0x3f8001b4	1.000052
11	0x3f80016a	1.0000432
12	0x3f80037f	1.0001067
13	0x3f800338	1.0000982
14	0x3f8004a2	1.0001414
15	0x3f7fffa8	0.99999475
16	0x3f8003e4	1.0001187
17	0x3f80040f	1.0001239
18	0x3f8002ff	1.0000914
19	0x3f7ff84f	0.99988264
20	0x3f800493	1.0001396
21	0x3f7ffb0f	0.9999246
22	0x3f80048a	1.0001385
23	0x3f7ff7fa	0.9998776
24	0x3f7ffc5d	0.9999445
25	0x3f7ffd1b	0.99995583
26	0x3f7ff8b1	0.9998885
27	0x3f7ff80b	0.9998786
28	0x3f7ff8f8	0.9998927
29	0x3f7ffda6	0.9999641
30	0x3f7ff730	0.99986553
31	0x3f8003db	1.0001177

base.mlp.fc2.0.2.bias f4 [32]
0	0x3911af27	0.00013893527
1	0xb8eea704	-0.000113798334
2	0x38d1d446	0.000100054356
3	0x390c59a5	0.00013384836
4	0xb90d0b4a	-0.00013451013
5	0xb8a3e3d2	-7.8148805e-05
6	0xb8d21e64	-0.00010019241
7	0x390e3847	0.0001356314
8	0xb8ce0960	-9.824592e-05
9	0xb8e918ee	-0.00011114949
10	0x39090789	0.00013068145
11	0xb8b3e17e	-8.577386e-05
12	0xb8f936bc	-0.0001188344
13	0xb8f7785c	-0.000118002965
14	0x391217fc	0.0001393258
15	0x37d964be	2.5915328e-05
16	0xb7c22434	-2.314346e-05
17	0xb901591a	-0.00012335592
18	0xb9077182	-0.00012916888
19	0x38fc62f7	0.0001203473
20	0xb915ec0c	-0.00014297682
21	0xb895c5c2	-7.141709e-05
22	0x38f206d7	0.00011540733
23	0xb9070cb5	-0.00012879337
24	0xb8bb5ef3	-8.9345405e-05
25	0x38e845b6	0.00011075607
26	0xb87ca278	-6.0232793e-05
27	0x37ae978d	2.0812988e-05
28	0x390e7859	0.00013587008
29	0x390fcc8e	0.00013713745
30	0x390a9369	0.0001321562
31	0x37a2ceaf	1.940815e-05

rnn.rnn.weight_ih_l0 f4 [96, 32]
0	0x3df8bfed	0.12145982
1	0xbd64fc4a	-0.055904664
2	0xbdf096d3	-0.117475174
3	0xbd27c2aa	-0.04095713
4	0xbd01a13c	-0.031647906
5	0x3d160ce6	0.036633395
6	0x3bbf5ad2	0.005839684
7	0x3e5a32da	0.21308461
8	0xbdb318ab	-0.087449394
9	0xbdc60608	-0.09669119
10	0x3d3444df	0.044010993
11	0xbe26e4d5	-0.1629823
12	0x3d0ba5b2	0.034093566
13	0xbdc6449d	-0.09681056
14	0xbdf9bf54	-0.12194696
15	0xbc9c50c0	-0.019081473
16	0x3e6ff06b	0.23431556
17	0x3d0d1a96	0.034449182
18	0xbb2a9aec	-0.0026032282
19	0x3d5a9de1	0.05337322
20	0x3e25f787	0.16207705
21	0x3d203057	0.0391086
22	0x3e0168ca	0.1263763
23	0xbe0083ce	-0.1255028
24	0x3de2a55d	0.11066697
25	0xbe18a7f4	-0.14907819
26	0x3c0fcc1d	0.008776692
27	0xbd022f8a	-0.031783618
28	0x3e36fd66	0.17870101
29	0xbc059ed6	-0.008155545
30	0xbe20bd79	-0.15697278
31	0xbdc1bee0	-0.09460235
32	0xbda5e552	-0.0810038
33	0x3e7c291f	0.24625061
34	0x3c3593c6	0.011082595
35	0xbd187c37	-0.037227836
36	0xbe052a43	-0.13004403
37	0x3df9c530	0.12195814
38	0xbe6b106f	-0.22955488
39	0xbd41856e	-0.04724639
40	0x3e23b21e	0.15985915
41	0xbd8ae583	-0.06782057
42	0xbd0e5250	-0.034746468
43	0xbe07d5f1	-0.13265206
44	0x3d91d543	0.071207546
45	0x3c7c4395	0.015396972
46	0x3db5d940	0.08879328
47	0x3dc04be9	0.09389479
48	0xbb8836a9	-0.0041569066
49	0x3d8f3de7	0.06994229
50	0x3daa5a3d	0.08317993
51	0x3c7d43f6	0.015458098
52	0x3d1e683b	0.03867362
53	0x3ce581d1	0.028016003
54	0xbc5981c7	-0.01327557
55	0x3ca357d4	0.01993934
56	0x3d84f075	0.06491176
57	0x3d832edb	0.06405421
58	0x3db23eda	0.08703394
59	0xbe0e90cc	-0.13922423
60	0x3d522f74	0.051314786
61	0x3d7c14e3	0.061543357
62	0xbd50ea0a	-0.051004447
63	0xbe4b8e8d	-0.19878598
64	0x3d30651b	0.04306517
65	0xbc79bb80	-0.015242457
66	0x3cc290c6	0.023750674
67	0x3b3eafa4	0.002909639
68	0xbcf452d2	-0.029824648
69	0xbdf18340	-0.11792612
70	0x3cb9b9b5	0.02267156
71	0x3daad63e	0.08341645
72	0xbc401555	-0.011723836
73	0x3d64935c	0.055804595
74	0xbe26860e	-0.16262075
75	0xbd6a7ab6	-0.057245933
76	0xbe43c399	-0.19117583
77	0x3db57668	0.08860475
78	0x3e38d9b9	0.18051805
79	0x3e24150b	0.16023652
80	0x3d8d1abd	0.068898655
81	0x3d0b4f7e	0.034011357
82	0x3db27c7f	0.08715152
83	0xbe11508a	-0.1419088
84	0xbcfdd11b	-0.030983498
85	0xbc0d4457	-0.0086222505
86	0x3e35e8b5	0.17764552
87	0x3bca67d1	0.0061769267
88	0xbd306fa2	-0.04307521
89	0xbdef8add	-0.11696408
90	0x3dded8a7	0.10881167
91	0xbe1839c2	-0.14865783
92	0x3d08c827	0.033394005
93	0x3db6c976	0.089251444
94	0x3cd870be	0.026420947
95	0xbd9c666b	-0.07636722
96	0x3ddd5ab1	0.10808314
97	0x3c4fe550	0.01268895
98	0xbcd289d7	-0.025700493
99	0xbdc87a74	-0.09788981
100	0xbe042c0d	-0.12907429
101	0xbe6f8d89	-0.23393835
102	0xbdb92e25	-0.090420045
103	0x3bf4ac9e	0.0074668666
104	0xbd1ccf6c	-0.03828375
105	0xbd834d70	-0.064112544
106	0xbdc6e95f	-0.09712481
107	0x3d8491ff	0.06473159
108	0xbdc5c735	-0.09657136
109	0xbdab16a3	-0.08353927
110	0xbc44b362	-0.012005659
111	0xbd9fcda9	-0.078028984
112	0x3dbf2ce7	0.09334736
113	0xbbec7382	-0.007215918
114	0x3e334a6e	0.17508861
115	0xbdc3fe75	-0.09570018
116	0xbca0f4c9	-0.019647973
117	0x3dfee5d9	0.12446184
118	0xbd5ea95a	-0.054360725
119	0x3d8fe8e8	0.07026845
120	0xbd0a6bfe	-0.033794396
121	0x3da47c64	0.08031538
122	0x3dc501ca	0.09619482
123	0xbd6c2d6d	-0.05766051
124	0xbd2eaddc	-0.042646274
125	0xbd2eb25f	-0.042650577
126	0xbe6336e8	-0.22188914
127	0xbe16e7be	-0.1473684
128	0x39cfb40c	0.00039616262
129	0x3e0af027	0.13568173
130	0x3c3e2aba	0.0116068665
131	0x3d985b9b	0.07439347
132	0x3dc4f5d1	0.09617198
133	0x3c91b0ba	0.017784465
134	0x3e0eef20	0.13958406
135	0x3dc51196	0.09622495
136	0xbd1251ff	-0.03572273
137	0x3ce82b98	0.0283411
138	0x3e07bcb7	0.13255583
139	0x3e060050	0.13086057
140	0xbe067a28	-0.13132536
141	0xbd18d31b	-0.0373107
142	0xbde7b1dd	-0.113132216
143	0x3c557f02	0.013030769
144	0x3daa65dc	0.083202094
145	0x3c7256ef	0.014791234
146	0xbda3744f	-0.079811685
147	0xbb8e9712	-0.004351505
148	0xbd2fc2ae	-0.04291027
149	0x3d89076e	0.0669087
150	0xbc81877d	-0.015811676
151	0x3c92063f	0.017825244
152	0xbdb69405	-0.08914951
153	0xbdd64d4d	-0.10463963
154	0x3b5cd3b1	0.0033695514
155	0xbe1c369a	-0.15255204
156	0xbe040743	-0.12893395
157	0xbcc9ff39	-0.024657832
158	0x3e666bc5	0.22502048
159	0x3dc31614	0.095256954
160	0x3d30a2a1	0.043123845
161	0x3e0a37c8	0.13497841
162	0x3dcd75a9	0.100322075
163	0xbcb5b01a	-0.022178698
164	0x3dfcf154	0.12350717
165	0x3d1f8cc0	0.03895259
166	0xbdf0f9b8	-0.1176638
167	0xbc6a965c	-0.014318075
168	0x3ceb3627	0.028712345
169	0xbd4fd10d	-0.050736476
170	0x3d5f3c2e	0.05450075
171	0xbdc63344	-0.09677747
172	0xbd88ab1c	-0.066732615
173	0xbe8af1bb	-0.2713755
174	0xbb683974	-0.0035434635
175	0x3d3d6523	0.04623903
176	0x3da1a1bc	0.078921765
177	0xbd541d55	-0.051785786
178	0x3da69333	0.08133545
179	0xbc2d8291	-0.0105902115
180	0xbe054f34	-0.13018495
181	0xbc8053f4	-0.015665032
182	0xbccce829	-0.025013046
183	0x3cae9c53	0.021314776
184	0xbdb0c992	-0.086321965
185	0xbdd5c529	-0.10437996
186	0x3e24de5c	0.16100448
187	0x3dace97a	0.084429696
188	0x3e3ba976	0.18326363
189	0x3d9d90c8	0.076936305
190	0x3dcc16c5	0.099652804
191	0xbd83ab32	-0.06429137
192	0xbdedf002	-0.116180435
193	0x3de8d0a5	0.11367921
194	0x3dce0092	0.100587025
195	0x3ccebdaa	0.025236923
196	0x3d1629de	0.03666102
197	0x3cbd1e63	0.023085779
198	0xbd32a37a	-0.043612935
199	0xbdff19b5	-0.12456075
200	0xbd6b7085	-0.057480354
201	0x3d7f1334	0.062274173
202	0xbdfa03fc	-0.12207791
203	0xbe475840	-0.19467258
204	0x3d08e72f	0.0334236
205	0xbca3c49e	-0.019991215
206	0xbc8d399c	-0.017239384
207	0xbd05b7d9	-0.032646034
208	0x3e40f51d	0.18843503
209	0x3bd61ec6	0.00653443
210	0x3d4dede3	0.050275695
211	0x3dc49f41	0.09600688
212	0xbd6f1ac2	-0.058375128
213	0xbdd66f00	-0.1047039
214	0x3ca23574	0.019800879
215	0x3d288d28	0.041150242
216	0x3d2d394c	0.04229097
217	0x3e8d3be9	0.2758477
218	0x3dccc78c	0.09998998
219	0xbc50aaee	-0.012736065
220	0xbdcd980e	-0.10038768
221	0xbe28bc86	-0.16478166
222	0x3e06d0cd	0.13165589
223	0x3bb7cb7a	0.005608973
224	0xbe0cbb5d	-0.13743348
225	0x3e142179	0.14465894
226	0xbe58ab60	-0.21159124
227	0x3da5f59d	0.08103488
228	0x3e113dd1	0.14183737
229	0xbd9d1655	-0.07670275
230	0xbb9a38d6	-0.0047064824
231	0x3aa2ed65	0.0012430368
232	0xbe21c652	-0.1579831
233	0xbd4228b0	-0.047402084
234	0xbd852344	-0.06500867
235	0x3d3a928c	0.045549914
236	0x3e127174	0.14301091
237	0x3dcf5d3c	0.10125205
238	0x3c89c31d	0.01681667
239	0x3e49a471	0.19691636
240	0x3e4ed1c5	0.20197208
241	0x3d346c6b	0.044048708
242	0x3cee75a0	0.029108822
243	0x3e503a81	0.20334817
244	0x3e16b969	0.14719166
245	0x3db6b7f2	0.089218035
246	0x3cc666fc	0.024219029
247	0x3c0ffe90	0.00878872
248	0xbce37836	-0.027767282
249	0xbbb13ff5	-0.0054092356
250	0x3dc906c6	0.09815745
251	0xbc400f71	-0.0117224315
252	0x3dd7f9e7	0.10545712
253	0x3d09c485	0.03363468
254	0x3cd8337d	0.026391739
255	0xbdad01cc	-0.08447608

rnn.rnn.weight_hh_l0 f4 [96, 32]
0	0x3d8dcd54	0.06923929
1	0x3df92ec0	0.1216712
2	0x3d595692	0.053061076
3	0xbc9f0925	-0.01941354
4	0x3c02e1d2	0.00798841
5	0xbd08a289	-0.03335813
6	0x3c839dfd	0.016066546
7	0xbde9d136	-0.11416857
8	0x3d6ab3ef	0.057300504
9	0x3d997b3f	0.074942105
10	0xbce04be1	-0.027379932
11	0x3de3544a	0.11100061
12	0xbcbbb579	-0.022913681
13	0x3dba96c4	0.091107875
14	0xbe56f954	-0.20993549
15	0xbcee4234	-0.029084302
16	0x3d5608bf	0.052254435
17	0xbe12f47c	-0.14351076
18	0x3d6a0ade	0.05713927
19	0xbe0ed7ba	-0.1394948
20	0x3d3886e9	0.045050535
21	0x3e0db7a7	0.13839589
22	0xbd2c8e4e	-0.0421279
23	0xbdcf6c8c	-0.101281255
24	0x3d0fcbd5	0.0351065
25	0x3d8c2d51	0.06844581
26	0x3e71e476	0.23622307
27	0x3e03552c	0.12825459
28	0x3c894ab3	0.016759252
29	0x3d9b94bb	0.075967275
30	0x3cbef67a	0.023310889
31	0xbe436a3c	-0.19083494
32	0x38ab1020	8.156919e-05
33	0x3de34980	0.110980034
34	0x3e10fa22	0.14157918
35	0xbd543cf4	-0.051815942
36	0xbe807f69	-0.25097206
37	0xbda9c95a	-0.08290358
38	0xbe18945c	-0.14900345
39	0x3cfa1397	0.03052692
40	0xbd3e1a47	-0.04641178
41	0x3e154c43	0.14579873
42	0x3dca6f8d	0.09884558
43	0x3e26da8c	0.16294307
44	0x3d10e54e	0.035374932
45	0xbc603ba8	-0.013686098
46	0xbdaeef99	-0.085417934
47	0x3d5e79ce	0.05431538
48	0x3d8098ab	0.06279119
49	0x3d8d6c79	0.06905455
50	0x3d54e386	0.051974796
51	0xbd957353	-0.07297387
52	0x3d63df45	0.05563285
53	0xbdd525e0	-0.10407615
54	0xbe561262	-0.2090545
55	0xbce95b31	-0.028485866
56	0x3e07ff09	0.13280882
57	0x3cde946e	0.027170386
58	0x3d763962	0.06011332
59	0x3d6a2f55	0.057174046
60	0x3dc595c7	0.096477084
61	0x3d024b70	0.031810224
62	0xbc239486	-0.009984141
63	0x3e0bf040	0.13665867
64	0x3e159eff	0.14611433
65	0xbd3a4419	-0.0454751
66	0x3ddb02a7	0.10693865
67	0x3dd95c59	0.10613317
68	0xbd4a5d7c	-0.04940556
69	0xbd901c9f	-0.07036709
70	0xbcc51be4	-0.02406115
71	0xbd87a3fc	-0.066230744
72	0x3cd53538	0.026026353
73	0x3ba98624	0.0051734615
74	0x3e3ecf06	0.1863366
75	0xbcfbf82f	-0.030757992
76	0x3d94d224	0.07266644
77	0xbd9c80be	-0.07641743
78	0x3e000c4e	0.12504694
79	0xbd04b0de	-0.032395236
80	0x3de18ae2	0.11012818
81	0x3dda9063	0.10672071
82	0x3e276092	0.16345432
83	0x3c2bd5a9	0.010487952
84	0xbe0d876c	-0.1382119
85	0x3d90e230	0.07074392
86	0x3dacc9d7	0.084369354
87	0xbd748569	-0.059697542
88	0xbc63de8c	-0.01390804
89	0x3c8cc226	0.017182421
90	0xbb828d6a	-0.003984143
91	0xbe1abaf4	-0.1511038
92	0x3c5dc0ee	0.013534768
93	0x3e67cb9a	0.22636262
94	0x3b80fbde	0.003936275
95	0x3e653b95	0.2238601
96	0x3e1a9ff9	0.15100087
97	0xbd8952ff	-0.067052834
98	0xbdaf77e4	-0.08567789
99	0xbc75ba69	-0.014998057
100	0xbe706284	-0.2347508
101	0xbc9dca8a	-0.019261617
102	0x3d89edfe	0.067348465
103	0x3e4d9509	0.20076384
104	0x3db2a688	0.087231696
105	0x3d4b443c	0.04962562
106	0xbe398253	-0.18116121
107	0xbd920d4f	-0.07131445
108	0x3ea02a1f	0.31282136
109	0xbd17d79e	-0.037070863
110	0x3bcc754b	0.0062395683
111	0x3e24dfca	0.16100994
112	0xbe8216bd	-0.25407973
113	0x3d36d27a	0.04463432
114	0x3c8be709	0.01707794
115	0x3d6b0a46	0.057382844
116	0x3d35a908	0.044350654
117	0xbca36689	-0.019946354
118	0x3e9e4488	0.3091166
119	0xbd002778	-0.03128764
120	0x3e3e24c7	0.18568717
121	0x3d3bd0f5	0.045853574
122	0xbd0180fa	-0.031617142
123	0x3dd951e4	0.106113225
124	0xbcc17138	-0.023613557
125	0x3d72da49	0.059290204
126	0xbe28de1e	-0.16490981
127	0x3cd65d5c	0.026167564
128	0x3d16cfa4	0.036819115
129	0xbcbe184f	-0.02320495
130	0xbc5a8367	-0.013336993
131	0xbd73eac6	-0.05955007
132	0x3c642ccc	0.013926696
133	0x3dae59c8	0.08513218
134	0x3e24ce42	0.16094306
135	0xbd70edf2	-0.058820672
136	0x3e0f0302	0.13965991
137	0x3cee42e2	0.029084627
138	0xbe549336	-0.20759282
139	0xbd9322d1	-0.07184375
140	0xbb594adf	-0.00331562
141	0x3dc77e35	0.09740869
142	0xbbc8f60b	-0.006132846
143	0xbdbd8851	-0.09254516
144	0xbd711461	-0.058857325
145	0xbd2350a3	-0.039871823
146	0xbe01a34a	-0.12659946
147	0xbe55af6b	-0.20867698
148	0xbc27c56f	-0.010239943
149	0xbe6a6411	-0.22889735
150	0xbd88c0a0	-0.06677365
151	0xbda24805	-0.07923893
152	0xbe05055d	-0.12990327
153	0xbd25a1be	-0.040437452
154	0xbcae78a6	-0.021297764
155	0x3dbc7404	0.09201816
156	0xbd18d3b5	-0.037311275
157	0xbd2763ae	-0.040866546
158	0x3dfd6de7	0.12374478
159	0xbc7e2955	-0.015512784
160	0x3d844b5f	0.064596884
161	0x3e2d4b07	0.16923152
162	0x3cff5711	0.031169446
163	0xbde61224	-0.11233929
164	0xbd319e41	-0.043363813
165	0xbd8273de	-0.06369756
166	0x3d1cc4a4	0.03827347
167	0xbe410ed1	-0.18853308
168	0xbd979fcc	-0.07403526
169	0x3ce3c889	0.027805584
170	0xbd7f68ce	-0.06235581
171	0x3c71fc7e	0.0147696715
172	0x3d7d43f3	0.06183238
173	0x3e061555	0.13094075
174	0xbdf0a87c	-0.11750886
175	0x3db63e30	0.0889858
176	0xbbd10f39	-0.0063799885
177	0x3e1525e5	0.14565237
178	0x3cd13a6e	0.025540557
179	0x3d235b08	0.039881736
180	0xbde0ced8	-0.10976952
181	0x3c3a350d	0.011365187
182	0x3dfc0367	0.123053364
183	0x3e4a6563	0.19765238
184	0xbd4b8cb6	-0.04969474
185	0x3dc1e1fc	0.09466931
186	0xbd0e643b	-0.034763556
187	0x3d8eb485	0.06968025
188	0x3cae8929	0.021305637
189	0xbe0fdc98	-0.14048994
190	0x3cb9a7f4	0.022663094
191	0xbd36585f	-0.04451787
192	0x3db8f9ec	0.09032044
193	0xbbc5a652	-0.00603179
194	0xbd5e32fb	-0.054247838
195	0xbe045718	-0.12923849
196	0xbcad2f46	-0.021140706
197	0x3e1df01f	0.1542363
198	0x3cedaa08	0.029011741
199	0xbb669eb6	-0.0035189814
200	0xbd0aafd6	-0.033859096
201	0x3d31eb4c	0.043437287
202	0xbcbec86f	-0.023288934
203	0x3cc8db23	0.024518555
204	0x3d8f0f25	0.069853105
205	0x3d81630e	0.06317721
206	0x3dadaa69	0.08479769
207	0xbe4f5fee	-0.20251438
208	0xbd43b8d3	-0.047783684
209	0xbcefd94a	-0.029278416
210	0xbd007704	-0.031363502
211	0xbe0e31b6	-0.1388615
212	0x3dd958fc	0.106126755
213	0xbe00c794	-0.12576133
214	0x3b852fbd	0.0040645287
215	0xbc5fa955	-0.013651212
216	0x3dd9b807	0.106308036
217	0x3d1dec71	0.038555566
218	0xbe217213	-0.15766172
219	0x3d2a7a63	0.041620623
220	0xbcccf45c	-0.025018863
221	0x3e7d934d	0.24763222
222	0x3b3dc888	0.0028958637
223	0xbc9ea287	-0.019364608
224	0xbe2febfd	-0.17179866
225	0xbe3ccded	-0.1843793
226	0x3b380948	0.0028081704
227	0x3d03d10f	0.032181796
228	0xbce8b9d3	-0.02840892
229	0xbe1284e1	-0.14308502
230	0xbe201b4d	-0.15635414
231	0xbd22146f	-0.03957027
232	0x3e81edd8	0.25376773
233	0x3ca61288	0.020272508
234	0xbd0bdd44	-0.034146562
235	0x3daf2e54	0.08553758
236	0xbe089a9f	-0.13340233
237	0x3e150166	0.14551315
238	0xbe219a03	-0.15781407
239	0x3d45ea20	0.048318982
240	0xbe19ba73	-0.15012531
241	0x3db31e2b	0.087459885
242	0xbda111fe	-0.0786476
243	0xbcbff369	-0.023431497
244	0xbcf4df50	-0.02989164
245	0x3c33d1fe	0.010975359
246	0xbdd20be7	-0.102561764
247	0x3dfc7093	0.12326159
248	0x3e65c8a7	0.22439824
249	0x3db9ff35	0.0908188
250	0xbcc61c3d	-0.024183387
251	0x3d8f5c79	0.0700006
252	0x3dbc1e69	0.09185488
253	0x3dccbad6	0.099965736
254	0x3d5d588d	0.054039527
255	0xbd410a7a	-0.04712913

rnn.rnn.bias_ih_l0 f4 [96]
0	0xb80e3feb	-3.3914966e-05
1	0xb7d1e008	-2.5019064e-05
2	0xb7ae4a5a	-2.0777039e-05
3	0xb8d4dbc7	-0.000101498845
4	0x38653cd0	5.465449e-05
5	0x38193797	3.6529815e-05
6	0x383389e1	4.2805335e-05
7	0x36b549c5	5.4028083e-06
8	0x38a789c3	7.988841e-05
9	0xb8031592	-3.1252923e-05
10	0x37a1fe1d	1.9311026e-05
11	0x389a3ad5	7.3542506e-05
12	0xb5b5373a	-1.3501624e-06
13	0xb88c473e	-6.68899e-05
14	0x385f6abf	5.326676e-05
15	0xb7d25959	-2.5075557e-05
16	0x38925fb1	6.9796464e-05
17	0x38e0f26f	0.00010726309
18	0xb71e07d6	-9.419358e-06
19	0xb6a94eb1	-5.0457534e-06
20	0xb8204eb8	-3.8220285e-05
21	0xb7a04d12	-1.9109375e-05
22	0x38355b6f	4.3238917e-05
23	0x3789446d	1.6363536e-05
24	0xb7a928cd	-2.016537e-05
25	0xb8047e7f	-3.158906e-05
26	0xb8b78b0d	-8.75202e-05
27	0x382e78dc	4.1597392e-05
28	0xb82c8ba0	-4.113803e-05
29	0xb7b8f513	-2.204863e-05
30	0x384c00ce	4.863814e-05
31	0x37b4b3fb	2.1541482e-05
32	0xb8dc2cf7	-0.00010498793
33	0x38f5fe6f	0.00011729902
34	0x381a3e7b	3.677465e-05
35	0x38c6e892	9.484695e-05
36	0x383d488b	4.5128672e-05
37	0x38e24301	0.00010789
38	0x38a6b93a	7.949998e-05
39	0xb870b41c	-5.73882e-05
40	0x3907c014	0.00012946158
41	0xb8c4b358	-9.379414e-05
42	0xb8eefdf2	-0.000113960254
43	0xb7db203e	-2.6121848e-05
44	0xb8fa356a	-0.00011930878
45	0xb8702dd0	-5.7263125e-05
46	0x39079733	0.0001293093
47	0x38d48d3a	0.00010135253
48	0x38fe44ce	0.0001212448
49	0xb8f744fa	-0.00011790726
50	0xb5986077	-1.1352957e-06
51	0xb8a50000	-7.867813e-05
52	0x38dd39ab	0.00010548843
53	0x38ab76c3	8.1760365e-05
54	0x38eac2ec	0.000111942965
55	0x38e87339	0.00011084084
56	0xb8a32d99	-7.780939e-05
57	0xb90f2d3c	-0.00013654394
58	0x38cc0eae	9.730212e-05
59	0x38cf8297	9.8948534e-05
60	0xb84c0edb	-4.8651225e-05
61	0xb9027b07	-0.00012443597
62	0xb666c3ba	-3.4386599e-06
63	0x38e9ec90	0.00011154369
64	0x388fece6	6.862897e-05
65	0x387c376d	6.01331e-05
66	0xb843a687	-4.6646714e-05
67	0xb912eeed	-0.00014012652
68	0x390adac9	0.0001324221
69	0x390c76a1	0.00013395633
70	0x38e12926	0.000107365006
71	0x38ffcf33	0.000121979414
72	0xb917eade	-0.00014487977
73	0xb8833c6d	-6.257822e-05
74	0x3906af96	0.00012844647
75	0x39114f59	0.00013857837
76	0x37b91051	2.2061316e-05
77	0xb9140e0e	-0.00014119616
78	0xb8eb1d48	-0.00011211127
79	0x38f633ae	0.0001173982
80	0xb8fd265f	-0.00012071127
81	0xb9158a3b	-0.00014261242
82	0x3848bfa7	4.7862206e-05
83	0x385df0b0	5.2914664e-05
84	0x39175095	0.00014430501
85	0x38bc4bc8	8.978654e-05
86	0xb8a0e2b7	-7.6716235e-05
87	0x384e38ea	4.9167233e-05
88	0xb67e58ae	-3.7900568e-06
89	0x38b1af90	8.472719e-05
90	0x3912588b	0.0001395663
91	0xb8e99122	-0.00011137339
92	0x38b79a9b	8.7549175e-05
93	0x38f352cf	0.00011602567
94	0xb817c7a9	-3.6187153e-05
95	0x390cf2b0	0.00013441849

rnn.rnn.bias_hh_l0 f4 [96]
0	0xb80e3feb	-3.3914966e-05
1	0xb7d1e008	-2.5019064e-05
2	0xb7ae4a5a	-2.0777039e-05
3	0xb8d4dbc7	-0.000101498845
4	0x38653cd0	5.465449e-05
5	0x38193797	3.6529815e-05
6	0x383389e1	4.2805335e-05
7	0x36b549c5	5.4028083e-06
8	0x38a789c3	7.988841e-05
9	0xb8031592	-3.1252923e-05
10	0x37a1fe1d	1.9311026e-05
11	0x389a3ad5	7.3542506e-05
12	0xb5b5373a	-1.3501624e-06
13	0xb88c473e	-6.68899e-05
14	0x385f6abf	5.326676e-05
15	0xb7d25959	-2.5075557e-05
16	0x38925fb1	6.9796464e-05
17	0x38e0f26f	0.00010726309
18	0xb71e07d6	-9.419358e-06
19	0xb6a94eb1	-5.0457534e-06
20	0xb8204eb8	-3.8220285e-05
21	0xb7a04d12	-1.9109375e-05
22	0x38355b6f	4.3238917e-05
23	0x3789446d	1.6363536e-05
24	0xb7a928cd	-2.016537e-05
25	0xb8047e7f	-3.158906e-05
26	0xb8b78b0d	-8.75202e-05
27	0x382e78dc	4.1597392e-05
28	0xb82c8ba0	-4.113803e-05
29	0xb7b8f513	-2.204863e-05
30	0x384c00ce	4.863814e-05
31	0x37b4b3fb	2.1541482e-05
32	0xb8dc2cf7	-0.00010498793
33	0x38f5fe6f	0.00011729902
34	0x381a3e7b	3.677465e-05
35	0x38c6e892	9.484695e-05
36	0x383d488b	4.5128672e-05
37	0x38e24301	0.00010789
38	0x38a6b93a	7.949998e-05
39	0xb870b41c	-5.73882e-05
40	0x3907c014	0.00012946158
41	0xb8c4b358	-9.379414e-05
42	0xb8eefdf2	-0.000113960254
43	0xb7db203e	-2.6121848e-05
44	0xb8fa356a	-0.00011930878
45	0xb8702dd0	-5.7263125e-05
46	0x39079733	0.0001293093
47	0x38d48d3a	0.00010135253
48	0x38fe44ce	0.0001212448
49	0xb8f744fa	-0.00011790726
50	0xb5986077	-1.1352957e-06
51	0xb8a50000	-7.867813e-05
52	0x38dd39ab	0.00010548843
53	0x38ab76c3	8.1760365e-05
54	0x38eac2ec	0.000111942965
55	0x38e87339	0.00011084084
56	0xb8a32d99	-7.780939e-05
57	0xb90f2d3c	-0.00013654394
58	0x38cc0eae	9.730212e-05
59	0x38cf8297	9.8948534e-05
60	0xb84c0edb	-4.8651225e-05
61	0xb9027b07	-0.00012443597
62	0xb666c3ba	-3.4386599e-06
63	0x38e9ec90	0.00011154369
64	0x385da63d	5.2845327e-05
65	0x38c82038	9.5427444e-05
66	0xb834202a	-4.29453e-05
67	0xb91011d4	-0.00013739552
68	0x38f042ca	0.00011456532
69	0x39022017	0.0001240972
70	0x38da5315	0.00010410525
71	0x38bd37f1	9.022642e-05
72	0xb9145d98	-0.00014149246
73	0xb839ce1b	-4.4299388e-05
74	0x39073336	0.00012893681
75	0x390378cb	0.00012538132
76	0x38833a38	6.257411e-05
77	0xb90ebc06	-0.0001361222
78	0xb8cce1fd	-9.7695716e-05
79	0x38f65397	0.00011745764
80	0xb8f4c53e	-0.00011671566
81	0xb90ee72f	-0.00013628298
82	0x3820ec21	3.8366885e-05
83	0x38829c82	6.228035e-05
84	0x39154d37	0.00014238512
85	0x38c12438	9.2097034e-05
86	0xb89513b5	-7.1085444e-05
87	0x36b2d836	5.3299837e-06
88	0xb7994995	-1.8273286e-05
89	0x380b76eb	3.3250933e-05
90	0x390bcdc2	0.00013332724
91	0xb8d4e677	-0.00010151875
92	0x38449621	4.686986e-05
93	0x3856793c	5.1134484e-05
94	0x3755f7b7	1.2753465e-05
95	0x39023148	0.00012416125

rnn.norm.weight f4 [32]
0	0x3f7ffce9	0.99995285
1	0x3f7ff7c5	0.9998744
2	0x3f7fffc9	0.9999967
3	0x3f7ff728	0.99986506
4	0x3f800439	1.0001289
5	0x3f8001fa	1.0000603
6	0x3f8001bd	1.000053
7	0x3f80048d	1.0001389
8	0x3f7ff928	0.9998956
9	0x3f8001e9	1.0000583
10	0x3f800365	1.0001036
11	0x3f7ff736	0.9998659
12	0x3f80048f	1.0001391
13	0x3f800477	1.0001363
14	0x3f800056	1.0000103
15	0x3f7ffb53	0.99992865
16	0x3f7ff6bb	0.99985856
17	0x3f80046c	1.000135
18	0x3f800119	1.0000335
19	0x3f8003f5	1.0001208
20	0x3f7ff752	0.99986756
21	0x3f7fffcf	0.9999971
22	0x3f7ff730	0.99986553
23	0x3f7ff6fe	0.99986255
24	0x3f80036e	1.0001047
25	0x3f8004ad	1.0001427
26	0x3f7fff56	0.99998987
27	0x3f7fff77	0.99999183
28	0x3f8003ae	1.0001123
29	0x3f8004a8	1.0001421
30	0x3f7ffe59	0.9999748
31	0x3f7fff74	0.99999166

rnn.norm.bias f4 [32]
0	0xb7604cce	-1.3369323e-05
1	0xb867756b	-5.5184046e-05
2	0xb8266856	-3.9674655e-05
3	0xb9109f03	-0.00013792147
4	0x390b8ddf	0.00013308924
5	0x38e02959	0.00010688854
6	0x38c7895d	9.514645e-05
7	0x39070829	0.00012877643
8	0xb90f5ed9	-0.00013672876
9	0x38aa9062	8.133125e-05
10	0x381249ab	3.487772e-05
11	0x39094c8f	0.00013093858
12	0x390404a8	0.00012590236
13	0xb9099106	-0.00013119364
14	0xb91002a9	-0.00013733901
15	0x38ffbfcb	0.00012195072
16	0xb9065683	-0.00012811464
17	0xb914cdf6	-0.00014191106
18	0xb8ff2de5	-0.00012167896
19	0x388ea875	6.802465e-05
20	0x3911879d	0.00013878797
21	0x38fc871b	0.00012041462
22	0xb45db692	-2.0648648e-07
23	0xb9030fcb	-0.00012499017
24	0x36d91d05	6.4704823e-06
25	0x390638d1	0.00012800402
26	0x39106e97	0.00013774108
27	0xb8c94ef4	-9.599133e-05
28	0x38cdbe88	9.810651e-05
29	0x3903f597	0.00012584623
30	0x39006922	0.00012246196
31	0x390f220f	0.0001365023
