mappo/actor_agent1.pt (torch, 48789 bytes, 22 tensors)

base.feature_norm.weight f4 [47]
0	0x3f800330	1.0000973
1	0x3f800444	1.0001302
2	0x3f800403	1.0001224
3	0x3f7ffb3a	0.99992716
4	0x3f7ff87a	0.9998852
5	0x3f7ff888	0.99988604
6	0x3f7ff915	0.99989444
7	0x3f7ff96a	0.9998995
8	0x3f7ff7e4	0.99987626
9	0x3f7ffe7c	0.9999769
10	0x3f8003b9	1.0001136
11	0x3f7ff768	0.99986887
12	0x3f7ffb00	0.9999237
13	0x3f7ff7a6	0.99987257
14	0x3f7ff7c0	0.9998741
15	0x3f7ffa35	0.9999116
16	0x3f800312	1.0000937
17	0x3f7ffea2	0.99997914
18	0x3f7ff82c	0.99988055
19	0x3f7ffa58	0.9999137
20	0x3f800442	1.0001299
21	0x3f7ff99f	0.99990267
22	0x3f7ffcd2	0.9999515
23	0x3f7ffb49	0.99992806
24	0x3f8002e3	1.0000881
25	0x3f800480	1.0001373
26	0x3f7ffbac	0.99993396
27	0x3f7ff785	0.9998706
28	0x3f800289	1.0000774
29	0x3f800324	1.0000958
30	0x3f800025	1.0000044
31	0x3f7ff825	0.99988014
32	0x3f800463	1.0001339
33	0x3f80031e	1.0000951
34	0x3f800473	1.0001358
35	0x3f7ff760	0.9998684
36	0x3f7ff948	0.9998975
37	0x3f7ff76d	0.99986917
38	0x3f7ff6a9	0.9998575
39	0x3f7ffc28	0.99994135
40	0x3f7ff71f	0.9998645
41	0x3f800027	1.0000046
42	0x3f80020d	1.0000626
43	0x3f8001b3	1.0000519
44	0x3f8002d8	1.0000868
45	0x3f7ff7fa	0.9998776
46	0x3f7ff9f9	0.99990803

base.feature_norm.bias f4 [47]
0	0x38f791e7	0.00011805054
1	0x390fa4c0	0.00013698917
2	0x38c60415	9.442136e-05
3	0x3721973a	9.631558e-06
4	0x38c5a332	9.4240895e-05
5	0x39075369	0.00012905676
6	0x390681d8	0.00012827606
7	0xb8e4d795	-0.000109120425
8	0x3913d0e0	0.00014096824
9	0xb3c9ee68	-9.403158e-08
10	0xb9055c62	-0.00012718284
11	0x3917970b	0.0001445675
12	0x38e882ff	0.00011087022
13	0x3912deb3	0.00014006607
14	0x390d7af5	0.00013492613
15	0x38a6c447	7.952056e-05
16	0xb9052edd	-0.00012701326
17	0xb67330e7	-3.6238287e-06
18	0xb90ed609	-0.0001362191
19	0xb90294da	-0.00012453218
20	0xb91533d7	-0.00014229059
21	0x39030d11	0.00012498001
22	0x38b1a126	8.470034e-05
23	0x386df09f	5.67293e-05
24	0xb8e20ca7	-0.000107788765
25	0x3910f3ec	0.00013823778
26	0x3893e4bf	7.0521135e-05
27	0x3915567d	0.00014241967
28	0xb8f83f5c	-0.00011837363
29	0x3903106d	0.00012499253
30	0xb7c798a9	-2.3793737e-05
31	0x3909dab9	0.00013146819
32	0x38a528c9	7.87541e-05
33	0x3913fa79	0.00014112321
34	0x390ef78d	0.00013634395
35	0x39131f22	0.0001403061
36	0x39015bea	0.0001233664
37	0x389d517d	7.501522e-05
38	0xb9167630	-0.00014349143
39	0x38e4b146	0.00010904907
40	0x3917e276	0.00014484845
41	0x37994450	1.8270832e-05
42	0xb8f46d9b	-0.00011655242
43	0xb8a6b205	-7.9486555e-05
44	0xb87effae	-6.079644e-05
45	0x3911e06a	0.00013911878
46	0x390603b9	0.00012780623

base.mlp.fc1.0.weight f4 [32, 47]
0	0x3e630742	0.22170737
1	0xbdcd7971	-0.10032929
2	0x3e04e250	0.12976956
3	0x3e9a68e1	0.3015814
4	0x3e066580	0.13124657
5	0xbe2f2892	-0.1710532
6	0xbe739666	-0.23787841
7	0x3c4d9ffc	0.01255035
8	0x3ec545fd	0.3852996
9	0xbe36bda0	-0.17845774
10	0x3e7dcc05	0.24784859
11	0xbdec33bd	-0.11533306
12	0xbe06a1e5	-0.13147695
13	0xbec143ce	-0.37747043
14	0xbe5b5331	-0.21418454
15	0x3e40168c	0.18758601
16	0xbda11cc2	-0.07866813
17	0x3e02fa46	0.12790784
18	0xbdae1a94	-0.08501163
19	0xbe02e1b8	-0.12781417
20	0x3db72028	0.0894168
21	0x3f027970	0.5096655
22	0x3b8a9c88	0.0042300858
23	0x3e63127b	0.22175018
24	0xbe52ee12	-0.20598629
25	0x3ee6a71e	0.45049375
26	0x3e54bc68	0.20774996
27	0x3b32ae62	0.0027264585
28	0xbe03e622	-0.12880757
29	0x3f098dca	0.5373198
30	0xbe6196e5	-0.22030218
31	0x3dd650b3	0.10464611
32	0x3e739aad	0.23789473
33	0x3dbfefb5	0.09371892
34	0x3b20884e	0.0024495306
35	0xbf1020c5	-0.563
36	0x3e47b1c4	0.19501406
37	0xbe820450	-0.25393915
38	0x3e971c1d	0.29513636
39	0xbccabd49	-0.024748461
40	0x3ed9abd4	0.42513907
41	0x3e27790f	0.16354774
42	0xbeaddc35	-0.33957067
43	0xbe84976f	-0.25896785
44	0xbe29bfab	-0.16577022
45	0x3d104e99	0.035231207
46	0xbd80d7a4	-0.0629113
47	0xbd15ca1b	-0.036569696
48	0xbdda86d2	-0.10670246
49	0x3e8b85dd	0.27250567
50	0x3e363f1d	0.17797513
51	0x3eb99863	0.36249074
52	0x3ea1eaa1	0.3162432
53	0xbd3a6a12	-0.045511313
54	0xbeb19f20	-0.34691715
55	0xbd2900f0	-0.04126066
56	0xbe9f1ebb	-0.31078133
57	0xbe28582e	-0.16439888
58	0xbdc5878c	-0.09644994
59	0x3ec5c057	0.38623306
60	0xbe95a31b	-0.29226002
61	0x3e4595a1	0.1929536
62	0x3c85ee01	0.01634884
63	0x3ed52f18	0.41637492
64	0x3ccd4317	0.025056405
65	0xbd663dec	-0.056211397
66	0xbe89630a	-0.26833373
67	0xbdd37260	-0.1032455
68	0xbe85536c	-0.26040208
69	0xbeaeeebe	-0.3416652
70	0x3ecc7b97	0.39938042
71	0xbec59edf	-0.38597772
72	0xbe4b5798	-0.19857633
73	0x3eb44f12	0.35216576
74	0x3ebb4316	0.3657462
75	0xbdf71d9e	-0.12066196
76	0xbe2ac04d	-0.1667492
77	0x3e353585	0.17696197
78	0xbeb83647	-0.3597891
79	0x3e183956	0.14865622
80	0xbd410b93	-0.04713018
81	0xbd97c081	-0.07409764
82	0x3e55f9e3	0.20896105
83	0x3bcb6f8a	0.006208365
84	0xbdc6acdf	-0.09700941
85	0xbe9cfdb6	-0.30662316
86	0x3e8e5591	0.27799657
87	0x3ea36747	0.31914732
88	0xbdb3192e	-0.08745037
89	0x3e20e574	0.1571253
90	0xbeeba5b2	-0.46024853
91	0x3dc4d483	0.09610846
92	0xbe3d2335	-0.18470462
93	0xbd32fb70	-0.04369682
94	0x3e989b81	0.2980614
95	0xbe829324	-0.25502884
96	0xbe99c538	-0.30033278
97	0xbd46dccb	-0.04855041
98	0x3e17b072	0.14813402
99	0x3e40b157	0.1881765
100	0x3e368498	0.17824018
101	0xbe3e9367	-0.18610917
102	0xbf3a1521	-0.7268849
103	0x3e9fe2ee	0.3122782
104	0x3d81088a	0.06300457
105	0xbe67ddce	-0.22643206
106	0x3e28251f	0.1642041
107	0xbeb524ff	-0.35379788
108	0xbc762706	-0.015023952
109	0x3e80b062	0.2513457
110	0xbe981306	-0.29702014
111	0x3ea648f0	0.32477522
112	0x3e176556	0.1478475
113	0xb98ce22e	-0.00026871398
114	0x3e156579	0.1458949
115	0x3e0b030c	0.13575381
116	0x3e8e15f1	0.27751115
117	0xbe6361ad	-0.22205229
118	0xbf1ea54c	-0.61970973
119	0x3d82fcc1	0.06395865
120	0x3c43896b	0.011934618
121	0xbe5ffede	-0.21874568
122	0xbdbd418d	-0.092410184
123	0x3e601733	0.2188385
124	0x3dec8d29	0.11550362
125	0x3dad92d5	0.084752716
126	0x3e7f3b62	0.24924996
127	0xbe106bdc	-0.14103645
128	0x3e676b2d	0.22599478
129	0xbd95989f	-0.07304501
130	0xbefc4f5b	-0.49279293
131	0x3d5a3662	0.05327452
132	0xbe0af889	-0.13571371
133	0x3e60b075	0.21942313
134	0xbd3607c9	-0.04444102
135	0x3d3f8b47	0.046763685
136	0x3e77ad7f	0.24187277
137	0x3e10ed08	0.1415292
138	0x3e0e6231	0.13904645
139	0x3e71552f	0.23567651
140	0xbdb407ed	-0.08790574
141	0xbeb3de82	-0.35130697
142	0x3e1dd23c	0.1541223
143	0x3f0b9e76	0.5453867
144	0x3e9c7292	0.3055616
145	0xbe9f9a8d	-0.311726
146	0xbe396214	-0.1810382
147	0x3e3993a7	0.18122731
148	0x3ecdb2f8	0.40175605
149	0xbe1a04a6	-0.15040836
150	0x3b4af285	0.0030967307
151	0x3cb9a6a4	0.022662468
152	0x3e3da46c	0.18519753
153	0x3e209af0	0.15684104
154	0xbe0b6935	-0.13614352
155	0x3e948f30	0.29015493
156	0xbe09da86	-0.13462266
157	0xbe5a878d	-0.21340771
158	0xbe03aa2a	-0.12857881
159	0x3d5279dd	0.05138575
160	0xbdf34465	-0.118782796
161	0x3f13b548	0.5769849
162	0x3ea817bb	0.32830605
163	0x3eab6a41	0.33479503
164	0x3e8019c1	0.2501965
165	0xbdccc499	-0.099984355
166	0xbed1f860	-0.41009808
167	0x3e97b641	0.29631236
168	0x3e6c2058	0.23059213
169	0x3c6ede5b	0.014579381
170	0x3d5d08c5	0.05396344
171	0x3e25e1e9	0.16199459
172	0x3e868842	0.2627583
173	0xbed745eb	-0.4204553
174	0xbd8a9ee9	-0.06768591
175	0x3bbe2d26	0.005803722
176	0x3dbbdf2f	0.09173428
177	0xbeb27849	-0.34857395
178	0x3e4857c2	0.19564727
179	0x3c383929	0.011244097
180	0xbb050080	-0.0020294487
181	0x3e47bca8	0.1950556
182	0x3d9e75d7	0.0773732
183	0xbe826426	-0.25467032
184	0xbd9316c1	-0.07182074
185	0x3e7cb7e5	0.24679525
186	0x3e6a9630	0.22908854
187	0xbe1db14a	-0.15399662
188	0x3bfd5036	0.007730509
189	0x3d37c12a	0.04486195
190	0xbe9be0e8	-0.30445027
191	0xbe8cf6d3	-0.27532062
192	0xbe2ec391	-0.1706679
193	0x3da9834c	0.08276996
194	0x3e82220c	0.254166
195	0xbe3a2a63	-0.18180232
196	0xbd9db272	-0.07700051
197	0xbf4a7c05	-0.7909549
198	0x3da8bb12	0.08238806
199	0xbd7bef25	-0.061507363
200	0xbdc1b4a3	-0.09458282
201	0xbed710dc	-0.4200505
202	0xbecfd19f	-0.40589616
203	0x3e6abb06	0.22922906
204	0xbea99573	-0.33121833
205	0xbea1b297	-0.31581566
206	0x3e22fe59	0.15917338
207	0x3e776417	0.24159275
208	0xbe73074b	-0.23733251
209	0xbe03bb77	-0.12864481
210	0x3e7e759a	0.24849549
211	0xbcfb3771	-0.030666085
212	0x3e1103ca	0.14161602
213	0xbef4d6b3	-0.47820053
214	0x3e271cdf	0.16319607
215	0x3e79b7a2	0.24386457
216	0xbd9112f3	-0.070836924
217	0xbda38f08	-0.079862654
218	0xbe11ce1c	-0.1423878
219	0x3e17f468	0.14839327
220	0xbe07b32a	-0.1325194
221	0xbc0f043a	-0.008729035
222	0xbe53782d	-0.20651312
223	0xbe91ec07	-0.28500387
224	0x3dcd77c3	0.10032608
225	0x3e9040ba	0.28174382
226	0xbdd8d2c5	-0.10587076
227	0x3ed1ec1f	0.4100046
228	0x3e5efa70	0.21775222
229	0x3dcc9652	0.09989609
230	0xbe23db10	-0.16001534
231	0x3e4d356d	0.20039912
232	0xbd1de123	-0.038544785
233	0xbd8b6518	-0.068063915
234	0x3e893de3	0.26805028
235	0xbe5494f5	-0.20759948
236	0xbadd2282	-0.0016871246
237	0x3e3d0288	0.18457997
238	0xbe70c369	-0.23512043
239	0x3d01cfeb	0.031692427
240	0x3b6ffc42	0.0036618863
241	0xbe5d39da	-0.216041
242	0xbe10476f	-0.1408975
243	0xbe2c7ad7	-0.16843735
244	0x3d214130	0.03936881
245	0xbe62a620	-0.22133684
246	0x3da28f73	0.07937517
247	0x3e7d9a56	0.24765906
248	0xbba931de	-0.0051634153
249	0xbe8124a3	-0.25223264
250	0x3e14c9a5	0.14530046
251	0x3e034173	0.12817936
252	0x3e601e28	0.21886504
253	0xbe2c5b96	-0.16831812
254	0x3e310584	0.1728726
255	0xbe9abfea	-0.30224544

base.mlp.fc1.0.bias f4 [32]
0	0x38ff3b8f	0.00012170441
1	0x39054520	0.0001270962
2	0xb9057b34	-0.00012729765
3	0x380b3a53	3.31945e-05
4	0xb8d61898	-0.00010208896
5	0x38de36fb	0.00010596026
6	0xb737e159	-1.0960118e-05
7	0x38d330a5	0.00010070325
8	0x38c33fae	9.310186e-05
9	0x38a45479	7.835864e-05
10	0xb88b3f78	-6.6398585e-05
11	0xb8352f69	-4.3197917e-05
12	0xb8e8d7ab	-0.00011102793
13	0xb90a6b91	-0.00013200777
14	0x389ce61f	7.481523e-05
15	0x38bccb4f	9.002408e-05
16	0x388927ef	6.540107e-05
17	0x390427d2	0.00012603335
18	0xb91522a9	-0.00014222659
19	0x3913172c	0.00014027645
20	0x38c191fa	9.2301474e-05
21	0x38f1fb79	0.00011538616
22	0xb90b2050	-0.0001326811
23	0xb848a788	-4.783974e-05
24	0x390f7928	0.00013682677
25	0xb9119e5b	-0.0001388727
26	0xb905faeb	-0.00012777343
27	0xb91227ff	-0.00013938545
28	0xb8b0b805	-8.42661e-05
29	0x390fbb3e	0.00013707296
30	0xb90f8077	-0.000136854
31	0xb904ba31	-0.00012657863

base.mlp.fc1.2.weight f4 [32]
0	0x3f80049b	1.0001405
1	0x3f7ffce0	0.9999523
2	0x3f80025a	1.0000718
3	0x3f7ff68f	0.99985594
4	0x3f7ffcf8	0.99995375
5	0x3f800372	1.0001051
6	0x3f800442	1.0001299
7	0x3f7ffc40	0.9999428
8	0x3f800031	1.0000058
9	0x3f80012c	1.0000358
10	0x3f7ff78f	0.9998712
11	0x3f800369	1.0001041
12	0x3f8003ee	1.0001199
13	0x3f7ff934	0.9998963
14	0x3f7ff68e	0.9998559
15	0x3f8004b2	1.0001433
16	0x3f7ff9f5	0.9999078
17	0x3f7ff6b7	0.9998583
18	0x3f80043b	1.0001291
19	0x3f8004a4	1.0001416
20	0x3f7ff716	0.999864
21	0x3f7ff6eb	0.9998614
22	0x3f800464	1.000134
23	0x3f7ff908	0.99989367
24	0x3f800463	1.0001339
25	0x3f8003be	1.0001142
26	0x3f800438	1.0001287
27	0x3f800414	1.0001245
28	0x3f800247	1.0000695
29	0x3f8003eb	1.0001196
30	0x3f7ff84d	0.9998825
31	0x3f7ff6d4	0.99986005

base.mlp.fc1.2.bias f4 [32]
0	0x3912b9d9	0.00013992879
1	0x38e3b49e	0.00010857846
2	0xb90dd8c3	-0.00013527558
3	0x391616f1	0.00014313661
4	0xb6412d7d	-2.8785719e-06
5	0x39120b33	0.00013927817
6	0x390aabac	0.00013224658
7	0x389a51fb	7.358562e-05
8	0x390872f4	0.00013012794
9	0x38dd1095	0.0001054119
10	0xb73bb4f5	-1.1188201e-05
11	0x38dec08d	0.0001062165
12	0xb8912efe	-6.922892e-05
13	0xb904c25d	-0.00012660907
14	0x39167ed3	0.0001435236
15	0x38cecc3d	9.860888e-05
16	0x38cd1473	9.778971e-05
17	0x39158159	0.00014257933
18	0xb91502ab	-0.00014210741
19	0x39167b7e	0.00014351119
20	0x390e9b12	0.00013599943
21	0x39138b81	0.00014070982
22	0xb9150ff3	-0.00014215689
23	0x386674e1	5.4945125e-05
24	0x39109ebb	0.00013792042
25	0xb9077038	-0.00012916408
26	0xb9041d5f	-0.00012599443
27	0xb911016a	-0.00013828804
28	0x38c5dd51	9.4349154e-05
29	0x390ce6d0	0.00013437425
30	0xb908f9b9	-0.00013063
31	0xb9138772	-0.0001406947

base.mlp.fc_h.0.weight f4 [32, 32]
0	0xbeab70cd	-0.33484498
1	0xbd9a1017	-0.075226
2	0x3ec8321a	0.39100724
3	0xbf6e3c76	-0.93061006
4	0x3e99f5da	0.30070382
5	0x3c48fc3b	0.012267168
6	0xbeb2f38e	-0.34951442
7	0xbe761012	-0.24029568
8	0x3dca32fc	0.09873006
9	0x3d901924	0.07036045
10	0x3e770972	0.24124697
11	0xbea61c3e	-0.32443422
12	0x3e4d77fa	0.20065299
13	0x3d71d9d7	0.05904564
14	0xbe9974b4	-0.2997185
15	0x3c0676af	0.008207007
16	0x3ea3baf2	0.31978565
17	0x3cc0791e	0.023495253
18	0x3ae5e232	0.0017538725
19	0xbdba4c83	-0.09096625
20	0x3dafe25a	0.08588095
21	0xbd4de3b7	-0.050265994
22	0xbe00e276	-0.12586388
23	0xbed95157	-0.4244487
24	0xbe9a13b8	-0.3009317
25	0x3f17f0a2	0.5935155
26	0xbec5b692	-0.38615853
27	0xbe63fdc8	-0.22264779
28	0x3cf9c683	0.030490166
29	0x3e6d3145	0.23163326
30	0xbc241eab	-0.010017077
31	0xbe5ab0b3	-0.21356468
32	0x3e8028c6	0.25031108
33	0x3e599e03	0.21251683
34	0xbe372cbb	-0.17888157
35	0xbe5abe28	-0.21361601
36	0xbde93455	-0.11386935
37	0xbe8d726b	-0.27626356
38	0xbccaefdc	-0.024772577
39	0x3ed417c0	0.4142437
40	0xbd8bb173	-0.06820955
41	0x3ec11d6c	0.3771776
42	0xbe7a0774	-0.24416906
43	0x3dca5248	0.09878975
44	0x3e196d73	0.14983158
45	0xbea5aefb	-0.32360062
46	0x3d9ffdd2	0.07812084
47	0xbec62cb6	-0.38705987
48	0x3bee7ada	0.0072778286
49	0xbf33b717	-0.7020125
50	0xbe0f795b	-0.14011137
51	0xbe914602	-0.28373724
52	0x3ef67530	0.48136282
53	0xbda1d769	-0.07902414
54	0x3d9d3d48	0.07677704
55	0x3e9ac956	0.30231732
56	0x3e5d23e0	0.21595716
57	0x3ec602ea	0.38674098
58	0xbbe059ff	-0.006846666
59	0xbf36b689	-0.71372277
60	0x3e9ec513	0.3100973
61	0xbdda2b54	-0.106527954
62	0x3e6bedce	0.23039934
63	0x3e44d430	0.19221568
64	0xbd7c0167	-0.061524775
65	0xbebc73b6	-0.3680703
66	0xbdb22ffa	-0.08700557
67	0xbd18a86f	-0.037270006
68	0xbe75c510	-0.24000955
69	0x3e805b52	0.25069672
70	0x3e858f0e	0.26085705
71	0x3ef08f02	0.46984106
72	0xbf0cdb95	-0.55022556
73	0x3e783fde	0.24243113
74	0x3e67fdd6	0.22655424
75	0x3de179e1	0.11009575
76	0x3eafda19	0.34346083
77	0x3e64b952	0.22336319
78	0x3e53a195	0.20667107
79	0x3df27971	0.11839569
80	0x3eadec98	0.3396957
81	0xbe38ab32	-0.18034056
82	0x3e2ed893	0.17074804
83	0xbe67f56b	-0.22652213
84	0xbf27ba6b	-0.65518826
85	0x3dc831b4	0.09775105
86	0xbd9607b0	-0.07325685
87	0xbea21bb1	-0.31661752
88	0x3e348e50	0.17632413
89	0xbd271ae9	-0.040797148
90	0xbdd54641	-0.104137905
91	0xbdb8e9dc	-0.0902898
92	0xbe46bd2c	-0.19408101
93	0xbe1351d5	-0.14386685
94	0x3f3efd3f	0.7460517
95	0xbeb977b9	-0.36224154
96	0x3db6008d	0.08886824
97	0xbef34e9f	-0.4752092
98	0x3e8d589e	0.27606672
99	0x3e01d5f6	0.12679276
100	0x3ed01c5a	0.4064663
101	0x3f38502a	0.7199732
102	0xbdcdcde2	-0.10049035
103	0xbe22076c	-0.15823144
104	0x3d5049b0	0.050851524
105	0xbd527afd	-0.051386822
106	0xbe2f51df	-0.17121075
107	0xbe559e82	-0.20861247
108	0x3e088747	0.13332854
109	0x3e9d440e	0.30715984
110	0x3d4411d4	0.047868565
111	0xbe98e38f	-0.29861113
112	0xbeb99c95	-0.36252275
113	0xbefec2f5	-0.49758115
114	0x3ee97ee7	0.4560463
115	0x3ed49c9e	0.4152574
116	0x3d9c6900	0.07637215
117	0xbea4e773	-0.32207832
118	0x3d123f60	0.03570497
119	0x3d8cbfe8	0.06872541
120	0xbd31d4c2	-0.043415792
121	0xbdcf194f	-0.10112249
122	0x3ebabb70	0.36471128
123	0xbf0496c7	-0.5179257
124	0xbeca2a75	-0.39485517
125	0xbcb28dcc	-0.02179613
126	0xbd92d2c5	-0.07169107
127	0xbd1fe869	-0.039040003
128	0xbe564b65	-0.20927198
129	0x3e9b2fb3	0.3030983
130	0x3ed479fe	0.41499323
131	0x3d81cf85	0.06338409
132	0xbd63073e	-0.05542683
133	0x3c6dcc84	0.014514092
134	0xbe66e894	-0.22549659
135	0x3e67f518	0.2265209
136	0x3e99824e	0.29982227
137	0x3e1058d3	0.14096384
138	0x3e379783	0.17928891
139	0xbe7e5a24	-0.24839073
140	0x3ef4c924	0.47809708
141	0xbe2ef30f	-0.17084907
142	0x3ec01937	0.37519237
143	0x3ebfbc2c	0.3744825
144	0xbebd00ff	-0.36914822
145	0xbe8b3564	-0.2718917
146	0x3e283b0b	0.16428773
147	0x3e223c96	0.15843424
148	0xbe3bddc8	-0.18346322
149	0xbe0cf76d	-0.1376626
150	0x3e59fc51	0.21287657
151	0x3e36c4a6	0.17848453
152	0xbf141865	-0.57849723
153	0x3da318ab	0.079636894
154	0x3e818299	0.2529495
155	0x3eef9723	0.46794996
156	0x3ec65b25	0.38741413
157	0x3d62a34d	0.055331517
158	0x3f081002	0.53149426
159	0x3ed0d8c9	0.40790394
160	0xbc91c090	-0.017792016
161	0xbeccd107	-0.40003225
162	0xbdb19b25	-0.086721696
163	0x3e74dd88	0.23912632
164	0x3cb73977	0.022366269
165	0x3d26aa37	0.040689673
166	0xbeda10c2	-0.4259091
167	0x3eb3c942	0.35114485
168	0x3e08cb23	0.1335874
169	0xbd95f795	-0.07322613
170	0xbf146213	-0.5796215
171	0x3e58c65e	0.21169421
172	0xbd752c74	-0.059856847
173	0xbf004e79	-0.5011974
174	0x3f0de602	0.5542909
175	0xbea34906	-0.3189165
176	0xbdeb0bde	-0.11476873
177	0x3ed50b64	0.41610253
178	0xbca90569	-0.020632463
179	0xbd0a2b22	-0.03373254
180	0x3d87baf5	0.06627456
181	0xbec3d8b7	-0.38251278
182	0xbd968d40	-0.0735116
183	0xbef2bea4	-0.47411072
184	0xbebf3841	-0.37347606
185	0x3eb4cbee	0.35311836
186	0xbe9a8c1f	-0.3018503
187	0x3e287c15	0.16453584
188	0xbdf15266	-0.117832944
189	0xbed27bd5	-0.411101
190	0xbc56a8b3	-0.013101744
191	0xbe56ba8c	-0.209696
192	0x3e70d695	0.23519357
193	0x3ce47047	0.02788557
194	0xbcdf0a58	-0.027226612
195	0xbe98038f	-0.29690215
196	0xbf0b2cdb	-0.5436532
197	0xbd3e9c05	-0.04653551
198	0xbdfe4f34	-0.124174505
199	0xbd0de1d6	-0.034639202
200	0x3f1c7943	0.6112253
201	0xbd2817ed	-0.041038442
202	0x3c5d07a8	0.013490595
203	0xbdda6671	-0.106640704
204	0x3d016eec	0.031599924
205	0x3d20b792	0.039237566
206	0x3dc88921	0.0979178
207	0xbd8b6dbb	-0.06808039
208	0xbd8e386a	-0.06944354
209	0xbed5f620	-0.4178934
210	0xbe046302	-0.12928393
211	0xbf1caa29	-0.61197144
212	0x3d809fde	0.06280492
213	0x3ec70677	0.3887212
214	0xbe8896db	-0.26677594
215	0xbf0639a3	-0.52431697
216	0xbe9b424b	-0.30324015
217	0xbed41bb6	-0.41427392
218	0x3eff040e	0.4980778
219	0x3d7bfee2	0.061522372
220	0xbf043ccd	-0.51655275
221	0xbe3741e5	-0.1789623
222	0xbe2c6d00	-0.16838455
223	0xbca2ad37	-0.019857986
224	0x3cec473d	0.028842563
225	0xbe42b934	-0.19015962
226	0x3c4f95bd	0.012669978
227	0xbc9b8a53	-0.018986857
228	0xbf07fc0f	-0.53118986
229	0x3ed90a0e	0.42390484
230	0x3e3583c5	0.17726047
231	0xbea3b7e8	-0.31976247
232	0x3e86b7d6	0.2631213
233	0xbdac5f1f	-0.084165804
234	0xbeda533b	-0.42641625
235	0x3ebc44f0	0.36771345
236	0xbe44489f	-0.19168328
237	0xbe8dd923	-0.27704725
238	0xbd863a9a	-0.06554146
239	0x386985c3	5.5676104e-05
240	0x3ee26130	0.44214773
241	0xbeb82532	-0.35965878
242	0x3e6ce272	0.23133257
243	0x3c62ec27	0.013850248
244	0xbd5e5dbf	-0.054288622
245	0x3e159f0f	0.14611457
246	0xbde9ceed	-0.11416421
247	0x3f276d14	0.65400815
248	0xbed92a24	-0.42414963
249	0x3e3dd840	0.18539524
250	0xbe8f2897	-0.27960655
251	0x3e7a57c9	0.2444755
252	0x3b1805ef	0.0023196896
253	0x3f0b0165	0.54299
254	0x3deba816	0.11506669
255	0xbeb85d89	-0.36008862

base.mlp.fc_h.0.bias f4 [32]
0	0x00000000	0.0
1	0x00000000	0.0
2	0x00000000	0.0
3	0x00000000	0.0
4	0x00000000	0.0
5	0x00000000	0.0
6	0x00000000	0.0
7	0x00000000	0.0
8	0x00000000	0.0
9	0x00000000	0.0
10	0x00000000	0.0
11	0x00000000	0.0
12	0x00000000	0.0
13	0x00000000	0.0
14	0x00000000	0.0
15	0x00000000	0.0
16	0x00000000	0.0
17	0x00000000	0.0
18	0x00000000	0.0
19	0x00000000	0.0
20	0x00000000	0.0
21	0x00000000	0.0
22	0x00000000	0.0
23	0x00000000	0.0
24	0x00000000	0.0
25	0x00000000	0.0
26	0x00000000	0.0
27	0x00000000	0.0
28	0x00000000	0.0
29	0x00000000	0.0
30	0x00000000	0.0
31	0x00000000	0.0

base.mlp.fc_h.2.weight f4 [32]
0	0x3f800000	1.0
1	0x3f800000	1.0
2	0x3f800000	1.0
3	0x3f800000	1.0
4	0x3f800000	1.0
5	0x3f800000	1.0
6	0x3f800000	1.0
7	0x3f800000	1.0
8	0x3f800000	1.0
9	0x3f800000	1.0
10	0x3f800000	1.0
11	0x3f800000	1.0
12	0x3f800000	1.0
13	0x3f800000	1.0
14	0x3f800000	1.0
15	0x3f800000	1.0
16	0x3f800000	1.0
17	0x3f800000	1.0
18	0x3f800000	1.0
19	0x3f800000	1.0
20	0x3f800000	1.0
21	0x3f800000	1.0
22	0x3f800000	1.0
23	0x3f800000	1.0
24	0x3f800000	1.0
25	0x3f800000	1.0
26	0x3f800000	1.0
27	0x3f800000	1.0
28	0x3f800000	1.0
29	0x3f800000	1.0
30	0x3f800000	1.0
31	0x3f800000	1.0

base.mlp.fc_h.2.bias f4 [32]
0	0x00000000	0.0
1	0x00000000	0.0
2	0x00000000	0.0
3	0x00000000	0.0
4	0x00000000	0.0
5	0x00000000	0.0
6	0x00000000	0.0
7	0x00000000	0.0
8	0x00000000	0.0
9	0x00000000	0.0
10	0x00000000	0.0
11	0x00000000	0.0
12	0x00000000	0.0
13	0x00000000	0.0
14	0x00000000	0.0
15	0x00000000	0.0
16	0x00000000	0.0
17	0x00000000	0.0
18	0x00000000	0.0
19	0x00000000	0.0
20	0x00000000	0.0
21	0x00000000	0.0
22	0x00000000	0.0
23	0x00000000	0.0
24	0x00000000	0.0
25	0x00000000	0.0
26	0x00000000	0.0
27	0x00000000	0.0
28	0x00000000	0.0
29	0x00000000	0.0
30	0x00000000	0.0
31	0x00000000	0.0

base.mlp.fc2.0.0.weight f4 [32, 32]
0	0xbeab8363	-0.33498678
1	0xbd99c973	-0.075091265
2	0x3ec83d3d	0.3910922
3	0xbf6e3332	-0.9304687
4	0x3e9a0869	0.3008454
5	0x3c46add8	0.0121264085
6	0xbeb3051d	-0.3496484
7	0xbe75ebb4	-0.24015695
8	0x3dca1681	0.098675735
9	0x3d8fd0ac	0.07022223
10	0x3e76e94d	0.24112435
11	0xbea62e3f	-0.32457158
12	0x3e4d7544	0.20064265
13	0x3d714c22	0.058910497
14	0xbe996226	-0.29957694
15	0x3c076f23	0.008266243
16	0x3ea3cca3	0.31992063
17	0x3cc173c2	0.023614768
18	0x3aefada5	0.0018286003
19	0xbdba96bd	-0.09110782
20	0x3db02bca	0.08602102
21	0xbd4d52bf	-0.05012774
22	0xbe00beb8	-0.12572753
23	0xbed940d9	-0.42432287
24	0xbe9a23e6	-0.30105513
25	0x3f17ec54	0.59344983
26	0xbec5c5af	-0.38627383
27	0xbe63daee	-0.22251484
28	0x3cf8a23e	0.0303508
29	0x3e6d0c82	0.23149303
30	0xbc22956b	-0.009923319
31	0xbe5ad52f	-0.21370386
32	0x3e802b88	0.25033212
33	0x3e598a9a	0.21244279
34	0xbe373881	-0.17892648
35	0xbe5ac052	-0.21362427
36	0xbde90cc5	-0.11379389
37	0xbe8d6d1d	-0.2762231
38	0xbcca4acd	-0.02469387
39	0x3ed40f06	0.41417712
40	0xbd8b837c	-0.06812188
41	0x3ec123ca	0.37722617
42	0xbe7a2019	-0.24426307
43	0x3dca7da9	0.09887249
44	0x3e195452	0.14973572
45	0xbea5ba70	-0.32368803
46	0x3da00c0b	0.07814797
47	0xbec6342a	-0.38711673
48	0x3bf23580	0.0073916316
49	0xbf33b0a5	-0.70191413
50	0xbe0f660c	-0.14003772
51	0xbe91461d	-0.28373805
52	0x3ef67154	0.48133337
53	0xbda1b09a	-0.07895012
54	0x3d9d595d	0.0768306
55	0x3e9ac442	0.30227858
56	0x3e5d01da	0.21582738
57	0x3ec60723	0.3867732
58	0xbbe2f099	-0.006925654
59	0xbf36b608	-0.7137151
60	0x3e9ecaa6	0.31013983
61	0xbdda03cc	-0.106452554
62	0x3e6bfd3a	0.23045817
63	0x3e44bb21	0.19212009
64	0xbd7c6f21	-0.06162942
65	0xbebc66a3	-0.36797056
66	0xbdb276fc	-0.08714101
67	0xbd1831cc	-0.037156865
68	0xbe75a8b7	-0.23990141
69	0x3e806ab1	0.250814
70	0x3e857f9c	0.2607392
71	0x3ef09d08	0.46994805
72	0xbf0cd535	-0.5501283
73	0x3e781c87	0.24229632
74	0x3e67f881	0.2265339
75	0x3de13ac5	0.109975375
76	0x3eafeaad	0.3435873
77	0x3e64af11	0.22332408
78	0x3e53b69d	0.2067513
79	0x3df25a65	0.11833648
80	0x3eadf4d3	0.3397585
81	0xbe388f93	-0.18023519
82	0x3e2eee7f	0.17083167
83	0xbe6811a4	-0.2266298
84	0xbf27b368	-0.6550813
85	0x3dc86ce3	0.097863935
86	0xbd95c89f	-0.07313656
87	0xbea20b6c	-0.3164934
88	0x3e349f2f	0.17638849
89	0xbd27a0b2	-0.040924735
90	0xbdd52a08	-0.104084074
91	0xbdb8d68d	-0.09025297
92	0xbe46db0c	-0.19419497
93	0xbe136e1e	-0.14397475
94	0x3f3f0459	0.7461601
95	0xbeb986cf	-0.36235663
96	0x3db5d7ab	0.08879026
97	0xbef3470e	-0.47515148
98	0x3e8d65cc	0.27616727
99	0x3e01f407	0.12690745
100	0x3ed022b5	0.4065148
101	0x3f384803	0.7198488
102	0xbdcdc247	-0.10046821
103	0xbe21ed80	-0.15813255
104	0x3d5037d6	0.0508345
105	0xbd52805a	-0.051391937
106	0xbe2f30ad	-0.17108412
107	0xbe55bc4f	-0.20872615
108	0x3e087f4b	0.13329808
109	0x3e9d3d08	0.30710626
110	0x3d44720e	0.047960334
111	0xbe98d6c3	-0.2985135
112	0xbeb99c41	-0.36252025
113	0xbefec46a	-0.49759227
114	0x3ee97481	0.45596698
115	0x3ed495bd	0.4152049
116	0x3d9ca186	0.07647996
117	0xbea4e486	-0.322056
118	0x3d12c273	0.035829972
119	0x3d8cce39	0.06875271
120	0xbd3231c0	-0.043504477
121	0xbdcf3418	-0.10117358
122	0x3ebaae35	0.36461034
123	0xbf049856	-0.51794946
124	0xbeca311c	-0.39490592
125	0xbcb362f3	-0.021897769
126	0xbd92d1e9	-0.071689434
127	0xbd202542	-0.03909803
128	0xbe567034	-0.2094124
129	0x3e9b419c	0.30323493
130	0x3ed46a94	0.41487563
131	0x3d821896	0.06352346
132	0xbd6275e1	-0.0552882
133	0x3c6f886f	0.014619931
134	0xbe670e1d	-0.22563978
135	0x3e6819aa	0.2266604
136	0x3e999304	0.29994977
137	0x3e103398	0.14082181
138	0x3e377222	0.17914632
139	0xbe7e7f08	-0.24853146
140	0x3ef4d7ef	0.47820994
141	0xbe2ee8e7	-0.17081033
142	0x3ec02b57	0.37533066
143	0x3ebfcabf	0.3745937
144	0xbebceef2	-0.3690105
145	0xbe8b2343	-0.2717534
146	0x3e285bd0	0.16441274
147	0x3e22187b	0.15829651
148	0xbe3bb8d5	-0.18332227
149	0xbe0cd269	-0.1375214
150	0x3e5a20a2	0.21301511
151	0x3e36e4b6	0.17860684
152	0xbf14201b	-0.5786149
153	0x3da2cf78	0.07949728
154	0x3e818f56	0.2530467
155	0x3eefa8bf	0.4680843
156	0x3ec648e5	0.3872749
157	0x3d620eea	0.055190004
158	0x3f0809e6	0.53140104
159	0x3ed0c68e	0.40776485
160	0xbc90ca95	-0.017674724
161	0xbeccdeea	-0.4001382
162	0xbdb19292	-0.08670534
163	0x3e74bea9	0.23900856
164	0x3cb6bb5c	0.022306137
165	0x3d271977	0.04079577
166	0xbeda0411	-0.42581227
167	0x3eb3b935	0.3510224
168	0x3e08ea80	0.13370705
169	0xbd95c57a	-0.07313056
170	0xbf14669f	-0.5796909
171	0x3e58e4a2	0.21180966
172	0xbd75a553	-0.05997212
173	0xbf0050a9	-0.5012308
174	0x3f0dde53	0.55417365
175	0xbea34e31	-0.31895593
176	0xbdead7da	-0.11466952
177	0x3ed518e4	0.41620553
178	0xbca8d2c5	-0.020608315
179	0xbd09b5bb	-0.033620577
180	0x3d878006	0.066162154
181	0xbec3e3f1	-0.38259843
182	0xbd96c22e	-0.073612556
183	0xbef2ce25	-0.474229
184	0xbebf47e7	-0.37359545
185	0x3eb4d5da	0.35319406
186	0xbe9a960a	-0.30192596
187	0x3e285da5	0.16441973
188	0xbdf11543	-0.117716335
189	0xbed26b68	-0.4109757
190	0xbc55ca4e	-0.0130487215
191	0xbe56b9b5	-0.20969279
192	0x3e70c818	0.2351383
193	0x3ce54eac	0.027991615
194	0xbcdfda83	-0.027325874
195	0xbe97fa56	-0.2968318
196	0xbf0b275f	-0.5435695
197	0xbd3e5a86	-0.04647305
198	0xbdfe8f02	-0.1242962
199	0xbd0d9a5d	-0.03457104
200	0x3f1c76bb	0.6111867
201	0xbd287c2e	-0.041134052
202	0x3c5c8e0e	0.013461603
203	0xbdda8825	-0.10670499
204	0x3d01b980	0.031671047
205	0x3d206ee5	0.039168257
206	0x3dc8b7cf	0.09800684
207	0xbd8b9ff3	-0.06817617
208	0xbd8e0445	-0.06934408
209	0xbed5eb48	-0.41781068
210	0xbe0444d1	-0.12916876
211	0xbf1cae33	-0.61203307
212	0x3d80d41e	0.06290458
213	0x3ec716a0	0.3888445
214	0xbe8887af	-0.26666018
215	0xbf0638db	-0.52430505
216	0xbe9b4e8c	-0.30333364
217	0xbed42c20	-0.41439915
218	0x3eff0579	0.49808863
219	0x3d7c1552	0.06154377
220	0xbf044160	-0.51662254
221	0xbe3753e2	-0.17903093
222	0xbe2c6645	-0.16835888
223	0xbca367cf	-0.01994696
224	0x3ced3ab3	0.028958654
225	0xbe42d381	-0.19025995
226	0x3c519766	0.012792444
227	0xbc9c6b30	-0.01909408
228	0xbf0801dd	-0.53127843
229	0x3ed900a7	0.4238331
230	0x3e35a054	0.17736942
231	0xbea3c39c	-0.31985176
232	0x3e86c496	0.26321858
233	0xbdac2131	-0.08404768
234	0xbeda452e	-0.42630905
235	0x3ebc5325	0.36782184
236	0xbe446a80	-0.19181252
237	0xbe8dce8f	-0.27696654
238	0xbd8674bc	-0.06565234
239	0x39274fb5	0.00015956054
240	0x3ee25666	0.44206542
241	0xbeb81896	-0.35956258
242	0x3e6cc4de	0.23121974
243	0x3c64f88e	0.013975276
244	0xbd5ec869	-0.054390345
245	0x3e1585ed	0.1460187
246	0xbde9fc18	-0.11425036
247	0x3f276510	0.65388584
248	0xbed93628	-0.4242413
249	0x3e3df763	0.18551402
250	0xbe8f38df	-0.27973077
251	0x3e7a385d	0.24435563
252	0x3b1fde98	0.002439415
253	0x3f0b08cb	0.5431029
254	0x3deb6b53	0.1149508
255	0xbeb84f58	-0.35998034

base.mlp.fc2.0.0.bias f4 [32]
0	0xb9132276	-0.0001403185
1	0xb6c639d3	-5.9075915e-06
2	0xb8d84c8e	-0.00010313942
3	0xb8b75514	-8.741967e-05
4	0xb91203df	-0.00013925087
5	0x38ef8c8c	0.00011422587
6	0xb8c2a999	-9.282231e-05
7	0x38e53f30	0.000109313405
8	0x3815c754	3.5710007e-05
9	0xb902f2e8	-0.00012488256
10	0xb90402a4	-0.00012589485
11	0xb90589b9	-0.00012735174
12	0xb8833b1d	-6.2575775e-05
13	0x38b28a5e	8.513474e-05
14	0xb8ff3513	-0.000121692334
15	0x38d2219e	0.00010019842
16	0xb8b0614d	-8.410458e-05
17	0xb84cc41c	-4.882003e-05
18	0xb916786d	-0.00014349977
19	0x390bdf42	0.00013339243
20	0xb9060a83	-0.00012783152
21	0xb8b296c6	-8.515785e-05
22	0x390d4b1f	0.00013474793
23	0xb90f80ff	-0.00013685598
24	0xb73f062c	-1.1385924e-05
25	0x3913a20b	0.00014079378
26	0x38e92c5c	0.00011118568
27	0xb8c5033e	-9.394296e-05
28	0x38c6bf53	9.477013e-05
29	0xb90b1588	-0.00013264094
30	0x390fdaec	0.00013719097
31	0xb75aed08	-1.3049001e-05

base.mlp.fc2.0.2.weight f4 [32]
0	0x3f7ff702	0.9998628
1	0x3f8003c4	1.0001149
2	0x3f7ffea5	0.9999793
3	0x3f7ff6a9	0.9998575
4	0x3f8002e0	1.0000877
5	0x3f7ffd33	0.99995726
6	0x3f800453	1.000132
7	0x3f7ffdde	0.99996746
8	0x3f8003b6	1.0001132
9	0x3f8000d8	1.0000257
10	0x3f7ff763	0.9998686
11	0x3f7ff980	0.9999008
12	0x3f7ffb06	0.99992406
13	0x3f7ff80d	0.9998787
14	0x3f8003e9	1.0001193
15	0x3f80047a	1.0001366
16	0x3f800385	1.0001074
17	0x3f7fff4a	0.99998915
18	0x3f8004af	1.0001429
19	0x3f7ff6f5	0.999862
20	0x3f80031b	1.0000948
21	0x3f8003db	1.0001177
22	0x3f8003d6	1.0001171
23	0x3f7ffc1b	0.9999406
24	0x3f7ff6fd	0.9998625
25	0x3f7ff723	0.99986476
26	0x3f800366	1.0001037
27	0x3f800437	1.0001286
28	0x3f800383	1.0001072
29	0x3f800438	1.0001287
30	0x3f7ff791	0.9998713
31	0x3f7ffe87	0.9999775

base.mlp.fc2.0.2.bias f4 [32]
0	0xb9146041	-0.00014150237
1	0x390118b3	0.000123116
2	0xb7905a4b	-1.7208184e-05
3	0xb88b5518	-6.6438864e-05
4	0xb90abbac	-0.00013230619
5	0x38db1437	0.00010446499
6	0xb9088436	-0.00013019223
7	0x38ddbd5e	0.000105733736
8	0x3906ce99	0.000128562
9	0xb9085add	-0.0001300382
10	0xb90a9969	-0.00013217855
11	0xb903ef44	-0.00012582267
12	0x38cb88cb	9.705274e-05
13	0x390a7d2c	0.00013207336
14	0xb8dc556e	-0.0001050633
15	0x390eb1d8	0.00013608427
16	0x38d979b8	0.00010370038
17	0x3720dc39	9.588018e-06
18	0xb9183a55	-0.0001451758
19	0x3915f95b	0.0001430264
20	0xb90d0a65	-0.0001345068
21	0x390ae40c	0.0001324566
22	0x390c4455	0.00013376896
23	0xb90b4f39	-0.00013285586
24	0x390be1b6	0.00013340157
25	0x39194a55	0.00014618908
26	0x38f137d3	0.000115021736
27	0xb7916e9f	-1.7336859e-05
28	0x38faba37	0.00011955614
29	0xb910b316	-0.00013799625
30	0x391648dc	0.00014332257
31	0xb77323e8	-1.4492289e-05

rnn.rnn.weight_ih_l0 f4 [96, 32]
0	0x3b5a6d01	0.0033329132
1	0x3d820e3d	0.06350372
2	0xbdd1d28c	-0.10245237
3	0x3c0f4bd5	0.008746107
4	0x3e1ca899	0.1529869
5	0x3d022cf6	0.03178116
6	0xbd47cd56	-0.048779808
7	0x3e2126d9	0.15737475
8	0xbda47209	-0.08029563
9	0xbe3f016c	-0.18652886
10	0xbc83f715	-0.016109029
11	0xbd454fed	-0.048171926
12	0x3d9c6e76	0.07638256
13	0xbe762a04	-0.24039465
14	0xbda89c2b	-0.08232912
15	0x3d9e0b94	0.07717052
16	0xbe06755a	-0.13130704
17	0xbd903bfe	-0.070426926
18	0xbdfe7964	-0.12425497
19	0xbd82193e	-0.06352471
20	0x3e7c39a1	0.24631359
21	0xbda52db2	-0.08065356
22	0x3d600277	0.05468985
23	0xbd1a6395	-0.037692625
24	0x3c81d80f	0.015850095
25	0xbc896ff2	-0.016777012
26	0xbe150094	-0.14551002
27	0x3da149bc	0.07875392
28	0x3c262879	0.010141485
29	0xbe1c72a5	-0.15278108
30	0xbd4c9589	-0.049947295
31	0xbe0f5c6f	-0.14000104
32	0xbdb7832d	-0.08960567
33	0xbd5ce88f	-0.053932723
34	0x3ba4828c	0.005020445
35	0xbab653e8	-0.0013910504
36	0x3e0d3195	0.13788445
37	0x3e183fda	0.14868107
38	0x3cc4118e	0.023934152
39	0xbe5ab3e6	-0.21357688
40	0xbcec65b4	-0.02885709
41	0xbde7c90b	-0.11317643
42	0x3d04e60f	0.032445963
43	0xbd7121b7	-0.058870044
44	0x3e5a3f2c	0.2131316
45	0x3df256bf	0.11832952
46	0x3dbccb90	0.09218514
47	0xbce3d326	-0.027810644
48	0x3c8f7edb	0.017516544
49	0x3dd1edb2	0.10250415
50	0xbd609fa7	-0.054839756
51	0xbd2568d2	-0.040383168
52	0xbd2363c8	-0.03989008
53	0xbe1e7319	-0.15473594
54	0x3cfc2cb7	0.03078304
55	0x3d710804	0.058845535
56	0x3dfa740f	0.12229168
57	0xbd395dae	-0.045255356
58	0x3e004c75	0.12529166
59	0xbd8e4a34	-0.06947747
60	0xbc8cc8fe	-0.017185684
61	0xbd85b056	-0.06527774
62	0x3e18a31a	0.14905968
63	0x3e68c791	0.22732379
64	0x3e467b7a	0.1938304
65	0x3dd7c2ee	0.10535227
66	0x3d676bb2	0.05649919
67	0xbd5b541f	-0.05354702
68	0xbe0dbf98	-0.13842618
69	0xbd9f5d82	-0.07781507
70	0xbe50e57b	-0.2040004
71	0xbc73637a	-0.01485526
72	0xbdae2815	-0.08503739
73	0x3e0f877a	0.14016524
74	0x3d597f8e	0.05310016
75	0xbde23450	-0.11045134
76	0x3e3c46ab	0.18386333
77	0x3ba3797f	0.0049888487
78	0xbbbf11bb	-0.005830971
79	0xbe466cd4	-0.19377452
80	0xbd978b27	-0.07399588
81	0xbc4566b2	-0.01204841
82	0x3d22c23c	0.039736018
83	0xbe5c434c	-0.21510047
84	0xbdc9dd75	-0.09856693
85	0x3db6d142	0.089266315
86	0x3e776494	0.24159461
87	0xbd7e5ddb	-0.062101226
88	0x3d4e3cec	0.05035107
89	0x3d2be157	0.041962948
90	0xbc9b22ae	-0.018937435
91	0x3d593b75	0.05303522
92	0xbd144db2	-0.03620691
93	0xbe03c5b0	-0.1286838
94	0xbd84c74d	-0.06483326
95	0x3e083b2b	0.13303821
96	0x3d25b822	0.040458806
97	0xbd41ac86	-0.04728367
98	0x3d4fde1b	0.050748926
99	0x3e31a02a	0.17346254
100	0x3d2d1c12	0.042263098
101	0xbe0dae17	-0.13835941
102	0x3e9a0d52	0.30088288
103	0x3da8aca5	0.08236054
104	0x3e21fba1	0.15818645
105	0x3d1f98b3	0.038963985
106	0x3de67bdd	0.11254094
107	0x3e2fa549	0.17152895
108	0x3c842e02	0.01613522
109	0xbbb74cc3	-0.0055938675
110	0x3d8aac03	0.0677109
111	0xbe17765b	-0.14791243
112	0xbe03683a	-0.12832728
113	0xbc728559	-0.0148023
114	0xbdcb6d10	-0.099329114
115	0x3dd015f8	0.1016044
116	0xbdcd5bb7	-0.10027259
117	0x3dfbd88a	0.12297161
118	0x3dc13465	0.094338216
119	0xbe03673c	-0.1283235
120	0xbcc4005c	-0.023925953
121	0x3d5b152a	0.05348698
122	0xbcecd3be	-0.02890956
123	0x3cf89038	0.030342206
124	0xbe3ccfaa	-0.18438593
125	0x3da51c21	0.08062006
126	0x3d0654be	0.03279566
127	0x3c1cebae	0.009577675
128	0xbcc889da	-0.024479795
129	0x3cf8d8a0	0.030376732
130	0xbcb62de0	-0.022238672
131	0x3b9d1fe7	0.004795063
132	0xbcc4655b	-0.023974111
133	0xbd104ac9	-0.03522757
134	0x3e230759	0.15920772
135	0xbe074efb	-0.13213722
136	0x3e80ebe7	0.2517998
137	0x3dd71b22	0.10503222
138	0xbc5d0bf7	-0.013491622
139	0xbb91e6b8	-0.0044525526
140	0x3e020a6f	0.12699293
141	0x3cf81116	0.030281585
142	0x3daf0f6d	0.08547864
143	0x3baf0c9c	0.0053420793
144	0x3e1eeb7d	0.15519519
145	0xbc273c2c	-0.010207217
146	0x3de56777	0.11201375
147	0xb98283cd	-0.00024893731
148	0xbe514158	-0.20435083
149	0xbd0c328b	-0.03422789
150	0x3d987a3c	0.07445189
151	0xbd16c551	-0.03680927
152	0x3e87d35f	0.2652845
153	0xbe79a117	-0.24377857
154	0xbc9baa86	-0.01900221
155	0x3dba7603	0.0910454
156	0xbdd9da2a	-0.106373146
157	0x3d9f8135	0.07788316
158	0x3cf8efec	0.030387841
159	0xbd413284	-0.047167316
160	0xbd30bbd6	-0.043147884
161	0xbd9f63cf	-0.07782709
162	0x3d2dce23	0.042432915
163	0xbc9089e9	-0.017643886
164	0xbd9fa4f7	-0.077951364
165	0x3dcd7b27	0.10033255
166	0xbe09d9e5	-0.13462026
167	0xbdb442e4	-0.08801821
168	0xbc94e7eb	-0.018176993
169	0xbdfe3802	-0.124130264
170	0xbdd0e643	-0.10200169
171	0x3dcf799f	0.10130619
172	0xbe14fe92	-0.14550236
173	0xbcd7f046	-0.026359688
174	0x3d5849ed	0.052804876
175	0x3cc218f5	0.023693541
176	0xbe2f5c5c	-0.17125076
177	0x3b3962d0	0.0028287657
178	0xba1944b2	-0.0005846723
179	0x3e49eef5	0.19720061
180	0x3d10aad0	0.03531915
181	0x3cbc9048	0.023018017
182	0xbd648084	-0.055786625
183	0x3d222cef	0.039593633
184	0xbd11e85f	-0.035621997
185	0x3cf096ef	0.029368846
186	0xb909c2e2	-0.00013137938
187	0x3e2cd28a	0.1687719
188	0xbd97b310	-0.074072
189	0x3dff2680	0.12458515
190	0xbcdf53e9	-0.027261691
191	0x3d64ae0f	0.055830058
192	0x3c673c93	0.014113563
193	0xbcc624a4	-0.024187393
194	0xbe14d82e	-0.14535591
195	0x3e00cc05	0.12577827
196	0x3d9530db	0.07284709
197	0xbc4422cb	-0.011971186
198	0xbdcc1502	-0.099649444
199	0xbe3ecdde	-0.1863322
200	0xbe0e6f26	-0.13909587
201	0x3b85e65a	0.004086298
202	0xbda2619b	-0.07928773
203	0x3dc85674	0.097821146
204	0xbcb95930	-0.022625536
205	0xbc874b8c	-0.016515516
206	0xbd44262b	-0.047887962
207	0xbc15b3d0	-0.009137109
208	0xbb6d558c	-0.003621432
209	0xbe0413f6	-0.1289824
210	0x3e14fc52	0.14549378
211	0x3d2f565e	0.042806976
212	0xbe04fb34	-0.12986451
213	0x3c6a74ec	0.014310103
214	0xbe0f8b4c	-0.14017981
215	0xbd4cf91d	-0.05004226
216	0xbdcca71a	-0.099928096
217	0xbda7ff6c	-0.08203015
218	0xbde59cc2	-0.1121154
219	0xbda5238f	-0.08063423
220	0xbcfaa7ad	-0.030597532
221	0xbe48abff	-0.19596861
222	0x3ddc2942	0.10750057
223	0x3e04f1f9	0.1298293
224	0x3dcb8492	0.09937395
225	0xbdca7e1e	-0.09887336
226	0x3dca22bc	0.09869906
227	0xbe28c7f8	-0.16482532
228	0xbe3ea4e0	-0.18617582
229	0xbc26b417	-0.010174773
230	0x3c9911cb	0.018685242
231	0xbd02774c	-0.03185205
232	0x3dca0d41	0.09865809
233	0xbe09b751	-0.13448836
234	0xbdf2a5b0	-0.11848009
235	0xbd8a33bb	-0.06748148
236	0xbdf494eb	-0.11942466
237	0xbe140052	-0.14453247
238	0x3e06d1a2	0.13165906
239	0x3a7345c8	0.00092801126
240	0xbd0323c3	-0.032016527
241	0xbdaa74b7	-0.08323043
242	0x3daa6103	0.08319285
243	0xbda5f88a	-0.08104046
244	0x3db54819	0.08851642
245	0x3bf8ec17	0.0075965035
246	0x3dd2235e	0.10260652
247	0xbd854294	-0.065068394
248	0x3e062057	0.13098274
249	0x3d8214ae	0.063516006
250	0x3d8c636b	0.068549
251	0x3d796e2e	0.06089609
252	0xbdcb8229	-0.099369355
253	0x3cfd16e3	0.030894702
254	0xbdb7133b	-0.08939215
255	0x3d53ba8f	0.051691588

rnn.rnn.weight_hh_l0 f4 [96, 32]
0	0x3da4c1b5	0.08044759
1	0x3c8dddde	0.017317709
2	0x3afdf7a9	0.0019376177
3	0x3d4d77db	0.05016313
4	0xbe00a2d3	-0.12562113
5	0x3d250cf4	0.040295556
6	0x3e00ae45	0.12566479
7	0x3e3309fa	0.17484275
8	0x3db67fa6	0.08911066
9	0xbc582ab0	-0.013193771
10	0x3e50c8a1	0.20389034
11	0x3c914a1e	0.017735537
12	0x3e4078a7	0.18796025
13	0xbd025368	-0.031817824
14	0xbdb5b03b	-0.08871504
15	0x3dc5c7e8	0.0965727
16	0x3d0fc34d	0.035098363
17	0xbd4fbed6	-0.050719105
18	0x3bddfe65	0.006774711
19	0x3e0326d8	0.12807786
20	0x3e285e23	0.1644216
21	0xbe0897f8	-0.13339221
22	0xbd47ca93	-0.048777174
23	0xbd304cd8	-0.043042034
24	0xbca7a91f	-0.020466385
25	0xbd4e3bb7	-0.050349917
26	0xbdf77f50	-0.1208483
27	0x3e38e9a0	0.18057871
28	0x3da0a926	0.078447625
29	0x3ddee44c	0.10883388
30	0x3d9fb1b0	0.07797563
31	0xbd8b0eaf	-0.0678991
32	0xbe3fe336	-0.18739018
33	0x3d123dc2	0.035703428
34	0xbe080a72	-0.13285235
35	0x3d8a7b1a	0.06761761
36	0x3dd56e94	0.10421482
37	0x3db4ded4	0.088315636
38	0x3d78ca9e	0.060740106
39	0xbdbfdbb0	-0.09368074
40	0xbd418bc7	-0.047252443
41	0xbd957aa2	-0.07298781
42	0xbd4176ce	-0.04723244
43	0xbd81c09d	-0.06335566
44	0xbe110a44	-0.14164072
45	0x3d855c67	0.06511765
46	0xbe6a517d	-0.22882648
47	0xbd857c39	-0.06517834
48	0xbe4df6d8	-0.20113695
49	0xbc1df89e	-0.0096417945
50	0xbcb6e609	-0.022326486
51	0x3d7a95ab	0.06117789
52	0x3d6cfb74	0.057856992
53	0x3ddf353b	0.10898825
54	0x3ceaf5ab	0.028681597
55	0xbe00400f	-0.12524436
56	0xbd4ba5b6	-0.04971858
57	0x3dbf8c50	0.09352934
58	0xbd93fe32	-0.07226218
59	0xbd814ce4	-0.06313494
60	0x3cc75b9f	0.02433568
61	0x3ddd0ef8	0.10793871
62	0x3e3cb8da	0.1842989
63	0xbdc039db	-0.09386035
64	0x3dd1a0ee	0.10235773
65	0xbd51ba63	-0.051203143
66	0x3e24a1d6	0.1607736
67	0x3dc07307	0.0939694
68	0xbdc57e73	-0.09643259
69	0xbdea4d73	-0.114405535
70	0x3d80400f	0.06262218
71	0x3dc3f06a	0.0956734
72	0x3d6399fa	0.055566765
73	0x3d505650	0.050863564
74	0xbdedd945	-0.116137065
75	0xbe3fa3af	-0.18714784
76	0xbdc92725	-0.09821919
77	0xbdcc8961	-0.099871404
78	0xbdaf193a	-0.085497335
79	0xbd083b38	-0.0332596
80	0xbdba7416	-0.09104173
81	0x3bccdec4	0.0062521417
82	0xba0bf208	-0.00053384947
83	0x3d34c12e	0.044129543
84	0xbd716e83	-0.058943283
85	0xbd6487aa	-0.05579344
86	0x3d077a16	0.033075415
87	0xbe1ece6e	-0.15508434
88	0x3c6d1dc5	0.01447243
89	0xbdfc79b3	-0.123279
90	0x3dbc7ecf	0.09203874
91	0x38da58ac	0.000104115665
92	0xbd2a6008	-0.04159549
93	0x3e346db4	0.17619973
94	0x3c6c13bc	0.014409002
95	0x3e14f322	0.14545873
96	0x3c461364	0.012089584
97	0x3d3962a4	0.045260087
98	0xbc4eee73	-0.012630093
99	0xbe1f9f2f	-0.15588067
100	0xbdbb4f4b	-0.09145983
101	0xbde9bb62	-0.114126936
102	0xbcf98ecf	-0.030463604
103	0x3df8802e	0.12133823
104	0x3c71af9f	0.014751344
105	0x3db6d64a	0.08927591
106	0xbe2976bb	-0.16549198
107	0xbcd89066	-0.026436042
108	0xbddf15a5	-0.108928
109	0x3d940c17	0.072288685
110	0xbdbce495	-0.09223286
111	0x3da159e6	0.07878475
112	0x3ce701cb	0.028199097
113	0x3ea6b1c5	0.32557502
114	0xbdac5bb4	-0.084159285
115	0x3d2f4663	0.042791735
116	0x3e5ec6db	0.21755545
117	0x3b48d282	0.003064305
118	0x3bc6ec04	0.0060706157
119	0xbd6a53d9	-0.05720887
120	0x3e166898	0.14688337
121	0x3d3d6a6f	0.04624408
122	0xbdb13f61	-0.08654667
123	0xbd29359a	-0.041310884
124	0x3e06b07e	0.13153264
125	0xbd46a9f5	-0.048501927
126	0x3dfaeb8c	0.12251958
127	0x3ca3c422	0.019990984
128	0xbd4ed8de	-0.05049979
129	0x3c231735	0.009954263
130	0xbd989ff9	-0.07452387
131	0x3dc7b9c4	0.09752229
132	0x3da595e9	0.08085234
133	0xbd2c81c7	-0.042115953
134	0x3da29467	0.07938462
135	0xbd5a9598	-0.05336532
136	0xbd9fcede	-0.07803129
137	0x3e5a53d3	0.21321039
138	0x3d18ca4f	0.03730231
139	0x3e209eaa	0.15685526
140	0xbd716899	-0.058937643
141	0xbd82bb6a	-0.06383403
142	0x3df8fb0b	0.12157258
143	0x3e3b4e51	0.18291594
144	0xbdc677de	-0.096908316
145	0x3d2927ea	0.04129783
146	0xbcc99932	-0.024609182
147	0x3cc62e79	0.024192082
148	0xbdcd1047	-0.1001287
149	0xbe68210d	-0.22668858
150	0x3e6c7b43	0.23093896
151	0x3e048473	0.1294115
152	0x3e27b6e2	0.16378358
153	0xbcdae62f	-0.026721088
154	0xbda54b89	-0.08071048
155	0x3e462c19	0.1935276
156	0x3d541b1f	0.051783677
157	0x3dd96719	0.106153674
158	0xbd4bffb2	-0.049804397
159	0x3e8e23d4	0.2776171
160	0x3e158fb8	0.14605606
161	0x3e4fdc4f	0.20298885
162	0xbe5848be	-0.21121499
163	0x3d8ac2e8	0.06775457
164	0x3cf7d576	0.030253153
165	0x3db67501	0.089090355
166	0x3d8ef1bc	0.06979701
167	0xbd377dea	-0.044797815
168	0x3d7c5240	0.061601877
169	0xbcf2ded9	-0.029647278
170	0xbccd4fbd	-0.025062436
171	0x3b3aa5c9	0.0028480163
172	0x3b5ea64b	0.003397363
173	0x3dbfcab1	0.09364832
174	0x3d9a5f98	0.07537764
175	0x3db853bb	0.09000345
176	0x3c23acc3	0.00998992
177	0x3d0d478f	0.03449207
178	0xbe141520	-0.14461184
179	0x3e63107d	0.22174259
180	0xbafb3a01	-0.0019167067
181	0xbd2fd8be	-0.04293131
182	0x3d4e11ea	0.050310053
183	0xbd23ad19	-0.03996
184	0x3d0c26a7	0.03421655
185	0xbd9148a3	-0.070939325
186	0x3d244676	0.04010626
187	0xbe1c13a1	-0.15241863
188	0xbd708660	-0.0587219
189	0xbd8600f0	-0.065431476
190	0x3c52397e	0.01283109
191	0xbd8a4fbc	-0.067534894
192	0x3b2eb33f	0.0026657132
193	0x3ca4d800	0.020122528
194	0xbb223048	-0.0024748016
195	0x3d2d984c	0.04238157
196	0xbd87ecc6	-0.06636958
197	0xbcdf77b5	-0.02727876
198	0x3e2d1105	0.16901024
199	0x3b16381a	0.0022921623
200	0x3d17bfff	0.037048336
201	0xbd9d2135	-0.07672349
202	0x3d7a18c1	0.061058763
203	0xbd89bd0c	-0.06725511
204	0xbd6e5f42	-0.058196314
205	0x3d95ee59	0.07320852
206	0x3db30d15	0.087427296
207	0xbe80fb06	-0.25191516
208	0x3cfdcab4	0.030980445
209	0x3e42693d	0.18985458
210	0x3dae8e92	0.08523287
211	0x3d928ff8	0.07156366
212	0xbe3ac2f3	-0.1823843
213	0x3e417fbf	0.18896388
214	0xbe322a17	-0.17398869
215	0x3d4225c1	0.047399286
216	0x3c9e33c5	0.019311795
217	0xbd9fc174	-0.0780057
218	0xbd37f42c	-0.044910595
219	0x3c26d3fb	0.010182376
220	0xbdfb9c1b	-0.12285634
221	0x3ce3053b	0.027712455
222	0xbdce0d51	-0.10061134
223	0xbe759bc0	-0.23985195
224	0xbd70eeeb	-0.0588216
225	0xbce40713	-0.027835405
226	0xbd575162	-0.052567847
227	0x3d6f4a2e	0.058420353
228	0xbdba51a7	-0.09097605
229	0xbdedbffd	-0.116088845
230	0x3c888296	0.01666383
231	0x3cdcbf49	0.02694668
232	0xbb6773e6	-0.0035316884
233	0x3ce05773	0.027385449
234	0xbc4693bb	-0.012120183
235	0xbb6365cc	-0.0034698127
236	0x3d560f73	0.052260827
237	0xbe192372	-0.14954928
238	0xbdd8f9a7	-0.105944924
239	0xbda50e43	-0.08059361
240	0x3e52915e	0.20563266
241	0xbd1c8f88	-0.03822282
242	0x3dc5a0c6	0.09649806
243	0x3dd1b534	0.1023964
244	0x3dfac15d	0.12243912
245	0x3cb2fa15	0.021847764
246	0x3d9cd648	0.076580584
247	0x3d463a1e	0.04839527
248	0x3d9dea18	0.077106655
249	0x3cc34eb0	0.023841232
250	0x3c8bdb39	0.017072307
251	0xbcdff53e	-0.02733862
252	0xbab5e79a	-0.0013878227
253	0x3c8f950a	0.017527122
254	0x3cba9069	0.022773938
255	0xbd08f14a	-0.033433236

rnn.rnn.bias_ih_l0 f4 [96]
0	0x36765d16	3.671104e-06
1	0xb76797e8	-1.3804041e-05
2	0xb8401763	-4.5798148e-05
3	0x38441a5b	4.6754587e-05
4	0xb77f7d01	-1.5228289e-05
5	0x385b9295	5.2350184e-05
6	0x382f06af	4.1729476e-05
7	0x37bb9d2c	2.2365326e-05
8	0xb7e05e6c	-2.674685e-05
9	0x38e774a4	0.000110366644
10	0xb805aa48	-3.1868258e-05
11	0xb7b652ae	-2.1734591e-05
12	0xb799c730	-1.8331775e-05
13	0xb884a298	-6.324536e-05
14	0x385d90a5	5.2825217e-05
15	0xb8e33f11	-0.000108359505
16	0x3795db97	1.7864439e-05
17	0x3813df57	3.5255533e-05
18	0xb8b91321	-8.8250505e-05
19	0x38815939	6.167818e-05
20	0x386dddec	5.6711884e-05
21	0xb7e9c529	-2.7867574e-05
22	0xb803726d	-3.13394e-05
23	0xb9074c1e	-0.00012902959
24	0xb8a8d617	-8.0507416e-05
25	0xb89cce4f	-7.477088e-05
26	0x3505add7	4.979933e-07
27	0xb89714c0	-7.204106e-05
28	0x3889f4cc	6.578266e-05
29	0x3722292b	9.665538e-06
30	0xb8b07ecc	-8.415952e-05
31	0xb7910c94	-1.7291204e-05
32	0x38e3b155	0.00010857234
33	0x375dde1a	1.32243385e-05
34	0xb811574d	-3.4652e-05
35	0x3864582d	5.4441556e-05
36	0xb7d2065d	-2.5036914e-05
37	0x38dc4e3c	0.0001050499
38	0xb8a526a5	-7.875011e-05
39	0xb9000ced	-0.00012211846
40	0xb81ead4b	-3.7831527e-05
41	0xb8fe035b	-0.00012112289
42	0xb913f815	-0.0001411143
43	0x380e6ae9	3.3955006e-05
44	0xb8623d8a	-5.393991e-05
45	0x37e1f671	2.6936848e-05
46	0x388068fc	6.1230705e-05
47	0x3910e964	0.00013819855
48	0xb7c4c960	-2.3458793e-05
49	0xb8f8a776	-0.000118567536
50	0x38ef743e	0.0001141806
51	0x390315dd	0.00012501278
52	0xb7ba13af	-2.2182094e-05
53	0xb84617a3	-4.7228892e-05
54	0x3905f4db	0.00012775084
55	0xb89d68e5	-7.5058815e-05
56	0xb86d278d	-5.6542038e-05
57	0x38663ad1	5.489105e-05
58	0xb856ff8c	-5.1259573e-05
59	0xb7ee1c48	-2.838498e-05
60	0xb8e057ba	-0.00010697493
61	0xb8814b1a	-6.165188e-05
62	0x390446f6	0.00012614936
63	0xb834f122	-4.3139917e-05
64	0xb9108a43	-0.00013784417
65	0x38b65ad4	8.695354e-05
66	0xb9172023	-0.00014412454
67	0x38fe7466	0.00012133345
68	0xb8ed739e	-0.00011322576
69	0xb90eefbf	-0.00013631488
70	0xb8cce177	-9.769474e-05
71	0x3917615e	0.00014436754
72	0x38f08431	0.000114687144
73	0xb917fb14	-0.00014494016
74	0xb85edbf8	-5.3133786e-05
75	0x38195228	3.6554557e-05
76	0xb8fd1f8d	-0.00012069857
77	0x391509b4	0.00014213362
78	0x390d78fe	0.00013491881
79	0xb90e2516	-0.00013555991
80	0xb79e40b8	-1.8865205e-05
81	0x3916d883	0.00014385772
82	0xb9179397	-0.00014455464
83	0x39155535	0.0001424149
84	0xb91341d3	-0.00014043534
85	0xb90d098b	-0.00013450363
86	0xb9180807	-0.0001449884
87	0xb91a12ce	-0.0001469359
88	0x3914759d	0.00014158194
89	0x390d9829	0.00013503492
90	0xb90be651	-0.00013341873
91	0x390984bb	0.00013114784
92	0x391922e7	0.00014604219
93	0xb8c1edda	-9.2472605e-05
94	0x390f64ff	0.00013675167
95	0xb8ac8478	-8.226273e-05

rnn.rnn.bias_hh_l0 f4 [96]
0	0x36765d16	3.671104e-06
1	0xb76797e8	-1.3804041e-05
2	0xb8401763	-4.5798148e-05
3	0x38441a5b	4.6754587e-05
4	0xb77f7d01	-1.5228289e-05
5	0x385b9295	5.2350184e-05
6	0x382f06af	4.1729476e-05
7	0x37bb9d2c	2.2365326e-05
8	0xb7e05e6c	-2.674685e-05
9	0x38e774a4	0.000110366644
10	0xb805aa48	-3.1868258e-05
11	0xb7b652ae	-2.1734591e-05
12	0xb799c730	-1.8331775e-05
13	0xb884a298	-6.324536e-05
14	0x385d90a5	5.2825217e-05
15	0xb8e33f11	-0.000108359505
16	0x3795db97	1.7864439e-05
17	0x3813df57	3.5255533e-05
18	0xb8b91321	-8.8250505e-05
19	0x38815939	6.167818e-05
20	0x386dddec	5.6711884e-05
21	0xb7e9c529	-2.7867574e-05
22	0xb803726d	-3.13394e-05
23	0xb9074c1e	-0.00012902959
24	0xb8a8d617	-8.0507416e-05
25	0xb89cce4f	-7.477088e-05
26	0x3505add7	4.979933e-07
27	0xb89714c0	-7.204106e-05
28	0x3889f4cc	6.578266e-05
29	0x3722292b	9.665538e-06
30	0xb8b07ecc	-8.415952e-05
31	0xb7910c94	-1.7291204e-05
32	0x38e3b155	0.00010857234
33	0x375dde1a	1.32243385e-05
34	0xb811574d	-3.4652e-05
35	0x3864582d	5.4441556e-05
36	0xb7d2065d	-2.5036914e-05
37	0x38dc4e3c	0.0001050499
38	0xb8a526a5	-7.875011e-05
39	0xb9000ced	-0.00012211846
40	0xb81ead4b	-3.7831527e-05
41	0xb8fe035b	-0.00012112289
42	0xb913f815	-0.0001411143
43	0x380e6ae9	3.3955006e-05
44	0xb8623d8a	-5.393991e-05
45	0x37e1f671	2.6936848e-05
46	0x388068fc	6.1230705e-05
47	0x3910e964	0.00013819855
48	0xb7c4c960	-2.3458793e-05
49	0xb8f8a776	-0.000118567536
50	0x38ef743e	0.0001141806
51	0x390315dd	0.00012501278
52	0xb7ba13af	-2.2182094e-05
53	0xb84617a3	-4.7228892e-05
54	0x3905f4db	0.00012775084
55	0xb89d68e5	-7.5058815e-05
56	0xb86d278d	-5.6542038e-05
57	0x38663ad1	5.489105e-05
58	0xb856ff8c	-5.1259573e-05
59	0xb7ee1c48	-2.838498e-05
60	0xb8e057ba	-0.00010697493
61	0xb8814b1a	-6.165188e-05
62	0x390446f6	0.00012614936
63	0xb834f122	-4.3139917e-05
64	0xb90bb58e	-0.00013323707
65	0x389bffe8	7.438642e-05
66	0xb915094e	-0.00014213214
67	0x38f15579	0.00011507696
68	0xb8d1c2c4	-0.000100021745
69	0xb909c917	-0.0001314025
70	0xb8921ad4	-6.96682e-05
71	0x39133efe	0.00014042479
72	0x38da31d7	0.000104043334
73	0xb91162cb	-0.00013865081
74	0xb9007de4	-0.00012253929
75	0x38c4050f	9.3469505e-05
76	0xb8f9f212	-0.00011918334
77	0x390d1ed1	0.00013458288
78	0x3863b1e9	5.428671e-05
79	0xb90c97ef	-0.0001340804
80	0x3591af5c	1.0854378e-06
81	0x39147412	0.0001415762
82	0xb9142ce7	-0.00014131107
83	0x3910dfe7	0.0001381632
84	0xb90e41a9	-0.00013566636
85	0xb902cda4	-0.00012474373
86	0xb910d1d4	-0.00013811077
87	0xb918b699	-0.00014563873
88	0x3910b447	0.00013800069
89	0x3903e47b	0.00012578249
90	0xb9006512	-0.00012244683
91	0x38fee240	0.00012153806
92	0x39171ec6	0.00014411946
93	0xb8daa0e9	-0.00010425022
94	0x390b78b0	0.00013301033
95	0xb8a1286c	-7.6846074e-05

rnn.norm.weight f4 [32]
0	0x3f7ffcde	0.9999522
1	0x3f7ffbd8	0.9999366
2	0x3f7ff7df	0.99987596
3	0x3f7ff685	0.99985534
4	0x3f800048	1.0000086
5	0x3f7ff806	0.9998783
6	0x3f800420	1.0001259
7	0x3f80047a	1.0001366
8	0x3f8002d4	1.0000863
9	0x3f8004b9	1.0001441
10	0x3f8004a3	1.0001415
11	0x3f8003dd	1.0001179
12	0x3f7ff713	0.9998638
13	0x3f7ffc76	0.999946
14	0x3f8004a2	1.0001414
15	0x3f7ff703	0.99986285
16	0x3f7ffaeb	0.99992245
17	0x3f7ff8a7	0.9998879
18	0x3f80044f	1.0001315
19	0x3f7ff77b	0.99987
20	0x3f8003dd	1.0001179
21	0x3f800402	1.0001223
22	0x3f8002f3	1.00009
23	0x3f7ff7b3	0.99987334
24	0x3f7ffb05	0.999924
25	0x3f7ff99f	0.99990267
26	0x3f7ffac8	0.99992037
27	0x3f8002e8	1.0000887
28	0x3f800334	1.0000978
29	0x3f800010	1.0000019
30	0x3f7ff6b8	0.9998584
31	0x3f800257	1.0000714

rnn.norm.bias f4 [32]
0	0xb90f1c5c	-0.00013648107
1	0xb70e53e9	-8.483396e-06
2	0xb9111528	-0.00013836159
3	0x39135b35	0.0001405299
4	0x3863511b	5.4196553e-05
5	0xb9089f8d	-0.00013029408
6	0x38fc55cc	0.00012032277
7	0x39127633	0.00013967678
8	0x38da806c	0.000104189705
9	0xb915cf40	-0.00014286954
10	0x3907c515	0.00012948022
11	0x38f00026	0.000114441194
12	0xb90a9486	-0.00013216035
13	0x39139c65	0.00014077274
14	0x391423fb	0.00014127784
15	0xb9134440	-0.00014044438
16	0x38fa40e7	0.00011933018
17	0x3910bfec	0.00013804407
18	0xb9152fda	-0.00014227573
19	0x3911cfa0	0.00013905624
20	0xb90c72fe	-0.00013394278
21	0xb90aa783	-0.00013223109
22	0xb9149662	-0.00014170402
23	0xb9150ea0	-0.00014215196
24	0x390f9473	0.00013692844
25	0x38a4e4ff	7.862783e-05
26	0xb8587e59	-5.1616084e-05
27	0x38e29e25	0.000108059765
28	0x3915ff20	0.00014304789
29	0x389e2944	7.5417134e-05
30	0x3916179a	0.00014313907
31	0x380070f0	3.062276e-05
