mappo/critic_agent0.pt (torch, 54442 bytes, 21 tensors)

base.feature_norm.weight f4 [94]
0	0x3f7ff643	0.9998514
1	0x3f8004e3	1.0001491
2	0x3f8003a5	1.0001112
3	0x3f7ff848	0.9998822
4	0x3f7ff636	0.99985063
5	0x3f800488	1.0001383
6	0x3f8004e0	1.0001488
7	0x3f8000c5	1.0000235
8	0x3f7ff634	0.9998505
9	0x3f7ff662	0.99985325
10	0x3f8004eb	1.0001501
11	0x3f8004ea	1.00015
12	0x3f8004d6	1.0001476
13	0x3f8004c3	1.0001453
14	0x3f8004d2	1.0001471
15	0x3f80049c	1.0001407
16	0x3f7ff66f	0.999854
17	0x3f8004e4	1.0001493
18	0x3f8004c6	1.0001457
19	0x3f7fff52	0.9999896
20	0x3f7ff690	0.999856
21	0x3f8004eb	1.0001501
22	0x3f7ff648	0.9998517
23	0x3f8004eb	1.0001501
24	0x3f800478	1.0001364
25	0x3f8004e8	1.0001497
26	0x3f8004d3	1.0001472
27	0x3f80045a	1.0001328
28	0x3f7ff65f	0.9998531
29	0x3f8004e9	1.0001498
30	0x3f8004d2	1.0001471
31	0x3f7ff637	0.9998507
32	0x3f7ff638	0.99985075
33	0x3f7ff821	0.9998799
34	0x3f7ff633	0.99985045
35	0x3f8004e5	1.0001494
36	0x3f7ff62a	0.9998499
37	0x3f7fff88	0.99999285
38	0x3f7ff725	0.9998649
39	0x3f7ff64a	0.9998518
40	0x3f80047a	1.0001366
41	0x3f7ff686	0.9998554
42	0x3f7ff6fc	0.99986243
43	0x3f8004e6	1.0001495
44	0x3f7ff647	0.99985164
45	0x3f800432	1.000128
46	0x3f8004e8	1.0001497
47	0x3f8004ef	1.0001506
48	0x3f7ff65a	0.9998528
49	0x3f7ffa78	0.9999156
50	0x3f800477	1.0001363
51	0x3f8004ce	1.0001466
52	0x3f8004d4	1.0001473
53	0x3f8004ea	1.00015
54	0x3f8003c6	1.0001152
55	0x3f800474	1.0001359
56	0x3f800436	1.0001285
57	0x3f7ff648	0.9998517
58	0x3f8004db	1.0001482
59	0x3f8004de	1.0001485
60	0x3f7ff635	0.9998506
61	0x3f800193	1.000048
62	0x3f7ff9bd	0.99990445
63	0x3f7ff61a	0.99984896
64	0x3f8003b9	1.0001136
65	0x3f7ff734	0.9998658
66	0x3f7ff691	0.99985605
67	0x3f7ff630	0.9998503
68	0x3f7ff6e5	0.99986106
69	0x3f7ff64c	0.99985194
70	0x3f8004f5	1.0001513
71	0x3f8004e0	1.0001488
72	0x3f7ff632	0.9998504
73	0x3f7ff638	0.99985075
74	0x3f7ff637	0.9998507
75	0x3f8002e1	1.0000879
76	0x3f8003da	1.0001175
77	0x3f800059	1.0000106
78	0x3f8004e2	1.000149
79	0x3f8003e7	1.0001191
80	0x3f8004a6	1.0001419
81	0x3f8004b2	1.0001433
82	0x3f8004d4	1.0001473
83	0x3f7ff618	0.99984884
84	0x3f7ff648	0.9998517
85	0x3f8003c4	1.0001149
86	0x3f7ffbe0	0.99993706
87	0x3f7ff773	0.9998695
88	0x3f7ff625	0.9998496
89	0x3f7ff66b	0.9998538
90	0x3f7ff856	0.99988306
91	0x3f8003ae	1.0001123
92	0x3f7ff8a4	0.9998877
93	0x3f7ff675	0.9998544

base.feature_norm.bias f4 [94]
0	0xb91cda23	-0.00014958582
1	0x391c93da	0.00014932398
2	0xb91c56fe	-0.00014909726
3	0x3918d6ef	0.00014575919
4	0x391ca06a	0.00014937078
5	0xb9180970	-0.00014499365
6	0xb91b1f9d	-0.00014793729
7	0xb91c025a	-0.00014878195
8	0x391df099	0.00015062316
9	0x3919a812	0.00014653828
10	0xb91cfd94	-0.00014971785
11	0xb91cd0c7	-0.00014955095
12	0xb91b4742	-0.00014808498
13	0xb91b5c46	-0.00014816326
14	0xb91b0632	-0.0001478426
15	0xb90de532	-0.0001353219
16	0x391791d0	0.00014454802
17	0xb918e973	-0.00014582816
18	0xb894d883	-7.0975184e-05
19	0xb88ee10d	-6.8130066e-05
20	0x391eb91f	0.00015137017
21	0xb91d5f61	-0.00015008218
22	0x391b464e	0.00014808142
23	0xb91d1cd2	-0.00014983423
24	0x3901c984	0.00012377469
25	0xb91bf808	-0.00014874351
26	0xb91a2e91	-0.00014703932
27	0xb9108479	-0.0001378226
28	0x3918333b	0.00014514934
29	0xb91ced10	-0.00014965632
30	0xb917c8d8	-0.00014475302
31	0x391b641a	0.00014819243
32	0x391c4095	0.00014901378
33	0x38434581	4.6556353e-05
34	0x391d040f	0.00014974199
35	0xb91c4386	-0.00014902474
36	0x391d2a93	0.00014988547
37	0xb91c3d3a	-0.00014900128
38	0x3824a3a3	3.9253046e-05
39	0x391b2f72	0.00014799627
40	0x391a2130	0.00014698948
41	0x3917d3c9	0.00014479378
42	0x391d40d4	0.00014996837
43	0xb91b20f0	-0.00014794222
44	0x391c743a	0.00014920617
45	0xb917b65f	-0.0001446842
46	0xb91c9a48	-0.00014934794
47	0x391d0c31	0.00014977228
48	0xb919829f	-0.00014639877
49	0xb91b4e8a	-0.0001481121
50	0xb8159d90	-3.567111e-05
51	0xb91befad	-0.00014871238
52	0xb91b7cac	-0.00014828396
53	0xb91c8fa9	-0.00014930837
54	0xb912b357	-0.00013990454
55	0xb91420f1	-0.00014126652
56	0x391cb881	0.00014946052
57	0x391b7ee2	0.0001482922
58	0xb91b9a53	-0.00014839442
59	0xb91b7f10	-0.00014829286
60	0x391c9f4b	0.0001493666
61	0xb9156e2d	-0.00014250791
62	0xb867f969	-5.5306973e-05
63	0x391e3330	0.00015087123
64	0x391bd3ae	0.00014860809
65	0x3916f299	0.0001439549
66	0x391bd3ba	0.00014860826
67	0x391cb467	0.00014944524
68	0x39188da1	0.0001454861
69	0x391ad93f	0.00014767515
70	0xb91d0598	-0.0001497477
71	0xb91b6c7e	-0.00014822368
72	0xb91cb26a	-0.00014943784
73	0x391c2183	0.00014889803
74	0x391d1fde	0.00014984558
75	0x36e382ae	6.7803403e-06
76	0xb91bebc1	-0.00014869777
77	0x37fc716f	3.0093563e-05
78	0xb91bdcdc	-0.00014864228
79	0xb91ab049	-0.00014752256
80	0xb91d3045	-0.00014990669
81	0xb91af4c6	-0.0001477777
82	0xb91a9f4b	-0.00014745926
83	0x391e5777	0.00015100637
84	0x391abb96	0.00014756466
85	0xb8d11b3d	-9.97097e-05
86	0xb9192cad	-0.0001460786
87	0x38f8013b	0.00011825791
88	0x391d9a95	0.00015030273
89	0x3917c6d3	0.0001447455
90	0x38b95edb	8.8391556e-05
91	0xb91d91f9	-0.00015027066
92	0x38fcb4aa	0.00012049948
93	0x3918dc10	0.0001457783

base.mlp.fc1.0.weight f4 [32, 94]
0	0x3dca43f4	0.09876242
1	0x3e4c71bb	0.1996526
2	0xbd889426	-0.06668882
3	0xbdee187d	-0.116257645
4	0xbdd76e2c	-0.105190605
5	0xbdd7882b	-0.10524019
6	0x3e0bb219	0.13642158
7	0x3e2f5027	0.1712042
8	0xbb8ceb3a	-0.004300502
9	0xbe12ef00	-0.14348984
10	0xbc3047bc	-0.01075929
11	0xbe5ae84b	-0.21377675
12	0xbda28bd5	-0.07936827
13	0x3dacac4c	0.084313005
14	0x3e25a410	0.16175866
15	0x3df944ee	0.121713504
16	0x3d04d22e	0.032427005
17	0xbdbf2f1d	-0.09335158
18	0xbebff579	-0.37491968
19	0xbd839580	-0.06424999
20	0xbd203efb	-0.039122563
21	0x3dee859f	0.1164658
22	0xbf01865b	-0.50595635
23	0xbda1e747	-0.07905441
24	0xbe540cf6	-0.20708069
25	0xbdda67c7	-0.10664325
26	0x3e3c010b	0.18359773
27	0x3df26737	0.11836093
28	0x3e6ea35f	0.23304509
29	0x3d6017b8	0.05471012
30	0x3e96ae4c	0.29429853
31	0x3e808524	0.25101578
32	0x3e7f4dd0	0.24932027
33	0xbec5268a	-0.38505965
34	0x3dabbff1	0.08386219
35	0x3dfe5618	0.12418765
36	0x3bb37365	0.0054764026
37	0xbe8afcc7	-0.2714598
38	0x3e809b2e	0.25118393
39	0x3de8b279	0.11362166
40	0x3ea88c2e	0.3291945
41	0x3e78cca7	0.24296819
42	0xbd6af4af	-0.057362255
43	0xbe28651e	-0.16444823
44	0x3d993181	0.07480145
45	0xbd26ccee	-0.04072278
46	0x3e6bef5a	0.23040524
47	0xbcc1a096	-0.023636144
48	0x3e032775	0.1280802
49	0xbda8e76f	-0.082472675
50	0x3d7616a2	0.060080178
51	0xbd65680f	-0.05600744
52	0x3d2bd916	0.041955076
53	0xbba8aef4	-0.005147809
54	0xbbdb1134	-0.0066854004
55	0xbd81e1f7	-0.063419275
56	0xbe6cbffe	-0.23120114
57	0x3de71f41	0.11285258
58	0xbe85af8e	-0.261105
59	0xbe4ac6c1	-0.19802381
60	0xbdd40454	-0.10352388
61	0x3cf68eb1	0.030097337
62	0xbe9a28c8	-0.3010924
63	0xbd6ed55e	-0.05830895
64	0xbdace19d	-0.0844147
65	0xbd15d63b	-0.03658126
66	0x3e45189e	0.19247672
67	0x3ba31e53	0.00497798
68	0xbe55fe46	-0.20897779
69	0x3d34ad66	0.044110678
70	0x3e446d28	0.19182265
71	0xbde480c2	-0.11157371
72	0x3e3759c3	0.17905335
73	0xbe437765	-0.19088514
74	0xbd3ecb69	-0.046580706
75	0xbe967f62	-0.2939406
76	0x3e57f7a8	0.21090567
77	0xbe0ce04c	-0.13757437
78	0xbc996382	-0.018724207
79	0xbdf7427f	-0.1207323
80	0x3ec4f241	0.38466075
81	0x3ddbea23	0.107380174
82	0x3d5e3e23	0.054258477
83	0xbe3892bd	-0.18024726
84	0x3e443f9d	0.19164892
85	0x3e3393eb	0.17536895
86	0x3e206802	0.15664676
87	0xbd99faed	-0.075185634
88	0x3dbcfb38	0.09227604
89	0x3e612b24	0.21989113
90	0xbe2299be	-0.1587896
91	0x3e2c23ec	0.16810578
92	0x3e04d258	0.12970865
93	0xbe27577d	-0.16341968
94	0x3d13ff07	0.036131885
95	0xbd386d7f	-0.0450263
96	0xbdd74a7d	-0.105122544
97	0xbde441fa	-0.111453965
98	0x3e2edad5	0.17075665
99	0xbea1ce8a	-0.3160289
100	0x3e05b2ce	0.1305649
101	0x3e5a3135	0.21307833
102	0xbdb96290	-0.090520024
103	0x3e85c321	0.26125434
104	0xbea9e490	-0.33182192
105	0xbc8d6471	-0.017259808
106	0xbd293410	-0.041309416
107	0xbec9f59c	-0.39445198
108	0xbea40f44	-0.32042897
109	0x3e512edf	0.20428036
110	0xbe00f23c	-0.12592405
111	0x3d88c1ca	0.06677587
112	0xbc075ce8	-0.008261897
113	0xbe41144a	-0.18855396
114	0xbe25a59e	-0.16176459
115	0x3d21f2b5	0.039538104
116	0x3dd4d9c6	0.103930995
117	0x3df9e94d	0.12202702
118	0xbadd8dfb	-0.0016903275
119	0x3eab6279	0.33473566
120	0xbe4dc4f2	-0.2009466
121	0x3dc7c5ed	0.09754548
122	0xbe5e08f2	-0.216831
123	0xbe81fc99	-0.2538803
124	0x3d8a610f	0.06756794
125	0xbe78a38a	-0.24281135
126	0xbc0a424b	-0.008438657
127	0xbcc2fa4b	-0.02380099
128	0x3dc653a0	0.09683919
129	0x3e115a06	0.14194497
130	0x3d8de9ac	0.06929335
131	0xbe765419	-0.24055518
132	0xbd67de65	-0.056608576
133	0xbe19edaf	-0.15032075
134	0xbd3621b6	-0.044465743
135	0x3e280a4b	0.16410176
136	0x3e1e9a80	0.15488625
137	0xbdfc23a2	-0.12311484
138	0xbe499f28	-0.1968962
139	0x3e5e7022	0.21722463
140	0xbd109de5	-0.03530683
141	0x3e5b37e1	0.21408035
142	0x3e855eb3	0.26048812
143	0xbb2f2422	-0.0026724418
144	0x3e4dd4aa	0.20100656
145	0xbdda0424	-0.10645321
146	0xbe397712	-0.18111828
147	0x3e092e30	0.13396525
148	0xbc915bd8	-0.01774399
149	0xbdbb25bc	-0.09138057
150	0xbb522389	-0.0032064638
151	0xbd2368b3	-0.03989477
152	0xbdecb433	-0.11557808
153	0xbe18fcd3	-0.14940195
154	0xbe570d3a	-0.2100114
155	0x3e80c6db	0.25151715
156	0x3e84e656	0.25956982
157	0x3e6493b4	0.2232197
158	0xbd9de4cd	-0.07709656
159	0x3df8799b	0.121325694
160	0x3b22d2bf	0.0024844853
161	0x3d7796bb	0.060446482
162	0xbd688886	-0.056770824
163	0xbdd2ceb1	-0.102933295
164	0xbdb3ab0a	-0.087728575
165	0x3e09beec	0.13451737
166	0xbde7b535	-0.113138594
167	0xbd2fef87	-0.04295304
168	0x3e9f8260	0.31154156
169	0x3d7c703e	0.06163048
170	0x3e10eff7	0.1415404
171	0xbea66356	-0.32497662
172	0x3db9b677	0.090680055
173	0x3df82e95	0.1211826
174	0x3da66ed0	0.081266046
175	0x3e618053	0.22021608
176	0xbeaae805	-0.33380142
177	0xbdc0fbb7	-0.09423011
178	0x3e73a557	0.23793541
179	0x3ed5d768	0.41765904
180	0x3d781b48	0.060572892
181	0x3e2339ad	0.1593997
182	0x3db66a86	0.089070365
183	0xbe89e03d	-0.26928893
184	0xbcfccd52	-0.030859623
185	0xbe039e10	-0.12853265
186	0x3c6aff63	0.0143431155
187	0xbd56ef5c	-0.052474365
188	0x3daf3d1a	0.08556576
189	0xbe2b2615	-0.16713746
190	0x3e48f361	0.19624092
191	0xbe8aeae9	-0.27132347
192	0xbe6a77dd	-0.22897287
193	0x3d70f988	0.05883172
194	0xbcd0872d	-0.025455082
195	0xbe869591	-0.26285985
196	0x3e9867e5	0.29766765
197	0xbe48b950	-0.19601941
198	0x3d85edb7	0.06539481
199	0x3d943568	0.07236749
200	0xbd374f5b	-0.044753414
201	0xbeadbbf5	-0.33932462
202	0x3c9eeed6	0.019400995
203	0xbe85db2d	-0.2614378
204	0x3edd6349	0.4323981
205	0x3e36835d	0.17823549
206	0x3ec9815f	0.39356515
207	0x3ebab405	0.3646547
208	0x3d790a3f	0.060800787
209	0x3d495d4c	0.04916124
210	0x3e1e0a46	0.15433607
211	0xbcd3b054	-0.025840916
212	0xbd45473b	-0.048163634
213	0x3e85330f	0.26015517
214	0x3e1102d2	0.14161232
215	0x3ea0b6d8	0.313895
216	0x3e07ef88	0.13274968
217	0x3e1f6ff2	0.15570047
218	0x3cbe5d78	0.023237929
219	0xbe26d255	-0.16291173
220	0xbe7d0f6c	-0.24712914
221	0xbc1cbd0a	-0.009566555
222	0xbdedcecc	-0.11611709
223	0x3e54db84	0.20786864
224	0xbe6ebd3b	-0.23314373
225	0xbdd0bd33	-0.10192337
226	0xbdc4ce63	-0.09609678
227	0xbdb494fa	-0.088174775
228	0x3deb1e0b	0.114803396
229	0x3baf9479	0.0053582755
230	0x3d8044cb	0.06263121
231	0xbd8a3f45	-0.06750349
232	0xbc2225a6	-0.009896671
233	0x3de6a003	0.112609886
234	0x3e8cb1be	0.27479357
235	0xbd93e8d4	-0.07222143
236	0xbc6f7082	-0.014614226
237	0x3d09fea9	0.03369013
238	0xbd2e4a3f	-0.042551275
239	0x3e110721	0.14162876
240	0xbebf9f74	-0.3742634
241	0x3e117c6d	0.14207621
242	0x3d54c993	0.05195005
243	0xbe2701d4	-0.16309291
244	0xbe477666	-0.19478759
245	0xbd9859f9	-0.07439036
246	0xbebdeb05	-0.37093368
247	0xbd9bffef	-0.07617175
248	0x3b3e7aa0	0.002906479
249	0x3cc6dad7	0.024274273
250	0x3d9c3b45	0.07628492
251	0xbdab1093	-0.08352771
252	0x3d8be251	0.06830276
253	0x3d70c735	0.05878373
254	0xbd8610c7	-0.06546169
255	0x3d698590	0.05701214

base.mlp.fc1.0.bias f4 [32]
0	0xb91fda54	-0.00015244755
1	0x391d51a3	0.00015003099
2	0xb91b1b91	-0.00014792221
3	0xb8b1bbf7	-8.475029e-05
4	0xb91e71aa	-0.00015110397
5	0xb9126d86	-0.00013964446
6	0x391dc04d	0.00015044324
7	0x391a0431	0.00014688146
8	0x3906cd3a	0.00012855689
9	0x391a3172	0.00014705004
10	0xb91a2f2e	-0.0001470416
11	0x391ba8e1	0.00014844864
12	0xb91b3ebb	-0.00014805321
13	0x391c2a1f	0.0001489301
14	0x391a2881	0.00014701673
15	0xb91c2ca6	-0.00014893952
16	0xb91d9a83	-0.00015030247
17	0xb915a1fc	-0.00014270091
18	0x391ae7bf	0.00014772917
19	0xb911af81	-0.00013893658
20	0x391a67e2	0.00014725284
21	0x391c70a5	0.00014919283
22	0x389c624b	7.456968e-05
23	0xb91ca69a	-0.00014939383
24	0xb91c025f	-0.00014878203
25	0xb8121a56	-3.483364e-05
26	0xb919b38d	-0.00014658105
27	0xb90d1dfa	-0.00013457975
28	0x391b23ab	0.00014795239
29	0xb91c14d3	-0.00014885077
30	0x3903b1cb	0.00012559367
31	0x39176f40	0.00014441926

base.mlp.fc1.2.weight f4 [32]
0	0x3f7ff633	0.99985045
1	0x3f8004f5	1.0001513
2	0x3f8004db	1.0001482
3	0x3f800494	1.0001397
4	0x3f7ff656	0.99985254
5	0x3f7ff660	0.99985313
6	0x3f8004eb	1.0001501
7	0x3f800418	1.0001249
8	0x3f800403	1.0001224
9	0x3f7ff64a	0.9998518
10	0x3f7ff668	0.9998536
11	0x3f8004c8	1.0001459
12	0x3f7ff63e	0.9998511
13	0x3f7ffc62	0.9999448
14	0x3f7ff65f	0.9998531
15	0x3f7ff62e	0.99985015
16	0x3f8004b6	1.0001438
17	0x3f8004d5	1.0001475
18	0x3f7ff6a1	0.999857
19	0x3f8004dc	1.0001483
20	0x3f7ff645	0.9998515
21	0x3f7ff642	0.99985135
22	0x3f80049f	1.000141
23	0x3f7ff670	0.9998541
24	0x3f8004eb	1.0001501
25	0x3f7ffc5f	0.9999446
26	0x3f8004c0	1.000145
27	0x3f80048b	1.0001386
28	0x3f8004f2	1.0001509
29	0x3f8004bf	1.0001448
30	0x3f800344	1.0000997
31	0x3f7ff68d	0.9998558

base.mlp.fc1.2.bias f4 [32]
0	0xb91c9b25	-0.00014935115
1	0x391d375a	0.00014993307
2	0xb91ab6a8	-0.00014754629
3	0x39132bad	0.00014035283
4	0xb91cc52f	-0.00014950776
5	0x39178c54	0.00014452758
6	0x391d82ee	0.00015021462
7	0x391ae5e3	0.00014772224
8	0x390fe658	0.00013723352
9	0x391c5e1c	0.00014912378
10	0xb9172dd5	-0.00014417556
11	0x391c265b	0.00014891608
12	0xb91c04d1	-0.00014879114
13	0x391d2e60	0.00014989963
14	0x391a041c	0.00014688115
15	0xb91d3125	-0.00014990995
16	0xb91e0623	-0.0001507034
17	0x389aa25a	7.3735326e-05
18	0x39197670	0.00014635338
19	0x390df7db	0.00013539141
20	0x391c7511	0.0001492093
21	0x391cd17e	0.00014955361
22	0xb9111b8f	-0.00013838544
23	0xb91bf86a	-0.00014874493
24	0xb91cdfbe	-0.0001496067
25	0x391862f3	0.00014532711
26	0x3919909a	0.00014645085
27	0xb90dba5c	-0.00013516232
28	0x391dd910	0.00015053549
29	0xb9146945	-0.00014153596
30	0x3914c82d	0.00014188951
31	0x391c515c	0.00014907628

base.mlp.fc_h.0.weight f4 [32, 32]
0	0x3e04cf88	0.12969792
1	0xbeaa0e11	-0.33213857
2	0x3e8d5600	0.27604675
3	0x3f2cc1c4	0.6748316
4	0xbe4363f1	-0.19081093
5	0xbd84e6da	-0.06489344
6	0x3e5a95dd	0.21346231
7	0x3ed601ba	0.41798192
8	0x3e2e2839	0.17007531
9	0xbd83fab8	-0.06444305
10	0x3e4637a4	0.19357163
11	0xbe10774e	-0.14108011
12	0x3e4d3bd1	0.2004235
13	0xbd579950	-0.052636445
14	0x3dcbd668	0.09953004
15	0xbeac6318	-0.33669353
16	0x3d68efa4	0.056869164
17	0xbc8049be	-0.015660163
18	0x3f14e473	0.58161086
19	0xbe575636	-0.2102898
20	0x3cd16693	0.025561607
21	0x3a196653	0.00058517343
22	0x3c9d94c7	0.019235982
23	0x3cab40af	0.020904867
24	0xbda464fd	-0.080270745
25	0x3eb6a5ac	0.35673273
26	0x3d5cc3ad	0.05389755
27	0xbe6ad1a0	-0.22931528
28	0xbf3c64a4	-0.73591065
29	0xbeed7e48	-0.46385407
30	0x3d979222	0.074009195
31	0x3f03333d	0.5125006
32	0xbe9a2beb	-0.30111632
33	0xbe800161	-0.25001052
34	0xbe775029	-0.24151672
35	0xbeeb3e45	-0.45945945
36	0xbedfacec	-0.43686616
37	0xbddcded8	-0.107846916
38	0xbd461281	-0.04835749
39	0xbdf806e8	-0.12110692
40	0xbc4c2859	-0.0124607915
41	0xbe91aa44	-0.28450215
42	0xbe4805bf	-0.19533442
43	0x3e3a5ea0	0.18200159
44	0xbcfab474	-0.030603625
45	0xbe1d102c	-0.153382
46	0xbeaa819c	-0.3330201
47	0x3d3b26e1	0.045691375
48	0xbe49a339	-0.19691171
49	0x3df5db60	0.12004733
50	0x3cc8eb43	0.024526244
51	0xbe61f4fb	-0.22066109
52	0xbef8c353	-0.4858652
53	0xbea01d18	-0.31272197
54	0xbf224420	-0.633852
55	0xbe35848b	-0.17726342
56	0x3f28008a	0.6562582
57	0x3dd1d7c9	0.10246236
58	0xbee311cc	-0.44349515
59	0xbd7a9d3a	-0.0611851
60	0xbea25aae	-0.31709808
61	0xbef120a2	-0.4709521
62	0x3d46984c	0.048485085
63	0xbdccfa75	-0.100087084
64	0x3ea4f102	0.32215124
65	0xbd92d9d5	-0.071704544
66	0xbe87b154	-0.26502478
67	0x3e93b7ab	0.28851065
68	0xbd06b28d	-0.032885123
69	0xbe46c467	-0.19410859
70	0x3e3d73d7	0.1850122
71	0x3dbc3d14	0.09191337
72	0xbe390232	-0.18067244
73	0x3e7f0e84	0.24907881
74	0x3e8a4834	0.27008212
75	0x3f21e122	0.6323415
76	0xbc7fbc71	-0.015608893
77	0xbe890597	-0.26762077
78	0xbe8c2663	-0.27373037
79	0xbdd787dd	-0.10523961
80	0x3de0a731	0.10969389
81	0x3f31e274	0.69486165
82	0xbea61328	-0.3243649
83	0xbbb674fd	-0.0055681453
84	0x3e764fdd	0.24053903
85	0xbe1531e7	-0.14569817
86	0x3ecd4d4a	0.4009803
87	0xbd872e0d	-0.0660058
88	0x3ec2dc6b	0.3805879
89	0x3e843aa7	0.25825998
90	0xbdca5579	-0.09879584
91	0x3ed0a6f7	0.40752384
92	0xbee50e34	-0.447374
93	0x3ec5e090	0.3864789
94	0xbe77ad4b	-0.241872
95	0xbe865a8b	-0.26240954
96	0x3e6c5818	0.2308048
97	0x3d9008fc	0.07032964
98	0xbeec3ba8	-0.46139264
99	0x3e3fe2f8	0.18738925
100	0xbef19ecc	-0.47191465
101	0x3e06f9f0	0.13181281
102	0xbd6fc2fa	-0.058535554
103	0xbec24a3f	-0.3794727
104	0xbda0dec0	-0.07854986
105	0x3f4e633b	0.80620164
106	0x3e21f1a3	0.15814833
107	0x3c2501cc	0.010071229
108	0x3e9727ae	0.2952246
109	0xbd504697	-0.05084857
110	0x3e261694	0.1621955
111	0xbe2e348e	-0.17012236
112	0x3d9912ea	0.07474311
113	0xbdf8da89	-0.12151057
114	0x3cd3a771	0.025836678
115	0x3db0bcd0	0.08629763
116	0x3e48096b	0.19534843
117	0x3eab5172	0.33460575
118	0xbea34f33	-0.31896362
119	0xbeb92aa9	-0.3616536
120	0xbd1f72b2	-0.03892774
121	0x3eebf6af	0.46086642
122	0xbe3de14b	-0.18542974
123	0xbd70581c	-0.058677778
124	0x3f089d71	0.53365237
125	0xbee0f7b4	-0.43938982
126	0xbeac134f	-0.3360848
127	0x3d8420d9	0.06451578
128	0xbec6351b	-0.3871239
129	0xbf2846ab	-0.6573283
130	0xbb772739	-0.0037712588
131	0xbe070e3f	-0.13189028
132	0xbed16cf4	-0.40903437
133	0xbdcbe0c4	-0.0995498
134	0xbd6f654e	-0.05844622
135	0xbeab15fa	-0.33415204
136	0xbefecb47	-0.49764463
137	0xbe388361	-0.18018867
138	0xbe11eef1	-0.14251305
139	0x3e964d9e	0.29356092
140	0x3e80e360	0.25173473
141	0xbcf361b5	-0.029709676
142	0xbe9d235b	-0.30691037
143	0x3d56c1d6	0.05243095
144	0xbdced5fb	-0.10099407
145	0xbeef165f	-0.46696755
146	0x3ce1539d	0.02750569
147	0xbd2e6a13	-0.04258163
148	0x3f1d39d4	0.61416364
149	0x3eec1f49	0.4611762
150	0x3eea468e	0.45756954
151	0x3d1a287f	0.037636276
152	0x3dc88227	0.097904496
153	0x3be1f3bc	0.0068955105
154	0x3d9c75c7	0.07639652
155	0x3d91dfc3	0.07122757
156	0x3c765bf6	0.015036574
157	0x3e107a04	0.14109045
158	0x3ee1cec2	0.44103056
159	0x3e890cad	0.26767483
160	0x3dbc5625	0.09196118
161	0x3c497887	0.012296802
162	0xbd65f9ee	-0.056146555
163	0x3d957b0d	0.07298861
164	0xbc675b97	-0.014120958
165	0x3e2a7506	0.16646203
166	0xbea89492	-0.3292585
167	0xbe781ff7	-0.24230944
168	0x3f1433db	0.57891625
169	0xbdbd16b1	-0.09232844
170	0x3e771abe	0.24131295
171	0xbd8e4cd9	-0.06948251
172	0xbeb3f06c	-0.35144365
173	0xbe232e8b	-0.15935723
174	0x3f000ad0	0.500165
175	0xbe1c32a9	-0.152537
176	0xbcd50bad	-0.026006544
177	0x3c349e39	0.011024051
178	0xbdd2c6a1	-0.10291792
179	0xbe22cd02	-0.15898517
180	0x3f3ae6b5	0.7300828
181	0x3cd40936	0.025883298
182	0x3c9554d5	0.018228928
183	0x3ec9a7e8	0.39385915
184	0x3f4d87aa	0.8028513
185	0xbef1723d	-0.4715747
186	0xbe4fb6bc	-0.20284551
187	0xbe676eea	-0.22600904
188	0x3c1fe9c1	0.009760321
189	0xbdc3dd0b	-0.09563645
190	0xbd9377b2	-0.072005644
191	0x3e456a31	0.1927879
192	0xbee2fea6	-0.44334906
193	0x3e489554	0.19588214
194	0xbe8c5b71	-0.27413514
195	0x3e9eed1a	0.3104027
196	0xbf18b673	-0.59653395
197	0x3e10c059	0.14135875
198	0xbef8c17f	-0.48585126
199	0x3e6411ce	0.22272417
200	0x3cfe5fe5	0.031051585
201	0x3ed1f39d	0.41006175
202	0xbe60eb4c	-0.21964759
203	0xbebe4c2b	-0.37167487
204	0xbe004650	-0.12526822
205	0xbe965469	-0.29361275
206	0xbe1b8934	-0.15189058
207	0xbe311b4a	-0.17295566
208	0x3dfce352	0.123480454
209	0x3e9f7aff	0.31148526
210	0xbea159d2	-0.3151384
211	0x3dbb173e	0.091352925
212	0xbecd775d	-0.4013013
213	0xba8049bd	-0.0009787601
214	0x3f044575	0.51668483
215	0x3dd82b63	0.1055515
216	0xbe574162	-0.21021035
217	0xbf072336	-0.527881
218	0xbdb3fb39	-0.08788151
219	0x3e0793e0	0.13240004
220	0xbddc1859	-0.107468314
221	0xbe4931bd	-0.1964788
222	0x3eaec889	0.3413737
223	0x3e23dae3	0.16001467
224	0xbedf2f1f	-0.43590638
225	0xbe287eec	-0.16454667
226	0x3e844c89	0.25839642
227	0xbdfc661d	-0.12324164
228	0x3c80e89d	0.015735919
229	0xbeb1cc21	-0.3472605
230	0xbd9ef4d4	-0.07761541
231	0x3e8d70c4	0.27625096
232	0x3e249033	0.16070633
233	0x3e628065	0.22119291
234	0x3ed3c5f4	0.41361964
235	0x3c3e0f8d	0.011600387
236	0x3e57efed	0.21087618
237	0xbf208083	-0.62696093
238	0x3c6edf20	0.014579564
239	0x3e71da09	0.2361833
240	0xbe6effd5	-0.2333978
241	0xbc34ca5d	-0.011034575
242	0xbf13e10c	-0.5776527
243	0xbe6e4ea7	-0.23272191
244	0x3e9ee8ec	0.3103708
245	0xbef19aa8	-0.47188306
246	0xbebbb996	-0.36665028
247	0xbe9ea686	-0.30986422
248	0xbe6bfa92	-0.23044804
249	0xbd2fc60e	-0.04291349
250	0x3f1266a2	0.57187855
251	0xbd25149c	-0.040302858
252	0x3e123b98	0.14280546
253	0xbc8dd430	-0.017313093
254	0xbe12cdb1	-0.14336278
255	0x3eb0d5e3	0.34538183

base.mlp.fc_h.0.bias f4 [32]
0	0x00000000	0.0
1	0x00000000	0.0
2	0x00000000	0.0
3	0x00000000	0.0
4	0x00000000	0.0
5	0x00000000	0.0
6	0x00000000	0.0
7	0x00000000	0.0
8	0x00000000	0.0
9	0x00000000	0.0
10	0x00000000	0.0
11	0x00000000	0.0
12	0x00000000	0.0
13	0x00000000	0.0
14	0x00000000	0.0
15	0x00000000	0.0
16	0x00000000	0.0
17	0x00000000	0.0
18	0x00000000	0.0
19	0x00000000	0.0
20	0x00000000	0.0
21	0x00000000	0.0
22	0x00000000	0.0
23	0x00000000	0.0
24	0x00000000	0.0
25	0x00000000	0.0
26	0x00000000	0.0
27	0x00000000	0.0
28	0x00000000	0.0
29	0x00000000	0.0
30	0x00000000	0.0
31	0x00000000	0.0

base.mlp.fc_h.2.weight f4 [32]
0	0x3f800000	1.0
1	0x3f800000	1.0
2	0x3f800000	1.0
3	0x3f800000	1.0
4	0x3f800000	1.0
5	0x3f800000	1.0
6	0x3f800000	1.0
7	0x3f800000	1.0
8	0x3f800000	1.0
9	0x3f800000	1.0
10	0x3f800000	1.0
11	0x3f800000	1.0
12	0x3f800000	1.0
13	0x3f800000	1.0
14	0x3f800000	1.0
15	0x3f800000	1.0
16	0x3f800000	1.0
17	0x3f800000	1.0
18	0x3f800000	1.0
19	0x3f800000	1.0
20	0x3f800000	1.0
21	0x3f800000	1.0
22	0x3f800000	1.0
23	0x3f800000	1.0
24	0x3f800000	1.0
25	0x3f800000	1.0
26	0x3f800000	1.0
27	0x3f800000	1.0
28	0x3f800000	1.0
29	0x3f800000	1.0
30	0x3f800000	1.0
31	0x3f800000	1.0

base.mlp.fc_h.2.bias f4 [32]
0	0x00000000	0.0
1	0x00000000	0.0
2	0x00000000	0.0
3	0x00000000	0.0
4	0x00000000	0.0
5	0x00000000	0.0
6	0x00000000	0.0
7	0x00000000	0.0
8	0x00000000	0.0
9	0x00000000	0.0
10	0x00000000	0.0
11	0x00000000	0.0
12	0x00000000	0.0
13	0x00000000	0.0
14	0x00000000	0.0
15	0x00000000	0.0
16	0x00000000	0.0
17	0x00000000	0.0
18	0x00000000	0.0
19	0x00000000	0.0
20	0x00000000	0.0
21	0x00000000	0.0
22	0x00000000	0.0
23	0x00000000	0.0
24	0x00000000	0.0
25	0x00000000	0.0
26	0x00000000	0.0
27	0x00000000	0.0
28	0x00000000	0.0
29	0x00000000	0.0
30	0x00000000	0.0
31	0x00000000	0.0

base.mlp.fc2.0.0.weight f4 [32, 32]
0	0x3e04f483	0.12983899
1	0xbeaa019d	-0.33204356
2	0x3e8d637a	0.27614957
3	0x3f2ccaef	0.6749715
4	0xbe433de1	-0.19066574
5	0xbd8531b6	-0.06503622
6	0x3e5abbf7	0.21360765
7	0x3ed5fee4	0.4179603
8	0x3e2e4dd7	0.17021881
9	0xbd844697	-0.064587764
10	0x3e4659dc	0.19370216
11	0xbe105394	-0.14094383
12	0x3e4d61ee	0.20056888
13	0xbd58220f	-0.052766856
14	0x3dcb89d5	0.09938399
15	0xbeac5038	-0.33654952
16	0x3d687170	0.056748807
17	0xbc816f8d	-0.015800262
18	0x3f14db56	0.5814718
19	0xbe57744e	-0.2104046
20	0x3cd03ded	0.025420154
21	0x3a369d38	0.00069661764
22	0x3c9c6756	0.019092243
23	0x3cac5826	0.021038126
24	0xbda4b068	-0.08041459
25	0x3eb6abe8	0.3567803
26	0x3d5d5e10	0.054044783
27	0xbe6af7c0	-0.22946072
28	0xbf3c5b20	-0.73576546
29	0xbeed912e	-0.46399826
30	0x3d97d985	0.074145354
31	0x3f0329e5	0.512358
32	0xbe9a3f5c	-0.30126464
33	0xbe801512	-0.25016075
34	0xbe772992	-0.24136952
35	0xbeeb51dc	-0.4596089
36	0xbedfc07c	-0.4370154
37	0xbddc9065	-0.107697286
38	0xbd46af96	-0.048507296
39	0xbdf7be35	-0.12096826
40	0xbc4e9c33	-0.012610483
41	0xbe9196b3	-0.28435287
42	0xbe482cc1	-0.19548322
43	0x3e3a37d1	0.18185355
44	0xbcfbed7e	-0.030752894
45	0xbe1ce911	-0.15323283
46	0xbeaa6e3a	-0.3328722
47	0x3d3a8998	0.045541376
48	0xbe497c4a	-0.19676319
49	0x3df6299f	0.12019657
50	0x3cca2499	0.024675654
51	0xbe621bdd	-0.22080941
52	0xbef8afc4	-0.485716
53	0xbea00ab4	-0.31258166
54	0xbf223a48	-0.6337018
55	0xbe35abb5	-0.17741282
56	0x3f280a49	0.65640694
57	0x3dd22668	0.10261232
58	0xbee32538	-0.44364333
59	0xbd79ffcf	-0.061034974
60	0xbea26e5e	-0.31724828
61	0xbef10d34	-0.47080386
62	0x3d45fe29	0.04833809
63	0xbdccac7b	-0.099938355
64	0x3ea4dd71	0.32200196
65	0xbd9327d1	-0.07185329
66	0xbe879fd6	-0.26489133
67	0x3e93a4ae	0.28836578
68	0xbd074783	-0.033027183
69	0xbe469e20	-0.19396257
70	0x3e3d4ce2	0.1848636
71	0x3dbbf086	0.091767356
72	0xbe392903	-0.18082051
73	0x3e7f35a2	0.24922803
74	0x3e8a34c6	0.26993388
75	0x3f21d767	0.632193
76	0xbc81111b	-0.015755227
77	0xbe88f28c	-0.2674755
78	0xbe8c12ec	-0.27358186
79	0xbdd7d4a8	-0.10538608
80	0x3de0f019	0.10983295
81	0x3f31ec36	0.69501054
82	0xbea5ffdc	-0.32421768
83	0xbbb899c4	-0.0056335647
84	0x3e76767e	0.24068639
85	0xbe152898	-0.14566267
86	0x3ecd604b	0.40112528
87	0xbd87764f	-0.066143624
88	0x3ec2f007	0.3807375
89	0x3e842912	0.25812584
90	0xbdca0885	-0.09864906
91	0x3ed0ba53	0.40767154
92	0xbee52195	-0.44752184
93	0x3ec5f35d	0.38662234
94	0xbe77ce0f	-0.24199699
95	0xbe864776	-0.26226395
96	0x3e6c7f4c	0.23095435
97	0x3d9057e7	0.07048016
98	0xbeec4f04	-0.46154034
99	0x3e400a49	0.18753923
100	0xbef18b65	-0.47176662
101	0x3e06d2ba	0.13166323
102	0xbd6f265a	-0.058386184
103	0xbec25c79	-0.37961176
104	0xbda090a7	-0.0784009
105	0x3f4e597a	0.8060528
106	0x3e221917	0.15829884
107	0x3c276df9	0.010219091
108	0x3e973b34	0.29537356
109	0xbd50e29d	-0.050997365
110	0x3e25ef65	0.16204603
111	0xbe2e0d56	-0.16997275
112	0x3d98c4f1	0.074594386
113	0xbdf927ee	-0.12165819
114	0x3cd26dff	0.025687216
115	0x3db10b25	0.08644704
116	0x3e47e26e	0.1951997
117	0x3eab3ddb	0.3344563
118	0xbea362d3	-0.31911334
119	0xbeb9170f	-0.36150405
120	0xbd200ffa	-0.039077736
121	0x3eec07a0	0.46099567
122	0xbe3dba54	-0.1852811
123	0xbd70f564	-0.058827773
124	0x3f08a743	0.5338022
125	0xbee10b1e	-0.43953794
126	0xbeabffe8	-0.33593678
127	0x3d83d2c6	0.06436686
128	0xbec621d6	-0.3869769
129	0xbf283d64	-0.65718675
130	0xbb70107f	-0.0036630926
131	0xbe06e720	-0.13174105
132	0xbed159a6	-0.4088871
133	0xbdcc2bca	-0.099692896
134	0xbd6ec761	-0.05829561
135	0xbeab28cc	-0.33429563
136	0xbefeb79f	-0.49749467
137	0xbe38aac5	-0.18033893
138	0xbe11c822	-0.14236501
139	0x3e9656d2	0.29363114
140	0x3e80f70c	0.25188482
141	0xbcf4304d	-0.029808188
142	0xbe9d3719	-0.307061
143	0x3d575f19	0.052580927
144	0xbdcf22f9	-0.101140924
145	0xbeef29f7	-0.46711704
146	0x3ce01ade	0.027356561
147	0xbd2df02c	-0.042465374
148	0x3f1d30f1	0.61402804
149	0x3eec2b44	0.4612676
150	0x3eea32c8	0.45741868
151	0x3d1ab814	0.037773207
152	0x3dc833c8	0.097755015
153	0x3bdd0799	0.0067452905
154	0x3d9cc4f4	0.07654753
155	0x3d9190b7	0.0710768
156	0x3c78d42d	0.015187305
157	0x3e1052ad	0.14094038
158	0x3ee1e207	0.44117758
159	0x3e88f921	0.2675257
160	0x3dbc0a86	0.09181695
161	0x3c4701f8	0.0121464655
162	0xbd6574af	-0.05601948
163	0x3d952c74	0.072838694
164	0xbc69c776	-0.014268747
165	0x3e2a9bb6	0.16660962
166	0xbea8a844	-0.32940876
167	0xbe781a9a	-0.24228898
168	0x3f142a0a	0.57876647
169	0xbdbcc8ca	-0.09217985
170	0x3e76f464	0.24116665
171	0xbd8e9533	-0.06962051
172	0xbeb40412	-0.35159355
173	0xbe230834	-0.15921098
174	0x3f001456	0.5003103
175	0xbe1c5a0d	-0.15268727
176	0xbcd3d3a4	-0.025857754
177	0x3c36fed1	0.011169151
178	0xbdd277ac	-0.10276732
179	0xbe22f374	-0.15913182
180	0x3f3af020	0.7302265
181	0x3cd52b76	0.0260217
182	0x3c9690bf	0.018379567
183	0x3ec995a9	0.39371994
184	0x3f4d9126	0.80299604
185	0xbef15eb1	-0.47142556
186	0xbe4fddaf	-0.2029941
187	0xbe674767	-0.22585832
188	0x3c1d6e54	0.009608824
189	0xbdc38f4a	-0.095488146
190	0xbd93c4ab	-0.07215246
191	0x3e459190	0.19293809
192	0xbee2ec03	-0.44320688
193	0x3e486eaf	0.19573472
194	0xbe8c47fe	-0.27398676
195	0x3e9ed998	0.31025386
196	0xbf18c03a	-0.59668314
197	0x3e10e787	0.1415082
198	0xbef8d4d9	-0.4859989
199	0x3e6436e5	0.22286566
200	0x3cfd2c62	0.030904952
201	0x3ed20504	0.41019452
202	0xbe60cdb9	-0.21953477
203	0xbebe5ca5	-0.37180057
204	0xbe006d7a	-0.12541762
205	0xbe964e7f	-0.29356763
206	0xbe1baba1	-0.1520219
207	0xbe31424a	-0.17310444
208	0x3dfd327b	0.12363144
209	0x3e9f6d28	0.31137967
210	0xbea1464c	-0.31498945
211	0x3dbac90f	0.0912038
212	0xbecd63c2	-0.40115172
213	0xba5a2b05	-0.00083224504
214	0x3f044f49	0.5168348
215	0x3dd7ddeb	0.10540374
216	0xbe575725	-0.21029337
217	0xbf071976	-0.52773225
218	0xbdb449e0	-0.08803153
219	0x3e07bb24	0.13254982
220	0xbddc6707	-0.107618384
221	0xbe490f1a	-0.19634667
222	0x3eaeb548	0.34122682
223	0x3e2401be	0.1601629
224	0xbedf4248	-0.43605256
225	0xbe28a648	-0.16469681
226	0x3e845f03	0.25853738
227	0xbdfcb390	-0.12338936
228	0x3c7f6620	0.015588313
229	0xbeb1b89f	-0.34711167
230	0xbd9f42da	-0.07776423
231	0x3e8d5e2c	0.2761091
232	0x3e2469c4	0.16055971
233	0x3e62a73d	0.22134109
234	0x3ed3c954	0.4136454
235	0x3c3ba68e	0.011453284
236	0x3e57c967	0.21072923
237	0xbf208990	-0.62709904
238	0x3c712eec	0.01472066
239	0x3e71b339	0.23603524
240	0xbe6ee0f8	-0.23328006
241	0xbc32542c	-0.010884326
242	0xbf13d764	-0.57750535
243	0xbe6e755d	-0.23286958
244	0x3e9efc3e	0.3105182
245	0xbef1adc4	-0.47202885
246	0xbebba609	-0.36650112
247	0xbe9eb9d5	-0.31001154
248	0xbe6bd3bf	-0.23029993
249	0xbd2f285c	-0.0427631
250	0x3f125cf6	0.571731
251	0xbd2478b0	-0.04015416
252	0x3e12148f	0.14265655
253	0xbc8ca0cb	-0.017166516
254	0xbe12f38f	-0.14350723
255	0x3eb0e91b	0.34552845

base.mlp.fc2.0.0.bias f4 [32]
0	0x39188b8e	0.00014547838
1	0xb91d6375	-0.00015009737
2	0xb91aab80	-0.00014750473
3	0x391cc7ae	0.00014951706
4	0x391e0ec7	0.00015073559
5	0xb91de8e1	-0.00015059441
6	0xb91cd685	-0.00014957234
7	0xb91c0447	-0.00014878913
8	0x391b4b99	0.00014810114
9	0x391ca006	0.00014936933
10	0xb91a5de5	-0.00014721563
11	0x3919f0dd	0.00014680946
12	0x391b557f	0.00014813802
13	0x39186ec8	0.00014537119
14	0xb91b81dc	-0.00014830328
15	0xb91c8d0c	-0.00014929863
16	0xb91d93f4	-0.00015027804
17	0xb91cd16a	-0.00014955332
18	0x391cec1d	0.00014965278
19	0x39127edd	0.00013970905
20	0x391c1286	0.0001488422
21	0x391d5d02	0.00015007335
22	0xb9159ee5	-0.0001426894
23	0xb91abb24	-0.000147563
24	0x391b86bb	0.00014832143
25	0xb91dded8	-0.00015055703
26	0xb91c6371	-0.00014914364
27	0xb91bd030	-0.00014859508
28	0x39160cbc	0.00014309859
29	0x391dff1c	0.00015067722
30	0x38f722a1	0.00011784328
31	0x391c48b6	0.00014904406

base.mlp.fc2.0.2.weight f4 [32]
0	0x3f800423	1.0001262
1	0x3f7ff662	0.99985325
2	0x3f8004ce	1.0001466
3	0x3f8004e6	1.0001495
4	0x3f7ff639	0.9998508
5	0x3f8004de	1.0001485
6	0x3f8004df	1.0001487
7	0x3f7ff62a	0.9998499
8	0x3f80047a	1.0001366
9	0x3f8004ee	1.0001504
10	0x3f8004bb	1.0001444
11	0x3f7ff6c2	0.999859
12	0x3f8003f8	1.0001211
13	0x3f8004e3	1.0001491
14	0x3f7ff638	0.99985075
15	0x3f8004e5	1.0001494
16	0x3f8004c7	1.0001458
17	0x3f7ff63a	0.99985087
18	0x3f8004e6	1.0001495
19	0x3f800371	1.000105
20	0x3f7ff64b	0.9998519
21	0x3f7ff644	0.99985147
22	0x3f7ffb0c	0.9999244
23	0x3f7ff739	0.99986607
24	0x3f8004bb	1.0001444
25	0x3f7ff631	0.99985033
26	0x3f8003e3	1.0001186
27	0x3f8004d0	1.0001469
28	0x3f8004c2	1.0001452
29	0x3f8004f9	1.0001518
30	0x3f7ff6cb	0.9998595
31	0x3f7ff65e	0.999853

base.mlp.fc2.0.2.bias f4 [32]
0	0x391a46e9	0.00014713
1	0xb91d14ce	-0.00014980437
2	0xb91981c6	-0.00014639561
3	0x391caae1	0.00014940977
4	0x391c97bf	0.00014933849
5	0xb91cad5a	-0.00014941898
6	0xb91c417f	-0.00014901719
7	0xb91cd813	-0.00014957813
8	0x391c67aa	0.00014915937
9	0x391cd34d	0.00014956035
10	0xb91b0547	-0.00014783918
11	0x391c0c42	0.00014881886
12	0x391c8137	0.00014925456
13	0x391b94f1	0.00014837437
14	0xb91d518b	-0.00015003064
15	0xb91cbb6c	-0.0001494714
16	0xb91cb9d4	-0.00014946546
17	0xb91c8738	-0.00014927692
18	0x391d27c5	0.00014987502
19	0x3918523d	0.00014526486
20	0x391bcf81	0.00014859253
21	0x391cd4af	0.0001495655
22	0xb9154712	-0.00014236223
23	0xb91a08b5	-0.00014689828
24	0x391c3af7	0.00014899285
25	0xb91d3184	-0.00014991133
26	0xb91ca966	-0.00014940425
27	0xb91bfb1b	-0.00014875496
28	0x39190c62	0.0001459583
29	0x391dc8a1	0.00015047427
30	0x390ae1f7	0.00013244884
31	0x391e2346	0.00015081195

rnn.rnn.weight_ih_l0 f4 [96, 32]
0	0xbb1ffdc3	-0.0024412728
1	0x398a125b	0.00026335087
2	0xbdb5c09b	-0.08874627
3	0xbd716f4a	-0.058944024
4	0x3d605c5c	0.05477558
5	0x3d8ded69	0.06930048
6	0xbc350618	-0.011048816
7	0x3e1aaf06	0.15105829
8	0x3e1653e0	0.14680433
9	0xbe0895d0	-0.13338399
10	0x3d8d9ad9	0.069143005
11	0x3e518b50	0.204633
12	0xbdfa646e	-0.12226187
13	0x3dd0875e	0.10182069
14	0xbb83e281	-0.004024804
15	0xbdc70be3	-0.09719064
16	0xbd0cb61e	-0.034353368
17	0x3dd5ff63	0.10449102
18	0x3c6092a0	0.013706833
19	0xbe176652	-0.14785126
20	0x3dfdbaf2	0.123891726
21	0xbdad518a	-0.08462818
22	0xbcc0087a	-0.023441542
23	0xbce7d16b	-0.0282981
24	0x3dc83d81	0.09777356
25	0x3d3ac5cf	0.0455988
26	0xbd146c08	-0.03623584
27	0x3c3a6c48	0.011378355
28	0x3dbb4049	0.09143121
29	0xbd26784f	-0.04064208
30	0x3d187452	0.037220307
31	0xbe05c891	-0.13064791
32	0x3dccb7be	0.099959835
33	0xbc8ef72e	-0.017451849
34	0xbd458060	-0.04821813
35	0xbdc1668b	-0.09443387
36	0xbd6436c1	-0.05571628
37	0xbde87789	-0.113509245
38	0x3b4c9da0	0.0031221882
39	0x3de15d30	0.11004102
40	0x3db2df57	0.08734005
41	0x3e8ebe26	0.27879447
42	0x3dd3c39c	0.10340044
43	0xbc40de17	-0.0117717
44	0x3c83bd17	0.016081376
45	0x3d185c04	0.037197128
46	0x3d97ee6c	0.07418522
47	0xbb4acb56	-0.0030943952
48	0x3e021496	0.12703165
49	0xbe523fc2	-0.20532134
50	0xbd3952d7	-0.045245018
51	0xbe03d626	-0.1287466
52	0x3c8e90a0	0.017402947
53	0x3d60487b	0.054756623
54	0x3d6e4db2	0.058179565
55	0x3d9c2652	0.076244965
56	0xbdbc8065	-0.09204177
57	0x3ea2de61	0.31810287
58	0xbe49a0ea	-0.1969029
59	0x3d680142	0.056641825
60	0x3dae0838	0.08497661
61	0x3d49a16f	0.04922622
62	0xbd807171	-0.06271637
63	0x3c9fecd2	0.019522104
64	0x3cab7c39	0.020933257
65	0x3b60ac51	0.0034282396
66	0xbc9c06fc	-0.0190463
67	0x3d2669df	0.04062831
68	0xbd747c7d	-0.059689034
69	0xbbc5b9eb	-0.006034126
70	0xbc5a54c1	-0.013325871
71	0x3e40c79c	0.18826145
72	0xbd576858	-0.052589744
73	0xbd852063	-0.06500318
74	0xbdfe3e54	-0.12414232
75	0x3d978118	0.073976696
76	0xbd11faf6	-0.035639726
77	0xbdd88bcf	-0.105735414
78	0xbd448e8a	-0.0479875
79	0xbe4229f6	-0.1896132
80	0x3dd86557	0.10566204
81	0xbcbd8592	-0.02313498
82	0x3d0c76da	0.034293033
83	0xbd6881f6	-0.056764565
84	0xbe6fc6b8	-0.23415649
85	0xbdbb7be8	-0.091544926
86	0xbdc58c75	-0.09645931
87	0xbe6ba7ed	-0.23013277
88	0x3bfb27ba	0.007664648
89	0x3d240906	0.040047668
90	0x3dc5b764	0.096541196
91	0x3e08ff83	0.1337872
92	0x3d75fe6b	0.060057085
93	0xbe03d210	-0.12873101
94	0x3deae19c	0.11468813
95	0xbdcf5c3b	-0.101250134
96	0xbd3b41d9	-0.045717094
97	0x3d1ea750	0.03873378
98	0xbdf5e896	-0.12007253
99	0x3cb3aa73	0.021931862
100	0xbb4a9b41	-0.0030915292
101	0xbc425271	-0.011860476
102	0x3e0c41d1	0.13696982
103	0xbd585331	-0.052813713
104	0x3ad0a249	0.0015917505
105	0x3d8977e6	0.06712322
106	0x3e077a77	0.1323031
107	0xbe4f1e34	-0.20226365
108	0x3e12028b	0.14258783
109	0xbe11090a	-0.14163604
110	0x3e1ec374	0.15504247
111	0xbe2e6989	-0.17032446
112	0xbdf96bf8	-0.121787965
113	0x3e0a3bca	0.1349937
114	0xbe11bdee	-0.14232609
115	0xbccff1f2	-0.025383923
116	0x3d8098c8	0.06279141
117	0xbdcc7ca7	-0.09984713
118	0xbd80acbd	-0.06282947
119	0xbcb63c28	-0.022245482
120	0xbd12218b	-0.03567652
121	0xbc770359	-0.015076482
122	0xbe9037a1	-0.2816744
123	0x3c2d127f	0.010563492
124	0x3cedae20	0.029013693
125	0x3b44845c	0.002998612
126	0xbd2c8870	-0.042122304
127	0xbd5bac7a	-0.053631283
128	0xbe0a520a	-0.13507858
129	0xbd241879	-0.0400624
130	0xbdd9774d	-0.10618458
131	0x3d82d810	0.06388867
132	0x3d8f989c	0.0701153
133	0xbca39149	-0.019966738
134	0xbdc2469b	-0.09486123
135	0x3a89ffca	0.0010528502
136	0xbd015172	-0.031571813
137	0x3cb976ac	0.022639595
138	0x3d8a28c3	0.06746056
139	0xbdd0b787	-0.10191255
140	0xbd48f258	-0.049059242
141	0x3db4748d	0.08811293
142	0xbc03af7f	-0.008037447
143	0xbd7f1d92	-0.06228406
144	0xbd6557c9	-0.05599192
145	0x3e40d97b	0.18832962
146	0x3d6ff412	0.058582373
147	0xbe119d24	-0.142201
148	0xbd60f6d9	-0.054922912
149	0x3da4220b	0.08014306
150	0xbce4d136	-0.02793179
151	0x3d3a3add	0.045466293
152	0xbe3a466b	-0.18190925
153	0xbbf2719a	-0.0073987963
154	0x3cff2424	0.031145163
155	0xbd37743f	-0.044788595
156	0xbd7d2ef1	-0.061812345
157	0xbc9cc93b	-0.019138923
158	0xbd44c51b	-0.048039537
159	0x3e66297b	0.22476761
160	0x3b3a8a5c	0.0028463816
161	0xbe5fa847	-0.21841536
162	0xbbd542ec	-0.006508222
163	0xbd8ab87d	-0.067734696
164	0xbe3cdff5	-0.18444808
165	0xbb3c0fe7	-0.0028696002
166	0x3ceb875a	0.028751064
167	0x3d135797	0.035972204
168	0x3ce49da4	0.0279072
169	0xbdbb09aa	-0.09132703
170	0xbd6bae8a	-0.0575395
171	0xbcf8182d	-0.030284965
172	0x3e6a3789	0.22872747
173	0x3cf0c51a	0.02939086
174	0x3c46540e	0.012105001
175	0xbc1ff7a4	-0.009763632
176	0x3cc1d965	0.023663232
177	0xbddc539a	-0.10758133
178	0x3cdbd6ff	0.026835917
179	0x3dc0da34	0.09416619
180	0x3ca56c75	0.020193318
181	0xbd5e9457	-0.054340687
182	0xbd0837c6	-0.033256315
183	0x3d85dfe1	0.06536842
184	0xbd3a0de1	-0.045423392
185	0x3d916d68	0.07100946
186	0xbb234476	-0.0024912632
187	0x3da102bb	0.07861849
188	0xbd730ac6	-0.059336446
189	0x3e0ceaf8	0.13761508
190	0xbe0e6551	-0.13905837
191	0x3d72a0ac	0.05923526
192	0xbc3af666	-0.011411285
193	0xbd04ed84	-0.032453075
194	0x3dae7759	0.085188575
195	0xbd6dae64	-0.05802764
196	0x3d88a98d	0.06672964
197	0xbd8ee416	-0.06977098
198	0xbb9ddd3f	-0.0048176344
199	0xbc85f20c	-0.016350769
200	0x3d834c9b	0.06411096
201	0x3d56f596	0.052480303
202	0xbda32235	-0.07965509
203	0xbc13a9ef	-0.009012683
204	0xbd001c40	-0.03127694
205	0xbd33fd66	-0.04394283
206	0xbd8b5c05	-0.06804661
207	0xbd9d2ccd	-0.07674561
208	0x3d90df9b	0.07073899
209	0x3e85e4de	0.26151174
210	0xbd831c4d	-0.06401882
211	0xbde4935d	-0.1116092
212	0x3e0b3616	0.13594851
213	0xbd99d593	-0.07511439
214	0x3d925cee	0.07146631
215	0x3df6a189	0.12042529
216	0xbc7b7d40	-0.015349686
217	0xbdc7986a	-0.097458676
218	0xbdc56e9e	-0.09640239
219	0x3d69ba17	0.057062235
220	0xbdb7e826	-0.08979826
221	0x3d805f04	0.06268123
222	0x3a149ad0	0.0005668821
223	0x3e33305c	0.17498916
224	0xbe4ab7b5	-0.19796641
225	0x3d82ba06	0.063831374
226	0xbde226fe	-0.110425934
227	0xbcddbe62	-0.02706832
228	0x3e25fdfc	0.16210169
229	0xbdc9286e	-0.098221645
230	0xbe5e2867	-0.216951
231	0xbe0ce9ae	-0.13761017
232	0x3d59e5de	0.053197734
233	0x3d044e44	0.032301202
234	0xbcff54b0	-0.031168312
235	0x3cd22eca	0.025657076
236	0x3da72d88	0.08162981
237	0xbc49283f	-0.012277662
238	0x3e014c98	0.12626874
239	0xbd6450a4	-0.055740967
240	0x3cab39e7	0.020901633
241	0x3e20e913	0.15713911
242	0xbd5214f8	-0.05128953
243	0x3c24ba6a	0.01005421
244	0x3c02f3df	0.007992714
245	0x3d615ed6	0.055022083
246	0x3e0adcad	0.13560744
247	0x3d19337f	0.037402626
248	0x3d5ce6dd	0.053931106
249	0x3d334d5b	0.043774944
250	0x3e05c753	0.13064317
251	0x3cd91825	0.02650077
252	0x3d4aad9d	0.049481977
253	0x3cc97ca8	0.024595574
254	0x3e13f885	0.14450271
255	0xbd86b1b0	-0.0657686

rnn.rnn.weight_hh_l0 f4 [96, 32]
0	0x3d4e05fb	0.050298672
1	0x3c78c4f8	0.01518368
2	0xbd0b74c3	-0.0340469
3	0x3d52746d	0.051380564
4	0xbdc6547e	-0.09684084
5	0xbe39ae07	-0.18132792
6	0xbcf6ec17	-0.030141873
7	0xbdc4cabc	-0.09608981
8	0xbdc92c0a	-0.09822853
9	0xbde5b4f4	-0.11216155
10	0x3d7a7146	0.061143182
11	0xbba867d2	-0.0051393295
12	0xba9bd9db	-0.0011890488
13	0x3b6f7df3	0.0036543577
14	0xbe30c0ba	-0.1726102
15	0x3dc4f08e	0.09616195
16	0xbdfb1716	-0.12260263
17	0xbe09908a	-0.13434044
18	0xbba8ad6a	-0.0051476257
19	0x3d6451cd	0.055742074
20	0xbd120c5f	-0.03565633
21	0x3cbb3671	0.022853108
22	0x3d090101	0.033448223
23	0xbdc111c4	-0.09427217
24	0x3c144233	0.009048986
25	0x3d80c7df	0.062881224
26	0x3d8650a2	0.06558348
27	0xbd83bfdc	-0.06433079
28	0x3e2f9aa1	0.1714883
29	0xbe1ee22c	-0.15515965
30	0x3d54dc94	0.051968172
31	0xbd92380a	-0.07139595
32	0x3d363d23	0.0444919
33	0x3bde22bb	0.0067790425
34	0x3d2ea671	0.0426392
35	0x3d7eb6ed	0.06218617
36	0x3d8562f3	0.06513014
37	0xbdf54975	-0.119769014
38	0x3e3b76c7	0.18307029
39	0x3c6af228	0.014339961
40	0xbc841b57	-0.016126318
41	0x3e04397a	0.1291255
42	0x3d301f74	0.042998746
43	0x3daa509b	0.083161555
44	0xbc3d52d5	-0.011555393
45	0x3d771c3d	0.060329664
46	0x3da77504	0.08176616
47	0x3cad9aee	0.02119204
48	0x3e3bd2c2	0.18342116
49	0x3d840b76	0.064474985
50	0xbe52635a	-0.20545712
51	0x3d66a144	0.05630614
52	0x3d082fd8	0.033248752
53	0x3a925f59	0.0011167332
54	0xbda7b61e	-0.08189033
55	0xbe15bb6c	-0.14622277
56	0xbb7bf7e3	-0.0038447313
57	0xbd722d8c	-0.059125468
58	0x3cd99c89	0.0265639
59	0xbc740bbd	-0.014895377
60	0xbd6d55b7	-0.057943072
61	0x3df2d65f	0.11857294
62	0xbdaa4719	-0.08314342
63	0x3dac18be	0.08403157
64	0xbdb1d6bb	-0.08683535
65	0xbd4f6315	-0.0506316
66	0x3e0a8fe6	0.13531455
67	0xbd998225	-0.07495526
68	0xbe0ba279	-0.13636197
69	0x3df1da4e	0.118092164
70	0x3da630bd	0.08114765
71	0xbd5137b1	-0.051078502
72	0xbd2fbc2a	-0.042904057
73	0xbdabc8f5	-0.08387939
74	0xbe935451	-0.28775266
75	0xbd875e2b	-0.06609758
76	0x3d304664	0.04303588
77	0xbd2a1b2b	-0.041529816
78	0x3da2b55a	0.07944746
79	0x3d8e7651	0.06956161
80	0xbd8d2bc2	-0.06893112
81	0xbd33a441	-0.043857817
82	0x3dc5c8c3	0.09657433
83	0xbcab7aa8	-0.02093251
84	0xbb08622b	-0.0020810466
85	0xbdf9d6e5	-0.12199191
86	0xbe555631	-0.2083366
87	0xbd59ff54	-0.053222016
88	0x3d008023	0.0313722
89	0xbd8a29e0	-0.06746268
90	0xbe113a65	-0.14182432
91	0xbce1b13a	-0.027550329
92	0xbe25c5aa	-0.16188684
93	0x3dc73f9a	0.09728928
94	0x3d090ded	0.033460546
95	0xbe143b32	-0.14475706
96	0xbe2ee12d	-0.17078085
97	0xbd8dbedd	-0.0692117
98	0xbd7b8c3c	-0.061413035
99	0xbe35fcf1	-0.1777227
100	0x3dd7ca1c	0.10536596
101	0x3d9b7b5a	0.07591887
102	0xbddd1668	-0.10795289
103	0xbddff6a9	-0.109357186
104	0xbe0b1799	-0.1358322
105	0xbda78871	-0.08180321
106	0x3dccb34d	0.099951364
107	0x3e3057d4	0.17221004
108	0x3d0c6d64	0.03428401
109	0xbd049d37	-0.032376494
110	0xbe018fb9	-0.12652482
111	0xbe06b03c	-0.13153166
112	0x3d863e7f	0.06554889
113	0xbd99549d	-0.07486842
114	0xbd75ea68	-0.060038
115	0xbd5bbf8a	-0.053649463
116	0xbe77843a	-0.24171534
117	0x3ca05fd2	0.01957694
118	0xbda2ef2a	-0.07955773
119	0x3e50389a	0.20334092
120	0x3d24c904	0.040230766
121	0xbd7bdcae	-0.061489753
122	0x3d8606c7	0.065442614
123	0x3dac0750	0.08399832
124	0xbdc0bbf4	-0.09410849
125	0x3bf9a8c4	0.0076189954
126	0xbdd549d3	-0.104144715
127	0xbdf5accb	-0.11995848
128	0xbd888ef5	-0.06667892
129	0xbc3038e5	-0.010755752
130	0xbe1785df	-0.14797162
131	0xbcf8bce1	-0.030363502
132	0x3b591ad7	0.003312757
133	0xbda3d7a6	-0.08000116
134	0xbe8515dd	-0.25993243
135	0x3dd6480d	0.10462961
136	0x3e46efe5	0.1942745
137	0xbdc493b2	-0.09598483
138	0xbd19b26d	-0.037523676
139	0xbe2f615d	-0.17126985
140	0x3d20075c	0.03906952
141	0x3cca87c1	0.024722936
142	0xbdd1a25a	-0.10236044
143	0x3da4d6b5	0.080487646
144	0x3d73274f	0.05936366
145	0x3e425933	0.1897934
146	0xbd387a5b	-0.045038562
147	0x3d80f4df	0.062967055
148	0x3dbb5f15	0.09148995
149	0xbde3b2af	-0.111180656
150	0x3d5c2648	0.053747445
151	0x3de304fc	0.11084935
152	0xbdd2d2d9	-0.10294122
153	0xbdd11efc	-0.10210988
154	0x3e5c15dc	0.21492714
155	0xbd84c86a	-0.064835384
156	0xbd985f89	-0.07440097
157	0xbd898d51	-0.06716407
158	0xbbf85f21	-0.0075796996
159	0x3e0849a4	0.13309342
160	0x3ca525f0	0.020159692
161	0xbe1c8d99	-0.1528839
162	0x3a972df5	0.0011534082
163	0x3a804aa8	0.0009787874
164	0x3be4c780	0.00698179
165	0xbe47c726	-0.19509563
166	0xbd0dd172	-0.03462357
167	0xbcee47b4	-0.029086925
168	0xbdc5b9d1	-0.09654582
169	0xbd878317	-0.066168
170	0x3d8f322a	0.0699199
171	0xbe089b29	-0.13340439
172	0x3dde556f	0.10856139
173	0xbe264fb6	-0.16241345
174	0xbdeafeda	-0.1147439
175	0x3e011715	0.12606461
176	0x3d935f71	0.071959384
177	0xbd5718e1	-0.05251396
178	0x3cfdeab9	0.030995714
179	0xbdabc509	-0.08387191
180	0x3d63d6fc	0.055624947
181	0x3da64ae9	0.08119757
182	0xbe1e7101	-0.15472795
183	0xbca5fa59	-0.020260977
184	0x3e105007	0.14093028
185	0x3e04a4a6	0.12953433
186	0x3cbc253a	0.02296697
187	0x3dee6019	0.11639423
188	0xbe0e66d7	-0.13906418
189	0x3c64cee7	0.013965345
190	0xba945d4f	-0.0011319312
191	0x3cc3f23d	0.02391922
192	0xbce268a4	-0.027637787
193	0x3da18ec2	0.07888557
194	0x3d9b9685	0.07597069
195	0xbe27f84e	-0.16403314
196	0xbd7f03e9	-0.06225959
197	0xb9190e53	-0.00014596553
198	0xbd800bef	-0.06252276
199	0xbc83b503	-0.016077524
200	0x3e17fd63	0.14842753
201	0x3d8b4c47	0.06801658
202	0xbe4bd310	-0.19904733
203	0x3ca34a6b	0.019932946
204	0x3d5d5fe3	0.054046523
205	0xbb86d44a	-0.0041146623
206	0x3d8e4145	0.06946043
207	0xbe3c7df0	-0.18407416
208	0xbd075c0d	-0.03304677
209	0x3e3eb6ae	0.18624374
210	0x3bc5e2b3	0.0060389875
211	0xbdf972d1	-0.121801026
212	0x3c8185cb	0.015810868
213	0xbe56a11f	-0.209599
214	0xbcea195b	-0.028576544
215	0xbe0ef1e0	-0.13959455
216	0xbdbbc272	-0.09167947
217	0x3e2884b1	0.16456868
218	0xbcaefe29	-0.021361427
219	0x3e51c20a	0.20484176
220	0x3de0a457	0.10968845
221	0xbd0a8ce8	-0.033825785
222	0x3ccc5646	0.024943482
223	0x3d5e2856	0.054237686
224	0x3cdf560e	0.027262714
225	0xbdb9df1c	-0.09075758
226	0xbdc602f3	-0.09668531
227	0x3dff3511	0.124612935
228	0x3dc7d636	0.09757654
229	0xbddc9fb5	-0.10772649
230	0x3e60fdbe	0.21971795
231	0x3dfab023	0.12240627
232	0x3d356800	0.044288635
233	0xbd9f6d4f	-0.07784521
234	0x3e5363b2	0.206435
235	0xbd0cb0e3	-0.03434838
236	0xbe0acdd8	-0.13555086
237	0xbe104ebc	-0.14092535
238	0x3d3de0c1	0.04635692
239	0x3c9dc2b4	0.01925788
240	0xbb76ff93	-0.0037688955
241	0x3e37e9be	0.1796026
242	0x3db19b9b	0.086722575
243	0xbd086f0f	-0.03330904
244	0xbc6b8d0f	-0.014376893
245	0xbe01f31f	-0.126904
246	0x3d66043d	0.056156386
247	0x3d7e1f41	0.062041525
248	0xbd20bd25	-0.039242882
249	0x3dd5a1b4	0.10431233
250	0x3d1afd0e	0.037838988
251	0x39cd4a83	0.00039156163
252	0xbd31fbd2	-0.043453045
253	0x3dcbaf1b	0.09945508
254	0x3d80279b	0.06257554
255	0x3ccc40cf	0.024933247

rnn.rnn.bias_ih_l0 f4 [96]
0	0xb834709d	-4.3020224e-05
1	0x390911b0	0.00013071927
2	0x390ffc14	0.00013731449
3	0xb91cdacc	-0.00014958828
4	0xb918323e	-0.00014514566
5	0xb915134b	-0.00014216935
6	0x391c98ab	0.00014934193
7	0x391a954e	0.00014742205
8	0xb917cbe7	-0.00014476442
9	0xb91d7d1c	-0.00015019294
10	0xb90ff8f5	-0.00013730286
11	0xb91c42a4	-0.00014902145
12	0xb91a979e	-0.00014743066
13	0xb91d2470	-0.00014986261
14	0xb9198d1c	-0.00014643784
15	0xb91c7738	-0.00014921732
16	0xb91d6772	-0.00015011223
17	0x391d2131	0.00014985052
18	0xb8b8e195	-8.815822e-05
19	0x391b4e33	0.00014811083
20	0x391a955b	0.00014742224
21	0xb91863d1	-0.00014533034
22	0xb91894be	-0.0001455126
23	0x391b13e0	0.00014789356
24	0x3917bb7e	0.00014470328
25	0xb91d17a4	-0.00014981494
26	0xb91d3615	-0.00014992834
27	0x38e412b9	0.000108753746
28	0xb91b10cd	-0.0001478821
29	0x391a0412	0.00014688101
30	0xb91ac185	-0.00014758676
31	0xb7f3319f	-2.8990964e-05
32	0xb90c4672	-0.00013377683
33	0xb9028279	-0.00012446371
34	0xb9119a76	-0.00013885819
35	0x384b28df	4.8437036e-05
36	0x3754d634	1.2686058e-05
37	0x381c0bb6	3.7204205e-05
38	0x391536b4	0.00014230126
39	0xb90011f7	-0.00012213724
40	0xb91a3517	-0.00014706362
41	0xb91cdc17	-0.00014959309
42	0xb86f8879	-5.710914e-05
43	0x39058c93	0.00012736236
44	0xb8e1a2a1	-0.00010759128
45	0x390631f7	0.00012797849
46	0xb809ac9f	-3.282411e-05
47	0xb882fd9c	-6.2461215e-05
48	0xb9147628	-0.00014158397
49	0xb91b9436	-0.00014837165
50	0xb91532f4	-0.00014228729
51	0xb8473171	-4.7491343e-05
52	0xb90f33c9	-0.00013656834
53	0xb91b29ed	-0.0001479757
54	0x391360f6	0.00014055133
55	0xb9170c5e	-0.0001440509
56	0xb9165d3e	-0.0001433985
57	0xb90fe390	-0.00013722316
58	0x3913ae85	0.00014084026
59	0xb9190d1f	-0.00014596105
60	0xb906127c	-0.00012786122
61	0xb90f5ba8	-0.00013671687
62	0xb914697b	-0.00014153674
63	0x38f46dcd	0.00011655279
64	0xb913d251	-0.00014097361
65	0x390e9752	0.00013598547
66	0x3918f2e3	0.00014586332
67	0x391cbaf8	0.0001494697
68	0x391c711f	0.0001491946
69	0xb91d1ed7	-0.00014984176
70	0xb91cbefc	-0.00014948467
71	0xb91c7238	-0.00014919869
72	0x391cbf62	0.00014948615
73	0xb91e33cf	-0.00015087354
74	0x391d0d9d	0.00014977758
75	0xb91d0b53	-0.00014976905
76	0xb91b3c27	-0.0001480436
77	0xb91d56f4	-0.0001500508
78	0x391cd036	0.00014954884
79	0x391ceb15	0.00014964894
80	0x391e08b8	0.00015071302
81	0x391ce5f9	0.00014962991
82	0x391d60e2	0.00015008778
83	0x391c3cbc	0.00014899945
84	0x391b66d6	0.00014820261
85	0x391bf6b6	0.00014873859
86	0x391c48d4	0.0001490445
87	0xb91d0ebd	-0.00014978177
88	0xb919ab66	-0.00014655068
89	0xb91cd00d	-0.00014954824
90	0xb91dcbeb	-0.00015048652
91	0x38fd5758	0.00012080249
92	0x391c7f99	0.00014924853
93	0x391c0753	0.00014880048
94	0xb91c3ae9	-0.00014899265
95	0xb91b74f7	-0.00014825525
