mappo/critic_agent1.pt (torch, 54442 bytes, 21 tensors)

base.feature_norm.weight f4 [94]
000000 35 f6 7f 3f 88 04 80 3f 02 f7 7f 3f dd 04 80 3f
       0.9998506 1.0001383 0.9998628 1.0001484
000010 54 04 80 3f e0 f7 7f 3f ea f9 7f 3f 33 f6 7f 3f
       1.0001321 0.999876 0.99990714 0.99985045
000020 dd 04 80 3f 75 f6 7f 3f 9f f9 7f 3f 61 f6 7f 3f
       1.0001484 0.9998544 0.99990267 0.9998532
000030 b8 00 80 3f 38 04 80 3f 99 02 80 3f 3c f6 7f 3f
       1.0000219 1.0001287 1.0000793 0.999851
000040 6b 04 80 3f 9a f6 7f 3f 72 03 80 3f 85 f6 7f 3f
       1.0001348 0.9998566 1.0001051 0.99985534
000050 8f 02 80 3f e1 fa 7f 3f 92 f8 7f 3f 53 04 80 3f
       1.0000781 0.99992186 0.99988663 1.000132
000060 b3 04 80 3f 3e f6 7f 3f cc 03 80 3f 70 f8 7f 3f
       1.0001434 0.9998511 1.0001159 0.9998846
000070 62 04 80 3f e2 04 80 3f 63 f6 7f 3f 7f 04 80 3f
       1.0001338 1.000149 0.9998533 1.0001372
000080 b1 04 80 3f 03 fa 7f 3f c1 04 80 3f bf 04 80 3f
       1.0001432 0.9999086 1.0001451 1.0001448
000090 df 03 80 3f ca f6 7f 3f 5a f6 7f 3f 73 f6 7f 3f
       1.0001181 0.99985945 0.9998528 0.99985427
0000a0 ce 03 80 3f e0 04 80 3f b1 f6 7f 3f b6 f7 7f 3f
       1.0001161 1.0001488 0.99985796 0.9998735
0000b0 30 02 80 3f 96 f6 7f 3f f1 f7 7f 3f 66 f6 7f 3f
       1.0000668 0.99985635 0.99987704 0.9998535
0000c0 7d f6 7f 3f b7 f9 7f 3f 95 04 80 3f a6 03 80 3f
       0.99985486 0.9999041 1.0001398 1.0001113
0000d0 82 f6 7f 3f 81 f6 7f 3f a3 04 80 3f d8 04 80 3f
       0.99985516 0.9998551 1.0001415 1.0001478
0000e0 7e f6 7f 3f 1b 04 80 3f ab 04 80 3f 7a f8 7f 3f
       0.9998549 1.0001253 1.0001425 0.9998852
0000f0 cd 04 80 3f 06 04 80 3f 76 f6 7f 3f c7 04 80 3f
       1.0001465 1.0001228 0.99985445 1.0001458
000100 33 00 80 3f a2 00 80 3f 56 f6 7f 3f db f6 7f 3f
       1.0000061 1.0000193 0.99985254 0.99986047
000110 7b f6 7f 3f 56 f6 7f 3f bb 04 80 3f 7c f6 7f 3f
       0.99985474 0.99985254 1.0001444 0.9998548
000120 55 f8 7f 3f 9e f6 7f 3f b4 04 80 3f a8 04 80 3f
       0.999883 0.9998568 1.0001435 1.0001421
000130 f8 01 80 3f 76 f6 7f 3f b8 04 80 3f 5b 04 80 3f
       1.0000601 0.99985445 1.000144 1.0001329
000140 12 04 80 3f ea 04 80 3f d5 04 80 3f 96 f6 7f 3f
       1.0001242 1.00015 1.0001475 0.99985635
000150 5e 03 80 3f bb 04 80 3f 8a f8 7f 3f d2 04 80 3f
       1.0001028 1.0001444 0.99988616 1.0001471
000160 a5 01 80 3f 81 04 80 3f a1 04 80 3f 47 03 80 3f
       1.0000502 1.0001374 1.0001413 1.0001
000170 6e f6 7f 3f 7f f7 7f 3f
       0.99985397 0.99987024

base.feature_norm.bias f4 [94]
000000 ec c8 18 b9 df 6f 14 39 52 c2 17 39 ca 3c 07 b9
       -0.00014570699 0.00014156055 0.00014472872 -0.00012897249
000010 d8 0c 0e b9 f8 04 d4 38 09 f4 f1 38 60 d5 11 b9
       -0.0001354696 0.00010109873 0.000115372306 -0.00013907766
000020 d8 d8 1a b9 37 1f 19 39 53 5d 18 39 58 2d 1a 39
       -0.00014767365 0.00014602845 0.00014530616 0.00014703476
000030 65 ea c4 b8 19 da 16 39 4a fe 9d b8 94 4a 17 b9
       -9.389668e-05 0.00014386362 -7.5337084e-05 -0.00014428265
000040 f1 15 14 b9 16 36 a5 38 8f 4e 33 38 ed 89 12 39
       -0.00014122554 7.8778874e-05 4.275009e-05 0.00013975026
000050 08 66 7d b7 3b e2 a7 b8 1d 66 83 38 ab af 12 b9
       -1.5103731e-05 -8.005319e-05 6.265587e-05 -0.00013989086
000060 fd 3e 15 39 9a 2b 1c 39 f1 cc bf b8 5c a0 01 39
       0.00014233212 0.00014893562 -9.145763e-05 0.00012362137
000070 85 5e 0f b9 4b 3a 1c b9 0e 6a c9 b8 37 30 05 b9
       -0.00013672754 -0.00014899035 -9.604181e-05 -0.0001270183
000080 73 78 19 b9 5a 32 0d b9 89 95 15 b9 7b 65 1a b9
       -0.00014636088 -0.00013465565 -0.00014265454 -0.00014724389
000090 66 24 d5 37 9a 0a 0f 39 20 ae d2 38 06 35 12 39
       2.5408528e-05 0.00013641492 0.000100460136 0.00013943398
0000a0 3c e7 19 39 3c 6f 1b b9 d4 b7 10 39 ef 38 17 b9
       0.00014677359 -0.0001482339 0.00013801391 -0.00014421692
0000b0 73 d2 d3 38 29 fe 18 39 a3 cd 12 39 96 9d 1a b9
       0.00010100463 0.00014590532 0.0001400025 -0.0001474529
0000c0 f8 b8 18 b9 51 40 1a 39 03 fc 01 39 37 f8 19 b9
       -0.00014564756 0.00014710544 0.0001239628 -0.00014683684
0000d0 9d b6 16 39 f7 5f 18 39 3e 11 17 b9 86 f1 19 b9
       0.00014373143 0.000145316 -0.00014406905 -0.00014681192
0000e0 bc 81 18 b9 f7 6f f3 b8 d2 3f 17 b9 79 95 76 b7
       -0.0001454418 -0.00011607998 -0.00014424257 -1.4697544e-05
0000f0 2a 47 19 b9 6d 8c 05 b9 d7 67 18 39 f7 2e 18 b9
       -0.00014617728 -0.00012736181 0.00014534533 -0.00014513345
000100 f5 54 10 39 56 de 1a 39 ed 2c 12 b9 81 a3 03 39
       0.00013764559 0.00014769411 -0.00013940381 0.00012554043
000110 b7 11 17 39 0c 71 1a 39 e9 d8 13 b9 a9 d1 17 39
       0.00014407081 0.00014728698 -0.00014099818 0.00014478587
000120 85 bd cb b8 c2 99 15 39 00 3e 17 b9 b7 bf 0e b9
       -9.715095e-05 0.00014267027 -0.00014423579 -0.00013613595
000130 13 1e 02 39 3a e1 14 39 b8 bb 19 b9 1e 29 18 b9
       0.0001240897 0.00014198283 -0.00014661148 -0.00014511167
000140 60 06 18 b9 74 bb 11 b9 6f 79 1a b9 13 02 18 39
       -0.00014498224 -0.0001389811 -0.00014731822 0.00014496622
000150 fa 62 0b b9 f7 e3 f7 b8 1a a0 0d b9 f0 04 1a b9
       -0.00013292945 -0.000118203396 -0.0001350645 -0.00014688424
000160 9b 01 15 38 be 86 0c b9 23 a7 12 b9 68 77 f1 38
       3.5525863e-05 -0.00013401636 -0.00013985908 0.00011514017
000170 b1 f3 18 39 22 c4 ff 38
       0.00014586632 0.0001219588

base.mlp.fc1.0.weight f4 [32, 94]
000000 23 5e 73 be da 3b 70 3e 3b 2d d4 bd c4 c6 07 be
       -0.23766379 0.23460332 -0.103601895 -0.13259417
000010 30 ff ec bd bf 2b f6 3d 5e 6f b0 3c 9e a1 04 be
       -0.11572111 0.12020063 0.021537479 -0.12952277
000020 de 62 5a be 09 66 72 be 9a da ae bd d2 c6 a9 3e
       -0.21326777 -0.23671736 -0.08537789 0.331595
000030 bb 3e c0 bd 0f 94 e3 bc 3c 0b fb 3d c6 74 e6 3b
       -0.09386965 -0.02778056 0.12258002 0.0070329634
000040 46 d3 90 bd 7d 52 93 3e da 59 7e bd d9 7c 05 3e
       -0.07071547 0.2877387 -0.062097408 0.13035907
000050 d6 9c 1b 3e 42 79 bb 3b 3d 89 f9 3c 21 fb c1 3d
       0.15196547 0.005721242 0.030460948 0.09471727
000060 bb 7f 16 3e 19 2a c2 3d b6 74 17 be 0e 73 27 3e
       0.14697163 0.09480686 -0.14790615 0.16352484
000070 28 f3 a8 3d 2a 11 11 bd eb fd c6 3d 80 75 0a be
       0.082495034 -0.03541676 0.097164 -0.13521385
000080 8b ed 46 be a9 aa 25 3d 50 b9 b8 be 83 1d 4a 3d
       -0.19426553 0.040445957 -0.36078882 0.04934455
000090 d1 b9 13 3d 2b a6 ba 3b 65 64 b6 bd 61 13 e9 3c
       0.03606588 0.0056960783 -0.089058675 0.028451623
0000a0 96 1e f6 3d e5 5b 1b bd 14 8c af 3e 84 ac cb bc
       0.120175526 -0.037929434 0.3428656 -0.024862535
0000b0 45 30 a8 3c 91 0b 7d bd f7 fd 98 3e 2f 04 e1 3c
       0.02053083 -0.06177861 0.2988126 0.027467815
0000c0 d8 9f 55 be 18 61 00 3e 70 b4 83 3d b1 7f 8f 3e
       -0.20861757 0.12537038 0.064309 0.28027108
0000d0 61 46 53 bd a7 b2 49 3b f7 cc f0 bd d5 9f 24 3e
       -0.05158079 0.003077665 -0.11757844 0.16076596
0000e0 b4 12 5e be f6 74 84 3d 23 af 42 3b 47 25 1e 3e
       -0.21686822 0.06467621 0.002970644 0.15443908
0000f0 91 00 42 bd 36 96 d6 3d f5 52 a8 3c 74 6b 6c be
       -0.04736382 0.10477869 0.02054737 -0.23087865
000100 fc 74 94 3d d5 40 52 be aa 0b c0 3d 0a d2 47 3e
       0.072488755 -0.20532544 0.09377225 0.19513717
000110 2e 47 dc 3e f7 cb 7a bd 28 1f 8e be e7 6d 9e 3d
       0.43023056 -0.061229672 -0.27758145 0.07735806
000120 7e 14 80 bd ef e7 55 bd 74 ac a9 bd 3e d7 f7 bd
       -0.062539086 -0.052223142 -0.08284846 -0.12101601
000130 e7 69 9a 3e ce 93 d0 3d f5 fd 5f 3e 73 35 b4 be
       0.30158922 0.101844415 0.2187422 -0.3519703
000140 e9 52 33 bd 0e e6 23 3e f2 6c c0 be ad 18 d9 3e
       -0.04378024 0.16005728 -0.3758312 0.4240164
000150 12 d0 60 3e 3e ec ca bd cc 2d 99 3d 09 b9 76 be
       0.21954373 -0.09908341 0.07479438 -0.24094023
000160 a7 8b 12 3e cd b6 57 be 0f 9f c1 3c 8b 87 91 3e
       0.14311086 -0.21065827 0.023635415 0.28423724
000170 57 e9 1d be 3c e9 60 3e 98 8f cb bd 6f 43 e7 3d
       -0.15421043 0.21963972 -0.09939498 0.11292159
000180 d5 88 b7 be 74 37 9c 3e 64 99 8d 3e 61 c8 87 bc
       -0.35846582 0.30511057 0.2765609 -0.01657504
000190 14 fb 2f 3e e9 5e 34 bd c5 5c 56 3e 82 83 9b be
       0.17185622 -0.044035826 0.20933826 -0.3037377
0001a0 46 86 51 be 01 2b b8 be 14 ea 09 3e fe d0 1f be
       -0.20461378 -0.3597031 0.134682 -0.15607068
0001b0 28 14 5c 3d d3 a8 e8 bd 1f 15 af 3c 54 4c 38 3e
       0.05373016 -0.11360326 0.021372376 0.17997867
0001c0 2e 87 90 bd 8a 04 d4 3d fc e6 0e be d1 c8 ee bd
       -0.070570335 0.10352428 -0.13955301 -0.116593964
0001d0 bd e4 6a 3e f5 fd 05 3e 75 ea df 3d fa d2 33 bc
       0.22938819 0.13085158 0.10933391 -0.010975594
0001e0 dc 2c 62 3d c0 11 ef bc c4 6a 07 3f e7 2b d3 3d
       0.055218562 -0.029183269 0.52897286 0.10311108
0001f0 69 8f 01 3e aa 6a 18 3d dc a5 cf 3b be 07 0e bd
       0.12652363 0.037211098 0.0063369107 -0.034675352
000200 2b b6 d3 3d c0 04 9e 3e f3 e5 8a bd c5 54 b5 bd
       0.1033748 0.30863 -0.067821406 -0.08854059
000210 ec da 1a 3d 4c 04 b4 3d e2 42 74 3c 58 57 69 3d
       0.037806436 0.08789882 0.014908524 0.056968063
000220 59 c8 ce 3b 2c 11 54 bd 57 be 02 be 33 f3 58 be
       0.0063105044 -0.05177419 -0.12767921 -0.21186523
000230 c9 6b 57 be 81 e0 3e 3e 96 af 80 ba 3c 8c 15 be
       -0.2103721 0.18640329 -0.0009817954 -0.14604276
000240 ba 4b 5d be 8c 00 b5 3e 71 3e ec 3d ee 36 84 3d
       -0.21610919 0.3535198 0.11535347 0.064557895
000250 a1 fa 8b be 2e 3f 00 be e8 ca 91 3d ea 36 17 be
       -0.27339652 -0.12524101 0.071187794 -0.14767042
000260 77 c3 11 3e 0c 1b 58 3e 38 83 45 3e 60 8b 07 be
       0.1423472 0.21104068 0.19288337 -0.13236761
000270 96 85 92 3d de ca f5 bd 54 36 88 3d cb e7 0e 3e
       0.07154386 -0.120015845 0.06650987 0.1395561
000280 a0 29 0d 3d b7 8d b8 3e 60 4a 53 be 73 20 39 3e
       0.034463525 0.3604562 -0.2063384 0.18078785
000290 39 54 ed 3b a8 cd ef bd f8 11 be 3c a5 00 50 bd
       0.007242706 -0.11709148 0.023201928 -0.050781865
0002a0 6f 42 51 be 3d 4a 74 be 2a 97 5a 3d 8a 31 f8 bd
       -0.20435499 -0.23856445 0.053366818 -0.12118824
0002b0 13 37 35 bd 7e a1 f4 3c 48 0a 85 bd cb 8e a3 be
       -0.044241976 0.029862162 -0.064961016 -0.3194488
0002c0 37 4d 57 3c d2 a5 2a 3e 2d b3 c0 3d b5 73 c4 bc
       0.013140968 0.16664818 0.09409175 -0.023980955
0002d0 ee 03 10 be f5 58 1b 3e bc 2a a5 be 0a 47 02 3e
       -0.14063999 0.15170653 -0.32259166 0.12722412
0002e0 31 3e aa 3e 66 06 cc bd 34 e9 5e bd 70 a9 5c 3e
       0.33250573 -0.09962158 -0.05442162 0.2154901
0002f0 c5 97 11 be 4f e7 3a 3e ed fc 30 3d 63 44 95 3e
       -0.14218052 0.182523 0.04320996 0.29153737
000300 3f 01 ec be 2e 48 15 3d 3d 74 18 3e 6f ab d4 bc
       -0.460947 0.03644579 0.14888091 -0.025960652
000310 8a 98 3e 3e 42 ed b8 bb 19 61 30 3c 3e 5c a5 3e
       0.18612877 -0.0056435177 0.010765337 0.32296938
000320 10 86 68 3c bd 81 c3 bc 06 1b f8 3d d7 af b9 3d
       0.014192119 -0.023865575 0.12114529 0.09066742
000330 28 f9 44 bc a3 a7 ca 3c 02 08 8b 3d 31 8c 56 be
       -0.012022294 0.024738139 0.06788637 -0.20951916
000340 6a 60 97 3b 27 46 84 3e 7c d8 3c 3d 85 1a 70 be
       0.0046196477 0.25834772 0.046104893 -0.23447616
000350 4c 90 41 3e 00 eb c3 3c b9 9d 65 bb 57 c2 e2 bd
       0.18902701 0.023915768 -0.0035036637 -0.11072224
000360 b6 3d a8 3d db 50 1b bc 8a 72 7f 3c 81 26 08 3d
       0.082148954 -0.009479727 0.015591273 0.033239845
000370 33 7f 9a bd 08 52 02 3d 0f d7 cc 3e db 12 55 3c
       -0.075437926 0.031816512 0.40007827 0.013004984
000380 94 1d f8 bc 40 38 d8 be cb a6 42 3e 90 13 5b 3d
       -0.030287541 -0.42230415 0.19008939 0.053485453
000390 4f bc 8c bd 9b 39 c7 3d a8 d4 6e be 14 27 70 3e
       -0.068718545 0.09727784 -0.2332331 0.23452407
0003a0 9a 6b 5b bd 1c 0b dd 3d 98 04 2f bc a5 ad 29 bd
       -0.053569414 0.107931346 -0.010682248 -0.041425366
0003b0 7c ae 1a be 77 8d 4a 3d 1e 4a 93 3e f2 bd 82 3e
       -0.15105623 0.049451318 0.28767484 0.25535542
0003c0 83 60 9f 3d 0a 55 96 3e c1 f5 af 3d d1 fe e0 bd
       0.0778208 0.29361755 0.08591796 -0.10986102
0003d0 ed 0d 51 3d e5 74 91 3e cb 4a 37 3e 1d 23 0c bf
       0.05103867 0.28409496 0.17899625 -0.5474108
0003e0 11 a4 6a 3e ef 64 71 bd 90 ff 9b 3e d1 a4 f8 bd
       0.22914149 -0.05893415 0.30468416 -0.12140811
0003f0 4c a6 0c 3e 18 a0 6d 3c 5e 32 54 be 6a 16 38 be
       0.13735312 0.014503501 -0.20722339 -0.179773

base.mlp.fc1.0.bias f4 [32]
000000 03 69 18 39 64 04 17 b9 0a 61 13 39 d4 0c 01 b9
       0.0001453497 -0.00014402118 0.00014055162 -0.00012307178
000010 a1 78 42 37 e3 c7 1b b9 80 d0 10 39 79 8e 13 b7
       1.1591387e-05 -0.00014856416 0.00013810582 -8.795055e-06
000020 76 86 19 b9 de 7f c7 b8 bd d1 0d 39 f8 a9 f8 b8
       -0.00014641308 -9.5128766e-05 0.00013524941 -0.00011857221
000030 87 4b 17 39 e1 92 0f 39 48 da b4 b8 27 c4 de 38
       0.00014428618 0.0001369226 -8.623727e-05 0.00010622321
000040 23 62 0d 39 47 d5 1a 39 c6 7a 1a b9 32 16 14 39
       0.00013483367 0.00014766036 -0.00014732321 0.00014122648
000050 f3 84 07 39 81 76 18 b9 1b 5d 1b b9 e2 b1 18 b9
       0.0001292413 -0.00014539996 -0.00014816636 -0.00014562116
000060 b3 e9 1b b9 20 d3 15 39 7d e9 04 b9 a8 1d 18 39
       -0.00014869012 0.00014288398 -0.00012675482 0.00014506897
000070 e0 07 1b 39 16 4e 00 39 51 40 0e 39 67 4d 19 b9
       0.00014784886 0.0001223612 0.00013566135 -0.00014620052

base.mlp.fc1.2.weight f4 [32]
000000 d8 04 80 3f 5b f6 7f 3f 55 f6 7f 3f ab f7 7f 3f
       1.0001478 0.99985284 0.9998525 0.99987286
000010 d2 04 80 3f 74 f6 7f 3f 86 f6 7f 3f 7f 01 80 3f
       1.0001471 0.9998543 0.9998554 1.0000457
000020 5e 04 80 3f 97 03 80 3f 7c 04 80 3f 8a f6 7f 3f
       1.0001333 1.0001096 1.0001369 0.99985564
000030 c9 04 80 3f a2 fb 7f 3f 71 04 80 3f 1f f8 7f 3f
       1.000146 0.99993336 1.0001355 0.9998798
000040 ed f8 7f 3f ea f6 7f 3f b3 03 80 3f a2 04 80 3f
       0.99989206 0.99986136 1.0001129 1.0001414
000050 ca 04 80 3f fe f8 7f 3f 99 f6 7f 3f 2e fd 7f 3f
       1.0001462 0.99989307 0.99985653 0.99995697
000060 5a fd 7f 3f 5b 01 80 3f 5a 04 80 3f aa 04 80 3f
       0.9999596 1.0000414 1.0001328 1.0001423
000070 6d f9 7f 3f 6d f6 7f 3f e5 04 80 3f da f6 7f 3f
       0.9998997 0.9998539 1.0001494 0.9998604

base.mlp.fc1.2.bias f4 [32]
000000 eb 51 17 39 bc ec 17 b9 64 de 16 39 cb 8d 0c b9
       0.00014430999 -0.00014488673 0.00014387962 -0.00013404262
000010 1c 8f 1a b9 5a 0a 1a b9 3a ae 16 39 7b 93 15 b9
       -0.00014739897 -0.00014690441 0.00014370019 -0.00014264688
000020 7f 4f 19 b9 50 73 85 b8 c8 8e 13 39 6f 7a 16 b9
       -0.00014620832 -6.363413e-05 0.00014072203 -0.00014350725
000030 f1 5c 1a 39 00 d6 dd b8 f5 ee 92 b8 da 0a 13 39
       0.00014721208 -0.00010577962 -7.006332e-05 0.00014023055
000040 10 f2 14 39 97 e4 12 39 ea 9e 1b b9 71 89 16 39
       0.00014204555 0.00014008801 -0.00014841152 0.00014356316
000050 7f 04 18 39 cd 13 0d b9 32 5e 1a b9 ea 40 17 b9
       0.00014497525 -0.00013454184 -0.00014721675 -0.00014424665
000060 df d8 19 b9 28 ec 13 39 9c f8 12 b9 01 48 19 39
       -0.00014672008 0.00014106988 -0.00014016259 0.0001461804
000070 9b 09 1a 39 d0 ec 18 39 42 43 1a 39 b2 2b 19 b9
       0.00014690163 0.00014584069 0.0001471164 -0.00014607495

base.mlp.fc_h.0.weight f4 [32, 32]
000000 20 bd 79 bd 1c 76 ba 3d 92 a1 60 3e 2a e0 28 3f
       -0.06097138 0.09104559 0.21936634 0.6596705
000010 74 2b 27 be 3a 28 d7 3d 11 75 0e 3f 05 90 8e 3e
       -0.1632517 0.105057195 0.5564738 0.27844253
000020 c5 b5 c0 be 96 a9 cd bd 33 f4 21 be 54 9d cd bd
       -0.3763868 -0.100421116 -0.15815811 -0.100397736
000030 9b 1c 7c 3e b5 79 1f 3e c5 8e 67 bd e5 a4 c6 be
       0.24620287 0.15573771 -0.05653264 -0.3879768
000040 82 7d b0 3e 55 1e 3d be 87 f0 13 3e 14 3d c0 3e
       0.34470755 -0.18468602 0.14447223 0.375466
000050 c0 7b 2f 3e 48 25 4e 3e 48 52 6a be 56 a1 3a 3e
       0.1713705 0.20131409 -0.2288295 0.18225607
000060 0d 0e 45 bf ac 12 61 bc 8d cb fc bd 70 bd 81 bd
       -0.76974565 -0.013737362 -0.12343512 -0.063349605
000070 64 14 08 bd b2 52 23 3e a1 2a 92 bd c9 6f 10 3f
       -0.03322257 0.15949515 -0.07137037 0.5642057
000080 b8 95 1e 3e a8 b5 c8 bc 19 fb f9 bd 5c 7b 22 bd
       0.154868 -0.024500683 -0.12206096 -0.039668426
000090 4f 00 48 bf cd 4b e4 be 17 90 06 3f b7 5b 4f be
       -0.7812547 -0.4458908 0.52563614 -0.2024983
0000a0 48 9b ab 3d cd 95 80 3e e4 cd 23 bd 6e a6 31 be
       0.08379227 0.2511429 -0.039991274 -0.17348644
0000b0 db 58 c5 3e 16 1f 01 3e 01 35 27 be b6 ca e7 be
       0.38544354 0.12609515 -0.16328813 -0.45271844
0000c0 51 63 5f 3b aa 92 07 3e db c3 3a be 2e df 92 bd
       0.0034086297 0.13239542 -0.18238775 -0.071714744
0000d0 6f 2a b7 3d 54 43 2d 3e 53 cd d9 3d 34 16 14 bf
       0.089436404 0.16920215 0.106348656 -0.5784638
0000e0 90 e2 0d 3e 5b 4c d2 3d 88 f4 ec 3e 21 96 73 be
       0.13855958 0.1026847 0.46280313 -0.23787738
0000f0 66 fb cf be d4 ae 52 be 9d b1 3b be b1 4e ba be
       -0.4062149 -0.20574504 -0.18329473 -0.36388162
000100 b5 68 13 bf d1 85 78 be fc 86 db bd 37 e8 f1 3d
       -0.57581645 -0.24269797 -0.107191056 0.118118696
000110 8d 08 b1 3e b5 01 0b bf a1 92 05 be 11 a4 ad be
       0.34576836 -0.5429948 -0.13044216 -0.33914235
000120 67 44 f2 bd 97 f3 3b be ff 19 86 be fa 9b b1 3e
       -0.11829453 -0.18354641 -0.26191708 0.34689313
000130 d0 ed 8f 3e 10 49 02 3e 98 82 32 3d ef c5 d6 be
       0.28111124 0.12723184 0.043581575 -0.41947886
000140 55 d3 00 be a8 70 16 3f 92 95 4d be c7 21 56 3e
       -0.12580617 0.5876565 -0.20076588 0.20911323
000150 7f 88 9b bd b4 6d 0a 3f 20 74 cb 3c ce 8b 1f 3e
       -0.07594394 0.54073644 0.024835646 0.15580675
000160 70 c0 e5 bd a4 04 6b be ca 26 34 be a5 ba f5 bd
       -0.11218345 -0.22950989 -0.17592922 -0.1199849
000170 ff 1a f4 3e ff a0 ba bd ea 41 8e 3e 4c ec ac be
       0.47676846 -0.09112739 0.27784663 -0.3377403
000180 22 7b d6 be 53 b0 a3 3d ab 6c d9 3e d6 da 90 be
       -0.41890818 0.079926156 0.4246572 -0.2829196
000190 83 22 ec be 0d 01 f6 3c 95 4a 00 3f 28 23 21 be
       -0.4612008 0.030029798 0.50113803 -0.15736067
0001a0 c2 b8 87 3e a7 8b 20 be 4e be 43 be 9a 03 7d 3e
       0.26508147 -0.15678273 -0.19115564 0.24708405
0001b0 9d 74 f0 be e1 3b 47 3e 7d fe c3 3e 95 14 8e 3e
       -0.4696397 0.19456436 0.38280097 0.27750078
0001c0 6d 4f 07 3f 12 a3 80 3e 81 d4 cd 3d d4 0c 38 be
       0.5285557 0.25124413 0.100502975 -0.17973644
0001d0 aa ef 48 bf 03 0e 79 bc 24 40 62 bd a5 33 48 bc
       -0.784907 -0.015201095 -0.05523695 -0.012219344
0001e0 a3 3e 1c be e3 47 91 3e 4a 70 4a be a1 64 d0 3c
       -0.15258269 0.28375158 -0.19769397 0.025438609
0001f0 32 5c 56 3d 31 33 b5 3d 0e 0d 10 3d ca 30 df bd
       0.052334018 0.088476546 0.0351687 -0.10897978
000200 b7 c7 ef be 92 b5 a5 be 37 c6 8e 3e a4 a2 87 3c
       -0.46832058 -0.3236509 0.278856 0.016557045
000210 d4 c9 8d bd 9f a1 53 3e 66 d3 e1 3d 41 ec 12 be
       -0.06923261 0.20667122 0.11026649 -0.14347936
000220 b4 5d 03 3f 20 a5 76 3e 84 22 ed 3d 97 9f b0 3d
       0.51314855 0.24086428 0.11578849 0.08624189
000230 d6 2a 7f 3e a7 a8 90 3d 88 90 1d bf 3e 9e 03 3f
       0.24918684 0.07063418 -0.6154866 0.51413333
000240 58 3c ce 3d 52 2d 0e 3d 61 13 c3 bd be 5f 15 3d
       0.100701034 0.03471119 -0.095251806 0.03646826
000250 6e 21 cf 3e 73 bc 1c bd 4b d3 ba be 4c 02 a7 3e
       0.40455192 -0.038265657 -0.3648933 0.3261894
000260 a8 27 34 bd 48 37 5d bd 6a 8e 12 3f 1d 2e 6e be
       -0.04398313 -0.0540078 0.57248557 -0.23259778
000270 ee 0e 12 3e 23 01 1e 3f ca f9 60 3d 29 c5 23 be
       0.14263508 0.61720484 0.054925717 -0.1599318
000280 fa 02 3a bd cf a5 52 3e 06 72 a4 3e 12 75 cb be
       -0.045412995 0.20571063 0.32118243 -0.39737755
000290 d5 6e 2d be ff 63 53 3f 1c 85 1c be 9f fa de bd
       -0.1693681 0.82574457 -0.15285152 -0.10887646
0002a0 36 95 16 bf b1 09 be bd 96 ed 79 3d 01 dd 95 be
       -0.5882143 -0.09279192 0.061017595 -0.29270175
0002b0 5d 9f ab 3e 43 83 03 3d 74 70 37 3e 05 4b 0c bd
       0.33520022 0.032107603 0.17913991 -0.03425123
0002c0 5e 51 5f 3e 53 7a ca 3e 7c fd b5 bd 2d f5 ae 3e
       0.21808383 0.3954645 -0.08886239 0.3417143
0002d0 d7 44 bd 3e 1e ba 7c 3e e8 f8 9e 3e 4f 86 c3 bd
       0.36966583 0.24680373 0.31049275 -0.09547102
0002e0 c8 a7 9a 3e 3a f0 b2 3e 0d b3 76 be ee 2e 67 be
       0.30206132 0.34948903 -0.2409174 -0.22576496
0002f0 0d 65 0a 3e 08 5f 8c 3e cb 47 8e bd a8 00 94 be
       0.1351511 0.27416253 -0.06947287 -0.2890675
000300 53 0d 84 3e a2 0a 0a be 17 ba 2e 3e a2 5f c0 bd
       0.25791416 -0.13480619 0.17063175 -0.093932405
000310 dd a1 1a bf e1 a4 ca bd d8 3d d2 be e4 e0 d2 be
       -0.60403234 -0.098947294 -0.41062808 -0.41187203
000320 33 c3 bf be 5c 52 13 bd ad 29 ed bc 1b 29 03 3f
       -0.37453613 -0.035967216 -0.028950537 0.51234597
000330 ac ff 47 3e 2b 97 e7 be e1 4b 9f bc 0f be c2 be
       0.19531125 -0.4523252 -0.019445362 -0.38035628
000340 95 fd 38 3e a6 74 c7 bd d6 3b f2 bd 82 ea 0c be
       0.18065484 -0.09739046 -0.11827819 -0.13761333
000350 57 ae 2f be d5 e6 5f be 96 f8 9f be 8e 45 47 3f
       -0.17156349 -0.21865399 -0.31244344 0.7784051
000360 db a8 a9 3e a1 de a1 3d ac 11 b6 3d b5 bc 0c be
       0.3313664 0.07903791 0.088900894 -0.13743861
000370 3e 4c 14 be 4c 01 f1 39 da 38 e3 3d ea 92 af 3e
       -0.14482209 0.00045968068 0.11094828 0.34291774
000380 ea 57 17 3f 69 23 bf be 02 3c d2 bd f5 ca 73 bd
       0.5911852 -0.37331703 -0.10265352 -0.059519727
000390 13 89 34 be ed 46 9c 3e 8b b7 1f 3e d9 0d 53 bd
       -0.17630415 0.30522862 0.1559736 -0.051526878
0003a0 c6 11 06 3f 97 0b 10 bf 4c af 7a 3e 21 a1 5d 3e
       0.5237087 -0.56267685 0.24480933 0.21643497
0003b0 a4 cb 40 bd e6 85 c5 3e 64 d9 cf 3d e6 d5 92 bd
       -0.047069207 0.3857872 0.10148886 -0.07169704
0003c0 25 e9 8b bc 56 c5 cd bd f6 b0 09 be 69 89 7e be
       -0.017078945 -0.100474045 -0.13446411 -0.24857105
0003d0 34 90 f5 3d 41 d4 10 3f c6 9a 15 3f 3b 45 d5 3d
       0.11990395 0.56573874 0.5843929 0.10413595
0003e0 09 13 e9 3c 72 b5 00 be b7 0b cb 3d 65 01 81 be
       0.02845146 -0.12569216 0.09914344 -0.25196376
0003f0 4c 56 88 3e eb d6 6f 3d d2 6d b2 3e 31 14 e3 3e
       0.2662834 0.05855457 0.3484941 0.44351342

base.mlp.fc_h.0.bias f4 [32]
000000 00 00 00 00 00 00 00 00 00 00 00 00 00 00 00 00
       0.0 0.0 0.0 0.0
000010 00 00 00 00 00 00 00 00 00 00 00 00 00 00 00 00
       0.0 0.0 0.0 0.0
000020 00 00 00 00 00 00 00 00 00 00 00 00 00 00 00 00
       0.0 0.0 0.0 0.0
000030 00 00 00 00 00 00 00 00 00 00 00 00 00 00 00 00
       0.0 0.0 0.0 0.0
000040 00 00 00 00 00 00 00 00 00 00 00 00 00 00 00 00
       0.0 0.0 0.0 0.0
000050 00 00 00 00 00 00 00 00 00 00 00 00 00 00 00 00
       0.0 0.0 0.0 0.0
000060 00 00 00 00 00 00 00 00 00 00 00 00 00 00 00 00
       0.0 0.0 0.0 0.0
000070 00 00 00 00 00 00 00 00 00 00 00 00 00 00 00 00
       0.0 0.0 0.0 0.0

base.mlp.fc_h.2.weight f4 [32]
000000 00 00 80 3f 00 00 80 3f 00 00 80 3f 00 00 80 3f
       1.0 1.0 1.0 1.0
000010 00 00 80 3f 00 00 80 3f 00 00 80 3f 00 00 80 3f
       1.0 1.0 1.0 1.0
000020 00 00 80 3f 00 00 80 3f 00 00 80 3f 00 00 80 3f
       1.0 1.0 1.0 1.0
000030 00 00 80 3f 00 00 80 3f 00 00 80 3f 00 00 80 3f
       1.0 1.0 1.0 1.0
000040 00 00 80 3f 00 00 80 3f 00 00 80 3f 00 00 80 3f
       1.0 1.0 1.0 1.0
000050 00 00 80 3f 00 00 80 3f 00 00 80 3f 00 00 80 3f
       1.0 1.0 1.0 1.0
000060 00 00 80 3f 00 00 80 3f 00 00 80 3f 00 00 80 3f
       1.0 1.0 1.0 1.0
000070 00 00 80 3f 00 00 80 3f 00 00 80 3f 00 00 80 3f
       1.0 1.0 1.0 1.0

base.mlp.fc_h.2.bias f4 [32]
000000 00 00 00 00 00 00 00 00 00 00 00 00 00 00 00 00
       0.0 0.0 0.0 0.0
000010 00 00 00 00 00 00 00 00 00 00 00 00 00 00 00 00
       0.0 0.0 0.0 0.0
000020 00 00 00 00 00 00 00 00 00 00 00 00 00 00 00 00
       0.0 0.0 0.0 0.0
000030 00 00 00 00 00 00 00 00 00 00 00 00 00 00 00 00
       0.0 0.0 0.0 0.0
000040 00 00 00 00 00 00 00 00 00 00 00 00 00 00 00 00
       0.0 0.0 0.0 0.0
000050 00 00 00 00 00 00 00 00 00 00 00 00 00 00 00 00
       0.0 0.0 0.0 0.0
000060 00 00 00 00 00 00 00 00 00 00 00 00 00 00 00 00
       0.0 0.0 0.0 0.0
000070 00 00 00 00 00 00 00 00 00 00 00 00 00 00 00 00
       0.0 0.0 0.0 0.0

base.mlp.fc2.0.0.weight f4 [32, 32]
000000 d4 53 7a bd c7 2f ba 3d 90 83 60 3e 0f e8 28 3f
       -0.0611151 0.09091144 0.21925187 0.65979093
000010 b7 2e 27 be 19 50 d7 3d 7f 70 0e 3f 51 96 8e 3e
       -0.16326414 0.10513324 0.55640405 0.27849057
000020 50 b3 c0 be b9 c7 cd bd 24 d8 21 be bc 93 cd bd
       -0.37636805 -0.1004786 -0.15805107 -0.10037944
000030 f3 23 7c 3e 33 5e 1f 3e 0d 26 68 bd ba 98 c6 be
       0.24623089 0.15563278 -0.056676913 -0.38788396
000040 46 73 b0 3e 9b 31 3d be fa 16 14 3e 83 4e c0 3e
       0.34462947 -0.18475954 0.1446189 0.375599
000050 4d 6d 2f 3e 2d 2b 4e 3e 76 45 6a be b7 c4 3a 3e
       0.17131539 0.20133658 -0.2287806 0.18239103
000060 6e 0f 45 bf f3 a7 5f bc 9c 82 fc bd 21 c4 81 bd
       -0.7697667 -0.013650882 -0.12329599 -0.06336237
000070 1f 15 08 bd b6 41 23 3e 42 08 92 bd 46 68 10 3f
       -0.033223268 0.15943035 -0.07130481 0.5640911
000080 3f 9c 1e 3e 47 81 c7 bc 99 48 fa bd 07 e5 21 bd
       0.1548929 -0.024353636 -0.12220878 -0.039525058
000090 ef 09 48 bf 82 38 e4 be 64 86 06 3f c7 7e 4f be
       -0.7814016 -0.44574362 0.52548814 -0.20263205
0000a0 39 4d ab 3d 60 82 80 3e 1f 34 23 bd 34 80 31 be
       0.083643384 0.25099468 -0.03984463 -0.17334062
0000b0 1d 6c c5 3e a9 43 01 3e e2 56 27 be 2a dd e7 be
       0.38559046 0.12623467 -0.16341737 -0.45285922
0000c0 3f cf 55 3b e3 6b 07 3e e5 e9 3a be 4a ce 92 bd
       0.003262475 0.1322475 -0.18253286 -0.07168253
0000d0 a7 77 b7 3d a9 1d 2d 3e 7f 18 da 3d 43 0e 14 bf
       0.08958369 0.16905846 0.106492035 -0.5783426
0000e0 37 bc 0d 3e b5 99 d2 3d 80 f2 ec 3e 5f 70 73 be
       0.1384133 0.102832235 0.46278763 -0.23773335
0000f0 60 e8 cf be 9c d5 52 be f6 8a 3b be a2 3b ba be
       -0.40606976 -0.20589298 -0.18314728 -0.3637362
000100 77 72 13 bf c0 66 78 be 5f d5 db bd 21 37 f2 3d
       -0.57596534 -0.24257946 -0.10734057 0.11826921
000110 30 f6 b0 3e f1 f7 0a bf d6 b9 05 be a9 94 ad be
       0.34562826 -0.5428458 -0.13059172 -0.3390248
000120 30 91 f2 bd d2 1a 3c be a0 06 86 be 61 af b1 3e
       -0.118440986 -0.18369606 -0.2617693 0.34704116
000130 26 01 90 3e 96 26 02 3e c5 e5 31 3d 51 d5 d6 be
       0.28125876 0.12710032 0.043432016 -0.41959623
000140 7c f9 00 be cc 66 16 3f c1 83 4d be 19 46 56 3e
       -0.1259517 0.58750606 -0.20069791 0.20925178
000150 1b 3a 9b bd 5d 64 0a 3f af aa cc 3c b5 ac 1f 3e
       -0.07579442 0.5405939 0.024983732 0.15593226
000160 9d 77 e5 bd 56 de 6a be ac 0d 34 be 5b 8e f5 bd
       -0.11204455 -0.22936377 -0.1758334 -0.11990043
000170 0b 0c f4 3e 60 ef ba bd 8b 54 8e 3e 31 f9 ac be
       0.47665438 -0.091276884 0.27798876 -0.33783868
000180 fd 74 d6 be 2d 97 a3 3d db 67 d9 3e cc d4 90 be
       -0.4188613 0.07987819 0.42462048 -0.2828735
000190 d8 1c ec be 8b 5c f5 3c 40 4e 00 3f f9 08 21 be
       -0.46115756 0.029951354 0.501194 -0.15726079
0001a0 34 b0 87 3e a4 7a 20 be 10 c3 43 be 10 fe 7c 3e
       0.2650162 -0.15671784 -0.19117379 0.24706292
0001b0 d5 80 f0 be 2b 29 47 3e 5d f7 c3 3e b5 25 8e 3e
       -0.4697329 0.19449298 0.3827466 0.27763143
0001c0 37 52 07 3f 2e a9 80 3e 43 e7 cd 3d a5 0a 38 be
       0.52859825 0.25129074 0.10053875 -0.1797281
0001d0 35 f8 48 bf 3b 5c 78 bc 56 5e 62 bd f3 83 49 bc
       -0.78503734 -0.015158708 -0.055265747 -0.012299526
0001e0 fc 2d 1c be d6 45 91 3e 71 4d 4a be 79 74 d0 3c
       -0.15251917 0.28373593 -0.19756104 0.025446163
0001f0 97 1c 56 3d 65 53 b5 3d 77 7e 10 3d 6d 67 df bd
       0.05227336 0.08853797 0.035276856 -0.10908399
000200 6d da ef be 3d a2 a5 be c0 b2 8e 3e d8 d9 88 3c
       -0.46846333 -0.3235034 0.2787075 0.016705438
000210 31 15 8e bd 00 c8 53 3e 1a 87 e1 3d 3b 11 13 be
       -0.06937636 0.20681763 0.11012097 -0.14362042
000220 4b 60 03 3f a5 7e 76 3e fd 6d ed 3d ea ec b0 3d
       0.51318806 0.24071749 0.11593244 0.08638938
000230 98 50 7f 3e f5 f0 90 3d 41 9a 1d bf 88 a6 03 3f
       0.24933088 0.07077209 -0.615635 0.5142598
000240 e7 f0 cd 3d 12 94 0d 3d 9c ed c2 bd 13 fb 15 3d
       0.10055714 0.03456504 -0.09517977 0.036616396
000250 c5 34 cf 3e d5 52 1d bd 1d c0 ba be 58 15 a7 3e
       0.40469947 -0.038409073 -0.36474696 0.3263347
000260 39 bc 34 bd 95 9f 5c bd 1b 89 12 3f 11 08 6e be
       -0.044124816 -0.053863127 0.57240456 -0.23245265
000270 63 33 12 3e 8b f7 1d 3f 24 91 61 3d 0c a2 23 be
       0.14277415 0.61705846 0.055070058 -0.15979785
000280 57 92 39 bd 60 cb 52 3e 2f 5f a4 3e 3e 62 cb be
       -0.045305576 0.20585394 0.3210387 -0.3972339
000290 07 94 2d be 40 6d 53 3f 90 aa 1c be 23 46 df bd
       -0.16950999 0.8258858 -0.1529944 -0.109020494
0002a0 ab 8c 16 bf 3d 54 be bd 7d 84 7a 3d 26 ca 95 be
       -0.5880839 -0.09293411 0.061161507 -0.2925579
0002b0 87 b2 ab 3e 61 09 04 3d e1 4b 37 3e 3d e2 0c bd
       0.33534643 0.032235507 0.1790004 -0.034395445
0002c0 d8 2d 5f 3e de 67 ca 3e 65 3f b6 bd 36 06 af 3e
       0.21794832 0.3953237 -0.0889881 0.34184426
0002d0 6c 57 bd 3e 54 96 7c 3e 7e 0b 9f 3e 29 44 c3 bd
       0.3698076 0.2466672 0.31063455 -0.09534485
0002e0 cd 94 9a 3e 89 fe b2 3e 14 9b 76 be 6c 0a 67 be
       0.3019165 0.3495982 -0.24082595 -0.2256257
0002f0 de 73 0a 3e 83 4c 8c 3e 7f fb 8d bd 6b ee 93 be
       0.13520762 0.27402124 -0.06932735 -0.28892836
000300 c0 05 84 3e ea 30 0a be f7 d3 2e 3e 4a 9e c0 bd
       0.25785637 -0.13495222 0.17073046 -0.09405191
000310 85 98 1a bf 43 e3 ca bd f1 2a d2 be 31 ce d2 be
       -0.60388976 -0.09906628 -0.41048387 -0.41172937
000320 af d4 bf be bc cf 12 bd 66 5a ee bc c0 20 03 3f
       -0.37466952 -0.035842642 -0.02909584 0.5122185
000330 6b d9 47 3e 0c 86 e7 be a3 cc 9f bc 78 ab c2 be
       0.19516532 -0.45219457 -0.019506758 -0.38021445
000340 4d 22 39 3e f0 31 c7 bd 17 80 f2 bd 6d 0c 0d be
       0.18079491 -0.09726322 -0.118408374 -0.13774271
000350 93 cd 2f be b5 f9 5f be 7f 07 a0 be b0 4e 47 3f
       -0.17168264 -0.218726 -0.3125572 0.7785444
000360 b1 bb a9 3e ab cf a1 3d 13 c7 b5 3d c3 da 0c be
       0.3315101 0.07900938 0.08875861 -0.13755326
000370 4d 28 14 be 2c 86 1b 3a 41 eb e2 3d 3b a0 af 3e
       -0.14468499 0.0005932774 0.11080027 0.34301934
000380 85 61 17 3f 1b 36 bf be b7 ee d1 bd 32 65 74 bd
       0.5913318 -0.37345967 -0.10250609 -0.05966682
000390 5a 64 34 be a6 33 9c 3e 29 de 1f 3e f9 a7 53 bd
       -0.17616406 0.30508155 0.15612091 -0.051673863
0003a0 52 1b 06 3f fe 01 10 bf f5 88 7a 3e 55 7b 5d 3e
       0.5238544 -0.5625304 0.24466307 0.21629079
0003b0 63 64 41 bd 24 99 c5 3e 08 27 d0 3d a4 88 92 bd
       -0.047214877 0.385934 0.101636946 -0.071549684
0003c0 90 b7 8a bc 02 78 cd bd 7e 8f 09 be e8 af 7e be
       -0.016933233 -0.10032655 -0.13433644 -0.2487179
0003d0 1a 43 f5 3d b2 ca 10 3f 06 9e 15 3f 83 8d d5 3d
       0.11975689 0.5655929 0.5844425 0.10427382
0003e0 45 e2 e7 3c f7 db 00 be 06 bf ca 3d 21 ef 80 be
       0.028306136 -0.1258391 0.09899716 -0.2518244
0003f0 b6 68 88 3e c8 71 70 3d 9b 5a b2 3e 81 26 e3 3e
       0.26642388 0.05870226 0.3483475 0.44365314

base.mlp.fc2.0.0.bias f4 [32]
000000 43 fe 83 38 69 c3 1a 39 93 e9 1c 39 76 a1 8b b8
       6.293927e-05 0.0001475938 0.00014964333 -6.658111e-05
000010 89 97 19 39 d1 95 14 39 6a 5e 06 b9 d8 6d 1a b9
       0.00014647668 0.00014170191 -0.00012814408 -0.00014727504
000020 d4 7c 1b 39 3d 33 1a b9 b1 ea 19 b9 79 33 10 b9
       0.00014828454 -0.00014705672 -0.00014678646 -0.00013752085
000030 e5 c4 19 39 d4 0f 12 39 43 a8 15 b9 75 cd c3 38
       0.00014664566 0.00013929541 -0.0001427243 9.336594e-05
000040 93 4b 13 39 b7 44 1c b9 00 5f 15 b9 c4 2c 18 39
       0.00014047166 -0.00014902918 -0.00014245138 0.00014512526
000050 bd 9a 13 39 20 64 11 b9 07 1c 19 b9 ed dc 02 b9
       0.00014076657 -0.00013865577 -0.00014601658 -0.00012480067
000060 34 87 c9 38 f7 61 18 b9 26 93 13 39 ea 96 19 39
       9.6096104e-05 -0.00014532344 0.0001407383 0.00014647437
000070 68 4c 18 b9 a7 6c c3 37 b2 3e 15 b9 96 e6 19 39
       -0.00014524313 2.3296407e-05 -0.00014233103 0.00014677117

base.mlp.fc2.0.2.weight f4 [32]
000000 29 f8 7f 3f 77 f6 7f 3f 04 fb 7f 3f b5 04 80 3f
       0.9998804 0.9998545 0.99992394 1.0001436
000010 26 f7 7f 3f 89 fb 7f 3f 97 f6 7f 3f 79 03 80 3f
       0.99986494 0.9999319 0.9998564 1.000106
000020 74 ff 7f 3f ad 03 80 3f 52 04 80 3f a0 f6 7f 3f
       0.99999166 1.0001122 1.0001318 0.99985695
000030 6e f7 7f 3f df 04 80 3f 77 f6 7f 3f 34 03 80 3f
       0.9998692 1.0001487 0.9998545 1.0000978
000040 4f f6 7f 3f c9 04 80 3f a7 04 80 3f c1 04 80 3f
       0.9998521 1.000146 1.000142 1.0001451
000050 9a f6 7f 3f c1 04 80 3f e4 04 80 3f fe fa 7f 3f
       0.9998566 1.0001451 1.0001493 0.9999236
000060 3f f7 7f 3f 94 f8 7f 3f d0 04 80 3f 16 04 80 3f
       0.9998664 0.99988675 1.0001469 1.0001247
000070 ae f6 7f 3f df 04 80 3f 70 f6 7f 3f d2 04 80 3f
       0.9998578 1.0001487 0.9998541 1.0001471

base.mlp.fc2.0.2.bias f4 [32]
000000 c4 fa 00 b9 3b 22 1a 39 40 16 11 39 d7 97 12 b9
       -0.00012300449 0.00014699336 0.00013836566 -0.0001398021
000010 7e 04 1c 39 d9 1d 18 39 4d 04 17 b9 d4 04 15 b9
       0.00014878993 0.00014506969 -0.00014402084 -0.00014211546
000020 ce ac 19 39 f2 c2 19 b9 db 4c 17 b9 46 60 16 b9
       0.00014655592 -0.0001466384 -0.00014429113 -0.0001434098
000030 b3 1c 1a 39 e4 fc 1a b9 84 6c 16 b9 14 fa ce 37
       0.00014697276 -0.00014780794 -0.0001434554 2.4673565e-05
000040 35 04 19 39 e9 26 1a b9 df 76 18 b9 80 0e 1a 39
       0.00014592784 -0.0001470108 -0.00014540133 0.00014691986
000050 46 9b 17 39 b7 30 19 b9 04 f9 19 b9 6b c7 16 b9
       0.00014458326 -0.00014609365 -0.00014683983 -0.00014379404
000060 fc 92 18 39 a5 f4 18 b9 f2 2f 1a 39 64 15 18 39
       0.00014550606 -0.00014586987 0.00014704445 0.00014503818
000070 c3 2c 18 b9 27 0d 38 38 29 04 19 b9 4a 81 19 39
       -0.00014512525 4.3881268e-05 -0.00014592767 0.00014639381

rnn.rnn.weight_ih_l0 f4 [96, 32]
000000 ab 11 7d bd 18 99 65 3d e0 60 ae 3d fe f1 bd bd
       -0.061784428 0.056054205 0.08514571 -0.09274672
000010 cc fa 0a bd ac ec 31 3e 00 be a3 3d 4a 5a 5f 3d
       -0.033930585 0.1737544 0.07995224 0.054529466
000020 2c 3b 01 be 64 ab 22 be 62 17 bb 3d 80 b1 bf bd
       -0.12620229 -0.15885693 0.09135319 -0.09360027
000030 48 71 1f be a4 cd 6a bc 40 aa 18 3d d6 46 cc bd
       -0.15570557 -0.014331255 0.037271738 -0.099744484
000040 bb 18 82 3d a9 fa 82 bd 23 0b cd 3d 2e 57 c8 bd
       0.06352373 -0.06395466 0.1001189 -0.09782253
000050 b6 e1 85 bc ba 8a 20 3e ee d8 16 be 46 d5 de 3d
       -0.016342979 0.1567792 -0.1473119 0.108805224
000060 80 94 35 bd 85 ad 08 bc 75 65 45 3d 40 9a 29 bd
       -0.044331074 -0.0083421515 0.04819246 -0.04140687
000070 9c 19 8b bc 3d d4 44 bd 02 e3 a0 3d 25 de d8 3d
       -0.016979985 -0.04805397 0.07855798 0.10589246
000080 2b c8 5c 3e a3 ab 6f bc 05 92 53 bd 64 bf 36 bd
       0.21560733 -0.014628324 -0.051652927 -0.044616118
000090 f8 0c 44 be 1f 17 1a 3e 67 77 f3 3d 05 43 0b 3d
       -0.19145572 0.15047882 0.118880086 0.03399946
0000a0 83 3f bd bc 4a 18 6d 3d f8 81 9e 3c 9a 2a 62 3e
       -0.023101574 0.057884492 0.019349083 0.22086564
0000b0 85 97 fc 3d 71 9e b8 bc 77 b9 02 bd f4 34 d0 3d
       0.123335876 -0.022536488 -0.031915154 0.1016635
0000c0 37 b7 fd 3d 2a c3 d9 bc f9 1e cd 3d 2a 46 96 bd
       0.12388461 -0.02658232 0.10015673 -0.073376015
0000d0 68 c7 d0 bd 8a d2 07 be e5 41 3b 3d 9e c2 6c bc
       -0.10194284 -0.13263908 0.04571714 -0.014450697
0000e0 00 06 6d bd 15 c4 b0 3d 20 e9 07 bd 41 e8 37 3c
       -0.05786705 0.0863115 -0.03318131 0.011224807
0000f0 d1 cf 10 be 8a 8b e1 3b 04 44 7f 3d c3 5e 1a be
       -0.14141776 0.0068830894 0.062320724 -0.15075211
000100 f4 50 0f 3b ab 5e 9c 3c 48 7e 14 3c ed 92 56 bd
       0.002186832 0.01908811 0.009063311 -0.052386213
000110 ce b3 7d be b8 e0 18 be b9 05 9f 3d 85 2f db 3d
       -0.24775621 -0.14929473 0.077647634 0.10702423
000120 0b 6e 50 3d aa 9a 15 bd b3 46 3b be 44 3a f2 bd
       0.050886195 -0.036524452 -0.18288688 -0.118275195
000130 f6 17 65 bd d8 07 a3 bd 39 f4 f4 3d 52 f9 65 3d
       -0.055931054 -0.079604805 0.11960644 0.056145974
000140 a9 ee ba 3d d6 3b 42 3c 73 a6 d1 3d 30 d3 a2 bd
       0.09127552 0.011855086 0.10236826 -0.07950437
000150 5c 50 e3 bd 7e 4e 18 be 49 21 b3 3d 4d 09 c8 3d
       -0.11099312 -0.14873692 0.08746583 0.09767399
000160 6d cc 83 bd c3 04 9c bd bf 54 dc 3d a6 3f c2 bd
       -0.064354755 -0.07618096 0.107583515 -0.09484796
000170 92 c4 3c 3d 08 ad 55 3e b6 fb 2e bd af 76 03 3e
       0.0460859 0.20866787 -0.04272052 0.12838243
000180 19 da 58 3e 5a 04 4f bd 2b e3 17 be 67 20 05 be
       0.21176948 -0.05054126 -0.14832751 -0.13000642
000190 da a1 eb bc 32 71 c6 bd ec 25 e2 3b 53 a4 10 be
       -0.0287637 -0.09689559 0.0069014933 -0.14125185
0001a0 82 3f c6 bd fb ce b0 bc 16 e1 98 3c f8 ae d9 3d
       -0.09680082 -0.021583071 0.018662017 0.10629076
0001b0 9a 81 26 3e b7 a9 a2 3b d1 47 46 be 9c b8 94 bd
       0.16260377 0.0049640792 -0.19363333 -0.07261774
0001c0 ce 3f 0a 3e 77 63 f2 bd 89 9f d4 bd 03 ef 0e 3e
       0.13500902 -0.11835378 -0.103819914 0.13958363
0001d0 42 8d 02 bd 7a bc 48 3d 3c ea f5 bd 01 7e 05 3d
       -0.031872995 0.04900787 -0.12007567 0.03259087
0001e0 e4 3e cb bd 84 30 af 3c 8e 1f c4 3d 2c ca 54 3d
       -0.09924105 0.021385439 0.09576331 0.05195062
0001f0 75 2f 0d 3d 5e 1d 2c 3e 28 ca 73 3b e5 44 27 be
       0.034469087 0.16808078 0.0037199352 -0.16334875
000200 a9 4a 0e bd 18 17 88 bd e6 4b e3 bc bd 7d 9b 3d
       -0.03473917 -0.0664503 -0.027746152 0.07592342
000210 6b 2a 18 bd 6f e8 cf bc 8e 4a 6f bd 15 37 b5 3d
       -0.037149828 -0.025379388 -0.05842071 0.08848397
000220 40 89 7b 3b 94 7a b9 bd 93 e9 8d 3c 1b f8 62 bd
       0.0038381368 -0.09056583 0.01732329 -0.055412393
000230 95 85 a7 bc 75 03 95 bd 30 fe f4 3c e2 87 cf 3d
       -0.020449439 -0.0727605 0.029906362 0.101333395
000240 e2 33 38 bd 3e 3c 2d 3e 7c 2e d2 bd a5 cf c6 bc
       -0.044971354 0.16917512 -0.102627724 -0.024268935
000250 64 38 d5 3c 77 29 2e bc d6 bf 04 3e 2b 27 41 be
       0.026027866 -0.010630003 0.12963805 -0.18862598
000260 9d 8e e7 3d 82 1c 1f 3e bb 4b 43 be 93 1f 5c 3c
       0.11306498 0.15538219 -0.19071858 0.013435262
000270 f8 81 d5 3d 36 c9 c0 bd 09 62 de 3a b1 72 3d be
       0.1042518 -0.09413378 0.0016966473 -0.18500783
000280 4c 25 8e bd ad 62 05 3d 12 92 ea bd 1e 66 83 bc
       -0.069407076 0.032564808 -0.11453642 -0.016039904
000290 12 f1 65 bd 8e f0 23 3b 7a 66 64 bd 80 16 f1 bd
       -0.056138106 0.0025015208 -0.05576179 -0.1177187
0002a0 4f 75 43 3c cc 4b 20 3d 65 4e 8c 3c ac 11 9c 3c
       0.011929824 0.039134786 0.017127225 0.019051395
0002b0 5e af d5 bc 08 7b 00 3e fb 8a 40 be a9 bb 15 bd
       -0.026084598 0.12546933 -0.18803017 -0.03655592
0002c0 e2 de 74 bc 2e 72 12 be 28 80 17 3e bf 48 03 be
       -0.0149457175 -0.14301369 0.14794981 -0.12820719
0002d0 24 1e 10 3e c5 35 15 be 43 5a e0 3d cb 6a b6 bc
       0.14073998 -0.14571293 0.10954716 -0.02226772
0002e0 ae 63 a3 3c d7 0f 13 3e 70 ac 1a bd bc 0a 61 bd
       0.019944992 0.14361511 -0.037762105 -0.054941878
0002f0 26 c7 fa bd 30 b2 91 bd 73 97 cf 3d 12 aa ee 3c
       -0.12245016 -0.07114065 0.101363085 0.02913383
000300 f4 22 04 3d 5a 07 ea 3d f0 40 9f 3d 05 1e ec bd
       0.032259896 0.114271834 0.07776058 -0.11529163
000310 f5 43 d0 3d 4d fd 2a be e8 b0 dd 3d 17 31 52 3c
       0.10169212 -0.16698189 0.10824758 0.012829087
000320 4d 57 86 3e 33 2b 0e 3e 78 7d 31 bd 72 6c 05 3e
       0.2623848 0.13883667 -0.043332547 0.1302965
000330 7c 7d fb bd ff a3 2b 3c b2 97 5f 3c 10 80 69 bc
       -0.122797936 0.010476111 0.013647007 -0.014251724
000340 10 20 42 3e fd 06 a2 3d 02 3a e3 3c 78 9f 68 3d
       0.18957543 0.07911489 0.027737621 0.056792706
000350 be 40 82 3d cd 63 0a 3d ff eb 36 3d 0b ce 2b 3c
       0.06360005 0.033786584 0.044658657 0.010486136
000360 1b a9 74 bb 00 74 82 3d 78 d7 2c be 39 d8 46 3d
       -0.003733224 0.063697815 -0.1687907 0.04854605
000370 b7 42 d2 ba b3 80 ec 3d 65 73 46 bd 49 ce 54 bc
       -0.0016041611 0.11547985 -0.048449893 -0.012988635
000380 95 eb 65 be f9 18 4c 3b 8b 29 eb 3d 3c c4 1c be
       -0.22453149 0.0031142815 0.11482533 -0.15309232
000390 bd 85 2c 3e eb 0e 8e bd 21 b3 6d 3c 07 8a b4 3d
       0.16847892 -0.06936439 0.01450804 0.08815389
0003a0 91 ed 1f 3e b4 fd 66 bd 75 87 e9 3d ad 4e 13 3e
       0.15617968 -0.056394294 0.114027895 0.14385481
0003b0 06 d2 fb 3c d5 9c 97 bd 95 5e 2e bd 40 fd 1b be
       0.030739795 -0.0740296 -0.04257067 -0.15233326
0003c0 6a 71 14 be 96 59 ee 3c 5d b9 65 3d a4 10 0b be
       -0.14496389 0.029095452 0.05608498 -0.13580567
0003d0 f8 89 c4 3d 01 6a 35 bc b9 60 b5 bd 7f 77 0a bd
       0.09596628 -0.011072637 -0.08856339 -0.033805367
0003e0 97 0d a0 bb 5e 58 ac bd 89 82 50 3d aa 0d ad ba
       -0.0048844325 -0.08415292 0.050905738 -0.0013202925
0003f0 cb a0 dc 3c a2 f2 25 be 74 49 c1 bd 06 5a cc 3a
       0.02693214 -0.16205838 -0.09437838 0.0015590794

rnn.rnn.weight_hh_l0 f4 [96, 32]
000000 1f 7a 2f bd 92 8b f8 ba a4 8f 76 3d 1a 0c 1f 3e
       -0.042841073 -0.0018962494 0.06019558 0.1553196
000010 0e d8 42 3d ef bb 1f be 1e a9 32 bc 4e 78 9c bd
       0.047569327 -0.15599035 -0.0109045785 -0.07640134
000020 8a 33 ae 3c cc 7f 69 bd f5 ee e7 bd 57 a5 05 3e
       0.02126481 -0.057006642 -0.11324874 0.13051353
000030 23 72 78 3d 2d 1c 2a bd 0b ad 4b 3e e9 7a ad 3c
       0.060655724 -0.041530777 0.1989023 0.021176772
000040 89 f8 b7 3d d2 52 c8 3d fc 40 b5 bd 5f 2e 18 3e
       0.08982951 0.09781422 -0.088502854 0.14861439
000050 08 63 dd bd 98 10 8f 3c f6 c7 40 3d ee 92 4d bd
       -0.10809904 0.017463967 0.047065698 -0.05018895
000060 40 1c a8 3d 07 f5 b7 3d a9 2f 4c 3c c3 2a c1 bd
       0.08208513 0.08982282 0.012462535 -0.09431984
000070 66 b6 16 be a7 28 ab 3c a0 79 d0 3d a9 62 05 bd
       -0.14718017 0.020893408 0.10179448 -0.032564793
000080 85 4d aa 3d bf 39 1f be 2c be 5c be 15 87 58 be
       0.08315567 -0.15549372 -0.2155692 -0.2114528
000090 3d f9 36 be ee 10 0a be 25 11 23 3d 97 bf e2 bd
       -0.17868514 -0.1348302 0.039811272 -0.11071699
0000a0 5b ac 6e 3d 15 b4 fa 3c 27 4a 32 3e a6 da ca bd
       0.05826984 0.030603448 0.174111 -0.09904985
0000b0 f4 c0 d4 3d ae 8e ff bd 2a 1b 59 3d 25 f6 3e be
       0.103883654 -0.12478386 0.05300442 -0.18648584
0000c0 f2 29 85 bd 89 d9 bf 3d 8c 05 d1 bd a8 b5 b4 bd
       -0.06502141 0.093676634 -0.10206136 -0.08823711
0000d0 6b dd aa 3b 3a 6b df 3d a5 78 e2 bd dd 47 1c 3d
       0.0052143834 0.10909124 -0.11058167 0.03815447
0000e0 78 4f 64 3e 98 9d c4 3c a2 5b 2e 3d f8 45 34 3d
       0.2229594 0.024000928 0.042567857 0.04401204
0000f0 e2 39 20 3d fa 6a 16 3d 6a b9 4c be 3a 8e e3 3d
       0.0391177 0.036723115 -0.19992605 0.11111112
000100 cd 1e 55 bd 99 29 01 3e 52 64 05 be 31 24 11 be
       -0.052031327 0.12613524 -0.1302655 -0.14173962
000110 88 b8 5e bd 09 eb bb 3d 7a 31 7e 3c 7f c0 99 3d
       -0.0543752 0.09175689 0.015514726 0.07507419
000120 90 14 1e 3d 3f f9 a6 bd c8 67 bf bb 1d e8 b9 3d
       0.03859383 -0.08153009 -0.005841229 0.09077475
000130 5f 23 c1 3b 8c 4c 78 3d 39 43 8f 3d 41 e9 65 be
       0.005894109 0.060619876 0.069952436 -0.2245226
000140 a5 ab 05 3d 2c be 18 be 0f 9a 16 bc f0 40 96 3c
       0.032634396 -0.14916295 -0.009192004 0.018341511
000150 65 56 ae 3d ba 97 01 be 9f 4d 7b bb 38 ca 20 3d
       0.08512572 -0.12655535 -0.0038345826 0.03925535
000160 82 cc 03 be 1b 96 f4 bd ab c8 1e bd 8c 02 0a 3e
       -0.12870982 -0.11942693 -0.03876559 0.13477534
000170 29 28 a8 bd 8c b1 d9 3d 03 a3 cd bd 62 b5 15 bd
       -0.08210785 0.106295675 -0.10040858 -0.036549933
000180 57 5e 83 3e fe f2 43 3c d5 02 94 3d 58 05 3f 3c
       0.25657913 0.011959789 0.07227103 0.011658989
000190 f9 7b 23 bd d5 be ea 3c 69 4f 1c be 73 0a 3f 3c
       -0.03991315 0.028655449 -0.15264668 0.011660206
0001a0 43 18 85 bc a0 4c 5d 3c 94 74 41 3d 34 78 d7 3d
       -0.01624692 0.013507038 0.04723032 0.10520974
0001b0 11 3e 94 bc ff f3 65 3c 8e cd 80 3d 1d f1 83 3d
       -0.018096002 0.014035224 0.062892064 0.06442473
0001c0 b1 5e 3a 3c 4a 8d 6a bd 51 8f 10 3e 35 3a 9d bd
       0.011375115 -0.05726365 0.14117171 -0.07677118
0001d0 7c ff 0f 3e 44 f6 47 bd ba 1e 49 3c bf da 26 3e
       0.14062303 -0.04881884 0.012275392 0.16294383
0001e0 b7 06 f6 3c 1c 29 8d be 68 ed 05 bc 84 7c f7 3d
       0.030032499 -0.27570426 -0.008174278 0.12084296
0001f0 05 e5 ac 3c c5 c7 21 be a6 07 ab 3d 34 fb 85 bd
       0.021105299 -0.15798862 0.08351068 -0.06542054
000200 5b 50 f2 bb 9d 1c af bb 17 f4 28 3d fc 63 07 3e
       -0.007394833 -0.005343987 0.041248407 0.13221735
000210 f5 0f ec 3c 63 8e 3b 3e a6 84 59 3e f1 58 24 be
       0.028816203 0.18316035 0.21242008 -0.16049553
000220 e2 13 d8 bd 13 f3 7e 3b b8 61 11 3d 97 9e 57 bd
       -0.10550667 0.0038902208 0.035493582 -0.052641477
000230 88 5c a5 3d 53 c0 55 be 18 6c 81 3c d1 0a 13 3e
       0.080742896 -0.20874147 0.015798613 0.14359595
000240 0b 63 bc bd e2 0d d8 3d 2e 9c c2 3d 54 b3 a2 3d
       -0.091985784 0.10549523 0.09502445 0.079443604
000250 62 f4 a1 bd 0d 30 5a bd 5f 0d 6c 3d 72 14 38 bd
       -0.079079404 -0.05326848 0.05762994 -0.044941373
000260 09 3e 18 bc 06 dc 27 bc b7 d7 e9 3c cb 78 5a 3d
       -0.009292134 -0.010245329 0.028545244 0.053337853
000270 a9 42 f5 3b 8e 15 cd 3d 76 53 1e 3e 87 60 d6 bd
       0.007484753 0.10013877 0.15461525 -0.1046763
000280 fc e8 dd 3c 43 ba 5c 3d 87 28 c3 bd a2 2f f7 3d
       0.027088635 0.05388857 -0.09529214 0.12069632
000290 51 aa 1f bd 53 29 0d be ba ea 17 3e f8 9d 0d 3c
       -0.038980786 -0.13785295 0.14835635 0.00864362
0002a0 72 cd a1 bd 31 bc bd 3d 0e 6c d1 3d 90 89 b7 3d
       -0.07900514 0.0926441 0.10225688 0.08961785
0002b0 c7 54 06 3d b0 7d c7 3b b4 16 06 3e bf 18 70 3d
       0.032795694 0.006087981 0.13094598 0.05861735
0002c0 04 5a 0c 3e e2 c0 74 be 05 17 ff 3d 7c cb 2e be
       0.13706213 -0.23901704 0.124555625 -0.1706981
0002d0 f7 10 81 3d 2c 43 90 3c 28 4f c9 bd f6 ed f4 3d
       0.06302064 0.017610155 -0.09829551 0.1195945
0002e0 aa 2b e2 3c af 30 ca bd 33 6b aa bd 62 87 af bc
       0.027608711 -0.09872567 -0.08321228 -0.02142686
0002f0 51 7d ff 3d fe 88 99 bd d0 1e 20 3c 0b ad cc bc
       0.12475074 -0.07496832 0.009772971 -0.024984857
000300 a9 75 79 bd 6d e4 93 3d 78 fb 12 3e 58 73 8e bd
       -0.060903225 0.07221303 0.1435374 -0.06955594
000310 d9 36 c0 3d b9 76 62 bc 2a a4 b9 bd db bb 44 3e
       0.09385461 -0.013822251 -0.09064515 0.19212286
000320 3a 1b 6e 3d 96 71 25 be a5 ac b1 bd d2 af 6a bd
       0.058131434 -0.16156611 -0.086755075 -0.05729658
000330 ea e4 a8 bd fa 0f 11 be b9 cb 32 bd 12 b1 ab bd
       -0.08246787 -0.14166251 -0.043651316 -0.08383383
000340 eb 43 a3 bc cd 0b 49 3e 2d 18 37 be 6c b3 11 bd
       -0.019929847 0.19633408 -0.17880316 -0.0355715
000350 f0 97 56 3d bf df b3 bb c3 27 64 bd 0b 71 bc 3c
       0.052390993 -0.005489319 -0.055701982 0.023003122
000360 dd 94 4e 3d 75 ca 75 bd c4 db 45 3d 22 78 03 3e
       0.050434936 -0.06000753 0.048305288 0.12838796
000370 7c 8d 19 3e 36 8b eb 3c 87 48 99 3d a4 cc 58 3d
       0.14995378 0.028752904 0.074845366 0.052929536
000380 3f 87 20 3c b7 81 88 bd c9 1a d4 bc e4 17 01 be
       0.00979787 -0.06665366 -0.025891678 -0.1260677
000390 f2 1d 1f 3e cc 77 97 bb ff 36 04 3e 50 a5 84 bd
       0.15538767 -0.004622435 0.12911604 -0.06476843
0003a0 13 ef 8f 3d 80 9e 55 3c ab de 64 be 21 00 54 bc
       0.07028022 0.013038278 -0.22350566 -0.012939484
0003b0 79 3b 14 3d cb f0 04 3c 37 f5 9c 3d 4b c4 92 bd
       0.03618953 0.00811405 0.076639585 -0.07166346
0003c0 41 cd e0 bd db 50 7f 3d d7 7b 11 bd a4 3c 57 3d
       -0.10976649 0.06233297 -0.035518494 0.052548066
0003d0 16 c3 a1 3c 1f 1d 57 bd 4a 4d a1 3c ce 83 dc 3d
       0.019746345 -0.052518006 0.019690175 0.10767327
0003e0 ae 8d 17 3c 1a a7 3b be fe e9 ae 3c 00 53 12 be
       0.009250088 -0.18325463 0.02135181 -0.14289474
0003f0 08 9d 1e be be ef 47 be 81 65 b7 3c 85 9c 1c be
       -0.1548959 -0.19525048 0.022387268 -0.15294082
